{"modelTopology": {"keras_version": "2.1.6", "backend": "tensorflow", "model_config": {"config": {"layers": [{"inbound_nodes": [], "name": "input_1", "config": {"batch_input_shape": [null, 192, 192, 3], "dtype": "float32", "sparse": false, "name": "input_1"}, "class_name": "InputLayer"}, {"inbound_nodes": [[["input_1", 0, 0, {}]]], "name": "front_conv_7x7_x1", "config": {"padding": "same", "use_bias": true, "trainable": true, "activity_regularizer": null, "kernel_initializer": {"config": {"mode": "fan_avg", "scale": 1.0, "distribution": "uniform", "seed": null}, "class_name": "VarianceScaling"}, "name": "front_conv_7x7_x1", "strides": [2, 2], "filters": 64, "bias_initializer": {"config": {}, "class_name": "Zeros"}, "activation": "relu", "data_format": "channels_last", "kernel_size": [7, 7], "kernel_constraint": null, "dilation_rate": [1, 1], "bias_constraint": null, "kernel_regularizer": null, "bias_regularizer": null}, "class_name": "Conv2D"}, {"inbound_nodes": [[["front_conv_7x7_x1", 0, 0, {}]]], "name": "batch_normalization_1", "config": {"gamma_regularizer": null, "trainable": true, "moving_variance_initializer": {"config": {}, "class_name": "Ones"}, "name": "batch_normalization_1", "center": true, "beta_regularizer": null, "beta_constraint": null, "epsilon": 0.001, "gamma_constraint": null, "axis": -1, "momentum": 0.99, "beta_initializer": {"config": {}, "class_name": "Zeros"}, "gamma_initializer": {"config": {}, "class_name": "Ones"}, "scale": true, "moving_mean_initializer": {"config": {}, "class_name": "Zeros"}}, "class_name": "BatchNormalization"}, {"inbound_nodes": [[["batch_normalization_1", 0, 0, {}]]], "name": "front_residual_x1convBlock_conv_1x1_x1", "config": {"padding": "same", "use_bias": true, "trainable": true, "activity_regularizer": null, "kernel_initializer": {"config": {"mode": "fan_avg", "scale": 1.0, "distribution": "uniform", "seed": null}, "class_name": "VarianceScaling"}, "name": "front_residual_x1convBlock_conv_1x1_x1", "strides": [1, 1], "filters": 32, "bias_initializer": {"config": {}, "class_name": "Zeros"}, "activation": "relu", "data_format": "channels_last", "kernel_size": [1, 1], "kernel_constraint": null, "dilation_rate": [1, 1], "bias_constraint": null, "kernel_regularizer": null, "bias_regularizer": null}, "class_name": "Conv2D"}, {"inbound_nodes": [[["front_residual_x1convBlock_conv_1x1_x1", 0, 0, {}]]], "name": "batch_normalization_2", "config": {"gamma_regularizer": null, "trainable": true, "moving_variance_initializer": {"config": {}, "class_name": "Ones"}, "name": "batch_normalization_2", "center": true, "beta_regularizer": null, "beta_constraint": null, "epsilon": 0.001, "gamma_constraint": null, "axis": -1, "momentum": 0.99, "beta_initializer": {"config": {}, "class_name": "Zeros"}, "gamma_initializer": {"config": {}, "class_name": "Ones"}, "scale": true, "moving_mean_initializer": {"config": {}, "class_name": "Zeros"}}, "class_name": "BatchNormalization"}, {"inbound_nodes": [[["batch_normalization_2", 0, 0, {}]]], "name": "front_residual_x1convBlock_conv_3x3_x2", "config": {"padding": "same", "use_bias": true, "trainable": true, "activity_regularizer": null, "kernel_initializer": {"config": {"mode": "fan_avg", "scale": 1.0, "distribution": "uniform", "seed": null}, "class_name": "VarianceScaling"}, "name": "front_residual_x1convBlock_conv_3x3_x2", "strides": [1, 1], "filters": 32, "bias_initializer": {"config": {}, "class_name": "Zeros"}, "activation": "relu", "data_format": "channels_last", "kernel_size": [3, 3], "kernel_constraint": null, "dilation_rate": [1, 1], "bias_constraint": null, "kernel_regularizer": null, "bias_regularizer": null}, "class_name": "Conv2D"}, {"inbound_nodes": [[["front_residual_x1convBlock_conv_3x3_x2", 0, 0, {}]]], "name": "batch_normalization_3", "config": {"gamma_regularizer": null, "trainable": true, "moving_variance_initializer": {"config": {}, "class_name": "Ones"}, "name": "batch_normalization_3", "center": true, "beta_regularizer": null, "beta_constraint": null, "epsilon": 0.001, "gamma_constraint": null, "axis": -1, "momentum": 0.99, "beta_initializer": {"config": {}, "class_name": "Zeros"}, "gamma_initializer": {"config": {}, "class_name": "Ones"}, "scale": true, "moving_mean_initializer": {"config": {}, "class_name": "Zeros"}}, "class_name": "BatchNormalization"}, {"inbound_nodes": [[["batch_normalization_3", 0, 0, {}]]], "name": "front_residual_x1convBlock_conv_1x1_x3", "config": {"padding": "same", "use_bias": true, "trainable": true, "activity_regularizer": null, "kernel_initializer": {"config": {"mode": "fan_avg", "scale": 1.0, "distribution": "uniform", "seed": null}, "class_name": "VarianceScaling"}, "name": "front_residual_x1convBlock_conv_1x1_x3", "strides": [1, 1], "filters": 64, "bias_initializer": {"config": {}, "class_name": "Zeros"}, "activation": "relu", "data_format": "channels_last", "kernel_size": [1, 1], "kernel_constraint": null, "dilation_rate": [1, 1], "bias_constraint": null, "kernel_regularizer": null, "bias_regularizer": null}, "class_name": "Conv2D"}, {"inbound_nodes": [[["front_residual_x1convBlock_conv_1x1_x3", 0, 0, {}]]], "name": "batch_normalization_4", "config": {"gamma_regularizer": null, "trainable": true, "moving_variance_initializer": {"config": {}, "class_name": "Ones"}, "name": "batch_normalization_4", "center": true, "beta_regularizer": null, "beta_constraint": null, "epsilon": 0.001, "gamma_constraint": null, "axis": -1, "momentum": 0.99, "beta_initializer": {"config": {}, "class_name": "Zeros"}, "gamma_initializer": {"config": {}, "class_name": "Ones"}, "scale": true, "moving_mean_initializer": {"config": {}, "class_name": "Zeros"}}, "class_name": "BatchNormalization"}, {"inbound_nodes": [[["batch_normalization_4", 0, 0, {}], ["batch_normalization_1", 0, 0, {}]]], "name": "add_1", "config": {"trainable": true, "name": "add_1"}, "class_name": "Add"}, {"inbound_nodes": [[["add_1", 0, 0, {}]]], "name": "max_pooling2d_1", "config": {"padding": "valid", "pool_size": [2, 2], "trainable": true, "name": "max_pooling2d_1", "strides": [2, 2], "data_format": "channels_last"}, "class_name": "MaxPooling2D"}, {"inbound_nodes": [[["max_pooling2d_1", 0, 0, {}]]], "name": "front_residual_x2convBlock_conv_1x1_x1", "config": {"padding": "same", "use_bias": true, "trainable": true, "activity_regularizer": null, "kernel_initializer": {"config": {"mode": "fan_avg", "scale": 1.0, "distribution": "uniform", "seed": null}, "class_name": "VarianceScaling"}, "name": "front_residual_x2convBlock_conv_1x1_x1", "strides": [1, 1], "filters": 32, "bias_initializer": {"config": {}, "class_name": "Zeros"}, "activation": "relu", "data_format": "channels_last", "kernel_size": [1, 1], "kernel_constraint": null, "dilation_rate": [1, 1], "bias_constraint": null, "kernel_regularizer": null, "bias_regularizer": null}, "class_name": "Conv2D"}, {"inbound_nodes": [[["front_residual_x2convBlock_conv_1x1_x1", 0, 0, {}]]], "name": "batch_normalization_5", "config": {"gamma_regularizer": null, "trainable": true, "moving_variance_initializer": {"config": {}, "class_name": "Ones"}, "name": "batch_normalization_5", "center": true, "beta_regularizer": null, "beta_constraint": null, "epsilon": 0.001, "gamma_constraint": null, "axis": -1, "momentum": 0.99, "beta_initializer": {"config": {}, "class_name": "Zeros"}, "gamma_initializer": {"config": {}, "class_name": "Ones"}, "scale": true, "moving_mean_initializer": {"config": {}, "class_name": "Zeros"}}, "class_name": "BatchNormalization"}, {"inbound_nodes": [[["batch_normalization_5", 0, 0, {}]]], "name": "front_residual_x2convBlock_conv_3x3_x2", "config": {"padding": "same", "use_bias": true, "trainable": true, "activity_regularizer": null, "kernel_initializer": {"config": {"mode": "fan_avg", "scale": 1.0, "distribution": "uniform", "seed": null}, "class_name": "VarianceScaling"}, "name": "front_residual_x2convBlock_conv_3x3_x2", "strides": [1, 1], "filters": 32, "bias_initializer": {"config": {}, "class_name": "Zeros"}, "activation": "relu", "data_format": "channels_last", "kernel_size": [3, 3], "kernel_constraint": null, "dilation_rate": [1, 1], "bias_constraint": null, "kernel_regularizer": null, "bias_regularizer": null}, "class_name": "Conv2D"}, {"inbound_nodes": [[["front_residual_x2convBlock_conv_3x3_x2", 0, 0, {}]]], "name": "batch_normalization_6", "config": {"gamma_regularizer": null, "trainable": true, "moving_variance_initializer": {"config": {}, "class_name": "Ones"}, "name": "batch_normalization_6", "center": true, "beta_regularizer": null, "beta_constraint": null, "epsilon": 0.001, "gamma_constraint": null, "axis": -1, "momentum": 0.99, "beta_initializer": {"config": {}, "class_name": "Zeros"}, "gamma_initializer": {"config": {}, "class_name": "Ones"}, "scale": true, "moving_mean_initializer": {"config": {}, "class_name": "Zeros"}}, "class_name": "BatchNormalization"}, {"inbound_nodes": [[["batch_normalization_6", 0, 0, {}]]], "name": "front_residual_x2convBlock_conv_1x1_x3", "config": {"padding": "same", "use_bias": true, "trainable": true, "activity_regularizer": null, "kernel_initializer": {"config": {"mode": "fan_avg", "scale": 1.0, "distribution": "uniform", "seed": null}, "class_name": "VarianceScaling"}, "name": "front_residual_x2convBlock_conv_1x1_x3", "strides": [1, 1], "filters": 64, "bias_initializer": {"config": {}, "class_name": "Zeros"}, "activation": "relu", "data_format": "channels_last", "kernel_size": [1, 1], "kernel_constraint": null, "dilation_rate": [1, 1], "bias_constraint": null, "kernel_regularizer": null, "bias_regularizer": null}, "class_name": "Conv2D"}, {"inbound_nodes": [[["front_residual_x2convBlock_conv_1x1_x3", 0, 0, {}]]], "name": "batch_normalization_7", "config": {"gamma_regularizer": null, "trainable": true, "moving_variance_initializer": {"config": {}, "class_name": "Ones"}, "name": "batch_normalization_7", "center": true, "beta_regularizer": null, "beta_constraint": null, "epsilon": 0.001, "gamma_constraint": null, "axis": -1, "momentum": 0.99, "beta_initializer": {"config": {}, "class_name": "Zeros"}, "gamma_initializer": {"config": {}, "class_name": "Ones"}, "scale": true, "moving_mean_initializer": {"config": {}, "class_name": "Zeros"}}, "class_name": "BatchNormalization"}, {"inbound_nodes": [[["batch_normalization_7", 0, 0, {}], ["max_pooling2d_1", 0, 0, {}]]], "name": "add_2", "config": {"trainable": true, "name": "add_2"}, "class_name": "Add"}, {"inbound_nodes": [[["add_2", 0, 0, {}]]], "name": "front_residual_x3convBlock_conv_1x1_x1", "config": {"padding": "same", "use_bias": true, "trainable": true, "activity_regularizer": null, "kernel_initializer": {"config": {"mode": "fan_avg", "scale": 1.0, "distribution": "uniform", "seed": null}, "class_name": "VarianceScaling"}, "name": "front_residual_x3convBlock_conv_1x1_x1", "strides": [1, 1], "filters": 64, "bias_initializer": {"config": {}, "class_name": "Zeros"}, "activation": "relu", "data_format": "channels_last", "kernel_size": [1, 1], "kernel_constraint": null, "dilation_rate": [1, 1], "bias_constraint": null, "kernel_regularizer": null, "bias_regularizer": null}, "class_name": "Conv2D"}, {"inbound_nodes": [[["front_residual_x3convBlock_conv_1x1_x1", 0, 0, {}]]], "name": "batch_normalization_8", "config": {"gamma_regularizer": null, "trainable": true, "moving_variance_initializer": {"config": {}, "class_name": "Ones"}, "name": "batch_normalization_8", "center": true, "beta_regularizer": null, "beta_constraint": null, "epsilon": 0.001, "gamma_constraint": null, "axis": -1, "momentum": 0.99, "beta_initializer": {"config": {}, "class_name": "Zeros"}, "gamma_initializer": {"config": {}, "class_name": "Ones"}, "scale": true, "moving_mean_initializer": {"config": {}, "class_name": "Zeros"}}, "class_name": "BatchNormalization"}, {"inbound_nodes": [[["batch_normalization_8", 0, 0, {}]]], "name": "front_residual_x3convBlock_conv_3x3_x2", "config": {"padding": "same", "use_bias": true, "trainable": true, "activity_regularizer": null, "kernel_initializer": {"config": {"mode": "fan_avg", "scale": 1.0, "distribution": "uniform", "seed": null}, "class_name": "VarianceScaling"}, "name": "front_residual_x3convBlock_conv_3x3_x2", "strides": [1, 1], "filters": 64, "bias_initializer": {"config": {}, "class_name": "Zeros"}, "activation": "relu", "data_format": "channels_last", "kernel_size": [3, 3], "kernel_constraint": null, "dilation_rate": [1, 1], "bias_constraint": null, "kernel_regularizer": null, "bias_regularizer": null}, "class_name": "Conv2D"}, {"inbound_nodes": [[["front_residual_x3convBlock_conv_3x3_x2", 0, 0, {}]]], "name": "batch_normalization_9", "config": {"gamma_regularizer": null, "trainable": true, "moving_variance_initializer": {"config": {}, "class_name": "Ones"}, "name": "batch_normalization_9", "center": true, "beta_regularizer": null, "beta_constraint": null, "epsilon": 0.001, "gamma_constraint": null, "axis": -1, "momentum": 0.99, "beta_initializer": {"config": {}, "class_name": "Zeros"}, "gamma_initializer": {"config": {}, "class_name": "Ones"}, "scale": true, "moving_mean_initializer": {"config": {}, "class_name": "Zeros"}}, "class_name": "BatchNormalization"}, {"inbound_nodes": [[["batch_normalization_9", 0, 0, {}]]], "name": "front_residual_x3convBlock_conv_1x1_x3", "config": {"padding": "same", "use_bias": true, "trainable": true, "activity_regularizer": null, "kernel_initializer": {"config": {"mode": "fan_avg", "scale": 1.0, "distribution": "uniform", "seed": null}, "class_name": "VarianceScaling"}, "name": "front_residual_x3convBlock_conv_1x1_x3", "strides": [1, 1], "filters": 128, "bias_initializer": {"config": {}, "class_name": "Zeros"}, "activation": "relu", "data_format": "channels_last", "kernel_size": [1, 1], "kernel_constraint": null, "dilation_rate": [1, 1], "bias_constraint": null, "kernel_regularizer": null, "bias_regularizer": null}, "class_name": "Conv2D"}, {"inbound_nodes": [[["front_residual_x3convBlock_conv_1x1_x3", 0, 0, {}]]], "name": "batch_normalization_10", "config": {"gamma_regularizer": null, "trainable": true, "moving_variance_initializer": {"config": {}, "class_name": "Ones"}, "name": "batch_normalization_10", "center": true, "beta_regularizer": null, "beta_constraint": null, "epsilon": 0.001, "gamma_constraint": null, "axis": -1, "momentum": 0.99, "beta_initializer": {"config": {}, "class_name": "Zeros"}, "gamma_initializer": {"config": {}, "class_name": "Ones"}, "scale": true, "moving_mean_initializer": {"config": {}, "class_name": "Zeros"}}, "class_name": "BatchNormalization"}, {"inbound_nodes": [[["add_2", 0, 0, {}]]], "name": "front_residual_x3skipLayer_skip_conv", "config": {"padding": "same", "use_bias": true, "trainable": true, "activity_regularizer": null, "kernel_initializer": {"config": {"mode": "fan_avg", "scale": 1.0, "distribution": "uniform", "seed": null}, "class_name": "VarianceScaling"}, "name": "front_residual_x3skipLayer_skip_conv", "strides": [1, 1], "filters": 128, "bias_initializer": {"config": {}, "class_name": "Zeros"}, "activation": "relu", "data_format": "channels_last", "kernel_size": [1, 1], "kernel_constraint": null, "dilation_rate": [1, 1], "bias_constraint": null, "kernel_regularizer": null, "bias_regularizer": null}, "class_name": "Conv2D"}, {"inbound_nodes": [[["batch_normalization_10", 0, 0, {}], ["front_residual_x3skipLayer_skip_conv", 0, 0, {}]]], "name": "add_3", "config": {"trainable": true, "name": "add_3"}, "class_name": "Add"}, {"inbound_nodes": [[["add_3", 0, 0, {}]]], "name": "hg_0_l1convBlock_conv_1x1_x1", "config": {"padding": "same", "use_bias": true, "trainable": true, "activity_regularizer": null, "kernel_initializer": {"config": {"mode": "fan_avg", "scale": 1.0, "distribution": "uniform", "seed": null}, "class_name": "VarianceScaling"}, "name": "hg_0_l1convBlock_conv_1x1_x1", "strides": [1, 1], "filters": 64, "bias_initializer": {"config": {}, "class_name": "Zeros"}, "activation": "relu", "data_format": "channels_last", "kernel_size": [1, 1], "kernel_constraint": null, "dilation_rate": [1, 1], "bias_constraint": null, "kernel_regularizer": null, "bias_regularizer": null}, "class_name": "Conv2D"}, {"inbound_nodes": [[["hg_0_l1convBlock_conv_1x1_x1", 0, 0, {}]]], "name": "batch_normalization_11", "config": {"gamma_regularizer": null, "trainable": true, "moving_variance_initializer": {"config": {}, "class_name": "Ones"}, "name": "batch_normalization_11", "center": true, "beta_regularizer": null, "beta_constraint": null, "epsilon": 0.001, "gamma_constraint": null, "axis": -1, "momentum": 0.99, "beta_initializer": {"config": {}, "class_name": "Zeros"}, "gamma_initializer": {"config": {}, "class_name": "Ones"}, "scale": true, "moving_mean_initializer": {"config": {}, "class_name": "Zeros"}}, "class_name": "BatchNormalization"}, {"inbound_nodes": [[["batch_normalization_11", 0, 0, {}]]], "name": "hg_0_l1convBlock_conv_3x3_x2", "config": {"padding": "same", "use_bias": true, "trainable": true, "activity_regularizer": null, "kernel_initializer": {"config": {"mode": "fan_avg", "scale": 1.0, "distribution": "uniform", "seed": null}, "class_name": "VarianceScaling"}, "name": "hg_0_l1convBlock_conv_3x3_x2", "strides": [1, 1], "filters": 64, "bias_initializer": {"config": {}, "class_name": "Zeros"}, "activation": "relu", "data_format": "channels_last", "kernel_size": [3, 3], "kernel_constraint": null, "dilation_rate": [1, 1], "bias_constraint": null, "kernel_regularizer": null, "bias_regularizer": null}, "class_name": "Conv2D"}, {"inbound_nodes": [[["hg_0_l1convBlock_conv_3x3_x2", 0, 0, {}]]], "name": "batch_normalization_12", "config": {"gamma_regularizer": null, "trainable": true, "moving_variance_initializer": {"config": {}, "class_name": "Ones"}, "name": "batch_normalization_12", "center": true, "beta_regularizer": null, "beta_constraint": null, "epsilon": 0.001, "gamma_constraint": null, "axis": -1, "momentum": 0.99, "beta_initializer": {"config": {}, "class_name": "Zeros"}, "gamma_initializer": {"config": {}, "class_name": "Ones"}, "scale": true, "moving_mean_initializer": {"config": {}, "class_name": "Zeros"}}, "class_name": "BatchNormalization"}, {"inbound_nodes": [[["batch_normalization_12", 0, 0, {}]]], "name": "hg_0_l1convBlock_conv_1x1_x3", "config": {"padding": "same", "use_bias": true, "trainable": true, "activity_regularizer": null, "kernel_initializer": {"config": {"mode": "fan_avg", "scale": 1.0, "distribution": "uniform", "seed": null}, "class_name": "VarianceScaling"}, "name": "hg_0_l1convBlock_conv_1x1_x3", "strides": [1, 1], "filters": 128, "bias_initializer": {"config": {}, "class_name": "Zeros"}, "activation": "relu", "data_format": "channels_last", "kernel_size": [1, 1], "kernel_constraint": null, "dilation_rate": [1, 1], "bias_constraint": null, "kernel_regularizer": null, "bias_regularizer": null}, "class_name": "Conv2D"}, {"inbound_nodes": [[["hg_0_l1convBlock_conv_1x1_x3", 0, 0, {}]]], "name": "batch_normalization_13", "config": {"gamma_regularizer": null, "trainable": true, "moving_variance_initializer": {"config": {}, "class_name": "Ones"}, "name": "batch_normalization_13", "center": true, "beta_regularizer": null, "beta_constraint": null, "epsilon": 0.001, "gamma_constraint": null, "axis": -1, "momentum": 0.99, "beta_initializer": {"config": {}, "class_name": "Zeros"}, "gamma_initializer": {"config": {}, "class_name": "Ones"}, "scale": true, "moving_mean_initializer": {"config": {}, "class_name": "Zeros"}}, "class_name": "BatchNormalization"}, {"inbound_nodes": [[["batch_normalization_13", 0, 0, {}], ["add_3", 0, 0, {}]]], "name": "add_4", "config": {"trainable": true, "name": "add_4"}, "class_name": "Add"}, {"inbound_nodes": [[["add_4", 0, 0, {}]]], "name": "max_pooling2d_2", "config": {"padding": "valid", "pool_size": [2, 2], "trainable": true, "name": "max_pooling2d_2", "strides": [2, 2], "data_format": "channels_last"}, "class_name": "MaxPooling2D"}, {"inbound_nodes": [[["max_pooling2d_2", 0, 0, {}]]], "name": "hg_0_l2convBlock_conv_1x1_x1", "config": {"padding": "same", "use_bias": true, "trainable": true, "activity_regularizer": null, "kernel_initializer": {"config": {"mode": "fan_avg", "scale": 1.0, "distribution": "uniform", "seed": null}, "class_name": "VarianceScaling"}, "name": "hg_0_l2convBlock_conv_1x1_x1", "strides": [1, 1], "filters": 64, "bias_initializer": {"config": {}, "class_name": "Zeros"}, "activation": "relu", "data_format": "channels_last", "kernel_size": [1, 1], "kernel_constraint": null, "dilation_rate": [1, 1], "bias_constraint": null, "kernel_regularizer": null, "bias_regularizer": null}, "class_name": "Conv2D"}, {"inbound_nodes": [[["hg_0_l2convBlock_conv_1x1_x1", 0, 0, {}]]], "name": "batch_normalization_14", "config": {"gamma_regularizer": null, "trainable": true, "moving_variance_initializer": {"config": {}, "class_name": "Ones"}, "name": "batch_normalization_14", "center": true, "beta_regularizer": null, "beta_constraint": null, "epsilon": 0.001, "gamma_constraint": null, "axis": -1, "momentum": 0.99, "beta_initializer": {"config": {}, "class_name": "Zeros"}, "gamma_initializer": {"config": {}, "class_name": "Ones"}, "scale": true, "moving_mean_initializer": {"config": {}, "class_name": "Zeros"}}, "class_name": "BatchNormalization"}, {"inbound_nodes": [[["batch_normalization_14", 0, 0, {}]]], "name": "hg_0_l2convBlock_conv_3x3_x2", "config": {"padding": "same", "use_bias": true, "trainable": true, "activity_regularizer": null, "kernel_initializer": {"config": {"mode": "fan_avg", "scale": 1.0, "distribution": "uniform", "seed": null}, "class_name": "VarianceScaling"}, "name": "hg_0_l2convBlock_conv_3x3_x2", "strides": [1, 1], "filters": 64, "bias_initializer": {"config": {}, "class_name": "Zeros"}, "activation": "relu", "data_format": "channels_last", "kernel_size": [3, 3], "kernel_constraint": null, "dilation_rate": [1, 1], "bias_constraint": null, "kernel_regularizer": null, "bias_regularizer": null}, "class_name": "Conv2D"}, {"inbound_nodes": [[["hg_0_l2convBlock_conv_3x3_x2", 0, 0, {}]]], "name": "batch_normalization_15", "config": {"gamma_regularizer": null, "trainable": true, "moving_variance_initializer": {"config": {}, "class_name": "Ones"}, "name": "batch_normalization_15", "center": true, "beta_regularizer": null, "beta_constraint": null, "epsilon": 0.001, "gamma_constraint": null, "axis": -1, "momentum": 0.99, "beta_initializer": {"config": {}, "class_name": "Zeros"}, "gamma_initializer": {"config": {}, "class_name": "Ones"}, "scale": true, "moving_mean_initializer": {"config": {}, "class_name": "Zeros"}}, "class_name": "BatchNormalization"}, {"inbound_nodes": [[["batch_normalization_15", 0, 0, {}]]], "name": "hg_0_l2convBlock_conv_1x1_x3", "config": {"padding": "same", "use_bias": true, "trainable": true, "activity_regularizer": null, "kernel_initializer": {"config": {"mode": "fan_avg", "scale": 1.0, "distribution": "uniform", "seed": null}, "class_name": "VarianceScaling"}, "name": "hg_0_l2convBlock_conv_1x1_x3", "strides": [1, 1], "filters": 128, "bias_initializer": {"config": {}, "class_name": "Zeros"}, "activation": "relu", "data_format": "channels_last", "kernel_size": [1, 1], "kernel_constraint": null, "dilation_rate": [1, 1], "bias_constraint": null, "kernel_regularizer": null, "bias_regularizer": null}, "class_name": "Conv2D"}, {"inbound_nodes": [[["hg_0_l2convBlock_conv_1x1_x3", 0, 0, {}]]], "name": "batch_normalization_16", "config": {"gamma_regularizer": null, "trainable": true, "moving_variance_initializer": {"config": {}, "class_name": "Ones"}, "name": "batch_normalization_16", "center": true, "beta_regularizer": null, "beta_constraint": null, "epsilon": 0.001, "gamma_constraint": null, "axis": -1, "momentum": 0.99, "beta_initializer": {"config": {}, "class_name": "Zeros"}, "gamma_initializer": {"config": {}, "class_name": "Ones"}, "scale": true, "moving_mean_initializer": {"config": {}, "class_name": "Zeros"}}, "class_name": "BatchNormalization"}, {"inbound_nodes": [[["batch_normalization_16", 0, 0, {}], ["max_pooling2d_2", 0, 0, {}]]], "name": "add_5", "config": {"trainable": true, "name": "add_5"}, "class_name": "Add"}, {"inbound_nodes": [[["add_5", 0, 0, {}]]], "name": "max_pooling2d_3", "config": {"padding": "valid", "pool_size": [2, 2], "trainable": true, "name": "max_pooling2d_3", "strides": [2, 2], "data_format": "channels_last"}, "class_name": "MaxPooling2D"}, {"inbound_nodes": [[["max_pooling2d_3", 0, 0, {}]]], "name": "hg_0_l4convBlock_conv_1x1_x1", "config": {"padding": "same", "use_bias": true, "trainable": true, "activity_regularizer": null, "kernel_initializer": {"config": {"mode": "fan_avg", "scale": 1.0, "distribution": "uniform", "seed": null}, "class_name": "VarianceScaling"}, "name": "hg_0_l4convBlock_conv_1x1_x1", "strides": [1, 1], "filters": 64, "bias_initializer": {"config": {}, "class_name": "Zeros"}, "activation": "relu", "data_format": "channels_last", "kernel_size": [1, 1], "kernel_constraint": null, "dilation_rate": [1, 1], "bias_constraint": null, "kernel_regularizer": null, "bias_regularizer": null}, "class_name": "Conv2D"}, {"inbound_nodes": [[["hg_0_l4convBlock_conv_1x1_x1", 0, 0, {}]]], "name": "batch_normalization_17", "config": {"gamma_regularizer": null, "trainable": true, "moving_variance_initializer": {"config": {}, "class_name": "Ones"}, "name": "batch_normalization_17", "center": true, "beta_regularizer": null, "beta_constraint": null, "epsilon": 0.001, "gamma_constraint": null, "axis": -1, "momentum": 0.99, "beta_initializer": {"config": {}, "class_name": "Zeros"}, "gamma_initializer": {"config": {}, "class_name": "Ones"}, "scale": true, "moving_mean_initializer": {"config": {}, "class_name": "Zeros"}}, "class_name": "BatchNormalization"}, {"inbound_nodes": [[["batch_normalization_17", 0, 0, {}]]], "name": "hg_0_l4convBlock_conv_3x3_x2", "config": {"padding": "same", "use_bias": true, "trainable": true, "activity_regularizer": null, "kernel_initializer": {"config": {"mode": "fan_avg", "scale": 1.0, "distribution": "uniform", "seed": null}, "class_name": "VarianceScaling"}, "name": "hg_0_l4convBlock_conv_3x3_x2", "strides": [1, 1], "filters": 64, "bias_initializer": {"config": {}, "class_name": "Zeros"}, "activation": "relu", "data_format": "channels_last", "kernel_size": [3, 3], "kernel_constraint": null, "dilation_rate": [1, 1], "bias_constraint": null, "kernel_regularizer": null, "bias_regularizer": null}, "class_name": "Conv2D"}, {"inbound_nodes": [[["hg_0_l4convBlock_conv_3x3_x2", 0, 0, {}]]], "name": "batch_normalization_18", "config": {"gamma_regularizer": null, "trainable": true, "moving_variance_initializer": {"config": {}, "class_name": "Ones"}, "name": "batch_normalization_18", "center": true, "beta_regularizer": null, "beta_constraint": null, "epsilon": 0.001, "gamma_constraint": null, "axis": -1, "momentum": 0.99, "beta_initializer": {"config": {}, "class_name": "Zeros"}, "gamma_initializer": {"config": {}, "class_name": "Ones"}, "scale": true, "moving_mean_initializer": {"config": {}, "class_name": "Zeros"}}, "class_name": "BatchNormalization"}, {"inbound_nodes": [[["batch_normalization_18", 0, 0, {}]]], "name": "hg_0_l4convBlock_conv_1x1_x3", "config": {"padding": "same", "use_bias": true, "trainable": true, "activity_regularizer": null, "kernel_initializer": {"config": {"mode": "fan_avg", "scale": 1.0, "distribution": "uniform", "seed": null}, "class_name": "VarianceScaling"}, "name": "hg_0_l4convBlock_conv_1x1_x3", "strides": [1, 1], "filters": 128, "bias_initializer": {"config": {}, "class_name": "Zeros"}, "activation": "relu", "data_format": "channels_last", "kernel_size": [1, 1], "kernel_constraint": null, "dilation_rate": [1, 1], "bias_constraint": null, "kernel_regularizer": null, "bias_regularizer": null}, "class_name": "Conv2D"}, {"inbound_nodes": [[["hg_0_l4convBlock_conv_1x1_x3", 0, 0, {}]]], "name": "batch_normalization_19", "config": {"gamma_regularizer": null, "trainable": true, "moving_variance_initializer": {"config": {}, "class_name": "Ones"}, "name": "batch_normalization_19", "center": true, "beta_regularizer": null, "beta_constraint": null, "epsilon": 0.001, "gamma_constraint": null, "axis": -1, "momentum": 0.99, "beta_initializer": {"config": {}, "class_name": "Zeros"}, "gamma_initializer": {"config": {}, "class_name": "Ones"}, "scale": true, "moving_mean_initializer": {"config": {}, "class_name": "Zeros"}}, "class_name": "BatchNormalization"}, {"inbound_nodes": [[["batch_normalization_19", 0, 0, {}], ["max_pooling2d_3", 0, 0, {}]]], "name": "add_6", "config": {"trainable": true, "name": "add_6"}, "class_name": "Add"}, {"inbound_nodes": [[["add_6", 0, 0, {}]]], "name": "max_pooling2d_4", "config": {"padding": "valid", "pool_size": [2, 2], "trainable": true, "name": "max_pooling2d_4", "strides": [2, 2], "data_format": "channels_last"}, "class_name": "MaxPooling2D"}, {"inbound_nodes": [[["max_pooling2d_4", 0, 0, {}]]], "name": "hg_0_l8convBlock_conv_1x1_x1", "config": {"padding": "same", "use_bias": true, "trainable": true, "activity_regularizer": null, "kernel_initializer": {"config": {"mode": "fan_avg", "scale": 1.0, "distribution": "uniform", "seed": null}, "class_name": "VarianceScaling"}, "name": "hg_0_l8convBlock_conv_1x1_x1", "strides": [1, 1], "filters": 64, "bias_initializer": {"config": {}, "class_name": "Zeros"}, "activation": "relu", "data_format": "channels_last", "kernel_size": [1, 1], "kernel_constraint": null, "dilation_rate": [1, 1], "bias_constraint": null, "kernel_regularizer": null, "bias_regularizer": null}, "class_name": "Conv2D"}, {"inbound_nodes": [[["hg_0_l8convBlock_conv_1x1_x1", 0, 0, {}]]], "name": "batch_normalization_20", "config": {"gamma_regularizer": null, "trainable": true, "moving_variance_initializer": {"config": {}, "class_name": "Ones"}, "name": "batch_normalization_20", "center": true, "beta_regularizer": null, "beta_constraint": null, "epsilon": 0.001, "gamma_constraint": null, "axis": -1, "momentum": 0.99, "beta_initializer": {"config": {}, "class_name": "Zeros"}, "gamma_initializer": {"config": {}, "class_name": "Ones"}, "scale": true, "moving_mean_initializer": {"config": {}, "class_name": "Zeros"}}, "class_name": "BatchNormalization"}, {"inbound_nodes": [[["batch_normalization_20", 0, 0, {}]]], "name": "hg_0_l8convBlock_conv_3x3_x2", "config": {"padding": "same", "use_bias": true, "trainable": true, "activity_regularizer": null, "kernel_initializer": {"config": {"mode": "fan_avg", "scale": 1.0, "distribution": "uniform", "seed": null}, "class_name": "VarianceScaling"}, "name": "hg_0_l8convBlock_conv_3x3_x2", "strides": [1, 1], "filters": 64, "bias_initializer": {"config": {}, "class_name": "Zeros"}, "activation": "relu", "data_format": "channels_last", "kernel_size": [3, 3], "kernel_constraint": null, "dilation_rate": [1, 1], "bias_constraint": null, "kernel_regularizer": null, "bias_regularizer": null}, "class_name": "Conv2D"}, {"inbound_nodes": [[["hg_0_l8convBlock_conv_3x3_x2", 0, 0, {}]]], "name": "batch_normalization_21", "config": {"gamma_regularizer": null, "trainable": true, "moving_variance_initializer": {"config": {}, "class_name": "Ones"}, "name": "batch_normalization_21", "center": true, "beta_regularizer": null, "beta_constraint": null, "epsilon": 0.001, "gamma_constraint": null, "axis": -1, "momentum": 0.99, "beta_initializer": {"config": {}, "class_name": "Zeros"}, "gamma_initializer": {"config": {}, "class_name": "Ones"}, "scale": true, "moving_mean_initializer": {"config": {}, "class_name": "Zeros"}}, "class_name": "BatchNormalization"}, {"inbound_nodes": [[["batch_normalization_21", 0, 0, {}]]], "name": "hg_0_l8convBlock_conv_1x1_x3", "config": {"padding": "same", "use_bias": true, "trainable": true, "activity_regularizer": null, "kernel_initializer": {"config": {"mode": "fan_avg", "scale": 1.0, "distribution": "uniform", "seed": null}, "class_name": "VarianceScaling"}, "name": "hg_0_l8convBlock_conv_1x1_x3", "strides": [1, 1], "filters": 128, "bias_initializer": {"config": {}, "class_name": "Zeros"}, "activation": "relu", "data_format": "channels_last", "kernel_size": [1, 1], "kernel_constraint": null, "dilation_rate": [1, 1], "bias_constraint": null, "kernel_regularizer": null, "bias_regularizer": null}, "class_name": "Conv2D"}, {"inbound_nodes": [[["hg_0_l8convBlock_conv_1x1_x3", 0, 0, {}]]], "name": "batch_normalization_22", "config": {"gamma_regularizer": null, "trainable": true, "moving_variance_initializer": {"config": {}, "class_name": "Ones"}, "name": "batch_normalization_22", "center": true, "beta_regularizer": null, "beta_constraint": null, "epsilon": 0.001, "gamma_constraint": null, "axis": -1, "momentum": 0.99, "beta_initializer": {"config": {}, "class_name": "Zeros"}, "gamma_initializer": {"config": {}, "class_name": "Ones"}, "scale": true, "moving_mean_initializer": {"config": {}, "class_name": "Zeros"}}, "class_name": "BatchNormalization"}, {"inbound_nodes": [[["batch_normalization_22", 0, 0, {}], ["max_pooling2d_4", 0, 0, {}]]], "name": "add_7", "config": {"trainable": true, "name": "add_7"}, "class_name": "Add"}, {"inbound_nodes": [[["add_7", 0, 0, {}]]], "name": "hg_0lf8_resi_x1_convBlock_conv_1x1_x1", "config": {"padding": "same", "use_bias": true, "trainable": true, "activity_regularizer": null, "kernel_initializer": {"config": {"mode": "fan_avg", "scale": 1.0, "distribution": "uniform", "seed": null}, "class_name": "VarianceScaling"}, "name": "hg_0lf8_resi_x1_convBlock_conv_1x1_x1", "strides": [1, 1], "filters": 64, "bias_initializer": {"config": {}, "class_name": "Zeros"}, "activation": "relu", "data_format": "channels_last", "kernel_size": [1, 1], "kernel_constraint": null, "dilation_rate": [1, 1], "bias_constraint": null, "kernel_regularizer": null, "bias_regularizer": null}, "class_name": "Conv2D"}, {"inbound_nodes": [[["hg_0lf8_resi_x1_convBlock_conv_1x1_x1", 0, 0, {}]]], "name": "batch_normalization_26", "config": {"gamma_regularizer": null, "trainable": true, "moving_variance_initializer": {"config": {}, "class_name": "Ones"}, "name": "batch_normalization_26", "center": true, "beta_regularizer": null, "beta_constraint": null, "epsilon": 0.001, "gamma_constraint": null, "axis": -1, "momentum": 0.99, "beta_initializer": {"config": {}, "class_name": "Zeros"}, "gamma_initializer": {"config": {}, "class_name": "Ones"}, "scale": true, "moving_mean_initializer": {"config": {}, "class_name": "Zeros"}}, "class_name": "BatchNormalization"}, {"inbound_nodes": [[["batch_normalization_26", 0, 0, {}]]], "name": "hg_0lf8_resi_x1_convBlock_conv_3x3_x2", "config": {"padding": "same", "use_bias": true, "trainable": true, "activity_regularizer": null, "kernel_initializer": {"config": {"mode": "fan_avg", "scale": 1.0, "distribution": "uniform", "seed": null}, "class_name": "VarianceScaling"}, "name": "hg_0lf8_resi_x1_convBlock_conv_3x3_x2", "strides": [1, 1], "filters": 64, "bias_initializer": {"config": {}, "class_name": "Zeros"}, "activation": "relu", "data_format": "channels_last", "kernel_size": [3, 3], "kernel_constraint": null, "dilation_rate": [1, 1], "bias_constraint": null, "kernel_regularizer": null, "bias_regularizer": null}, "class_name": "Conv2D"}, {"inbound_nodes": [[["hg_0lf8_resi_x1_convBlock_conv_3x3_x2", 0, 0, {}]]], "name": "batch_normalization_27", "config": {"gamma_regularizer": null, "trainable": true, "moving_variance_initializer": {"config": {}, "class_name": "Ones"}, "name": "batch_normalization_27", "center": true, "beta_regularizer": null, "beta_constraint": null, "epsilon": 0.001, "gamma_constraint": null, "axis": -1, "momentum": 0.99, "beta_initializer": {"config": {}, "class_name": "Zeros"}, "gamma_initializer": {"config": {}, "class_name": "Ones"}, "scale": true, "moving_mean_initializer": {"config": {}, "class_name": "Zeros"}}, "class_name": "BatchNormalization"}, {"inbound_nodes": [[["batch_normalization_27", 0, 0, {}]]], "name": "hg_0lf8_resi_x1_convBlock_conv_1x1_x3", "config": {"padding": "same", "use_bias": true, "trainable": true, "activity_regularizer": null, "kernel_initializer": {"config": {"mode": "fan_avg", "scale": 1.0, "distribution": "uniform", "seed": null}, "class_name": "VarianceScaling"}, "name": "hg_0lf8_resi_x1_convBlock_conv_1x1_x3", "strides": [1, 1], "filters": 128, "bias_initializer": {"config": {}, "class_name": "Zeros"}, "activation": "relu", "data_format": "channels_last", "kernel_size": [1, 1], "kernel_constraint": null, "dilation_rate": [1, 1], "bias_constraint": null, "kernel_regularizer": null, "bias_regularizer": null}, "class_name": "Conv2D"}, {"inbound_nodes": [[["hg_0lf8_resi_x1_convBlock_conv_1x1_x3", 0, 0, {}]]], "name": "batch_normalization_28", "config": {"gamma_regularizer": null, "trainable": true, "moving_variance_initializer": {"config": {}, "class_name": "Ones"}, "name": "batch_normalization_28", "center": true, "beta_regularizer": null, "beta_constraint": null, "epsilon": 0.001, "gamma_constraint": null, "axis": -1, "momentum": 0.99, "beta_initializer": {"config": {}, "class_name": "Zeros"}, "gamma_initializer": {"config": {}, "class_name": "Ones"}, "scale": true, "moving_mean_initializer": {"config": {}, "class_name": "Zeros"}}, "class_name": "BatchNormalization"}, {"inbound_nodes": [[["batch_normalization_28", 0, 0, {}], ["add_7", 0, 0, {}]]], "name": "add_9", "config": {"trainable": true, "name": "add_9"}, "class_name": "Add"}, {"inbound_nodes": [[["add_9", 0, 0, {}]]], "name": "hg_0lf8_resi_x2_convBlock_conv_1x1_x1", "config": {"padding": "same", "use_bias": true, "trainable": true, "activity_regularizer": null, "kernel_initializer": {"config": {"mode": "fan_avg", "scale": 1.0, "distribution": "uniform", "seed": null}, "class_name": "VarianceScaling"}, "name": "hg_0lf8_resi_x2_convBlock_conv_1x1_x1", "strides": [1, 1], "filters": 64, "bias_initializer": {"config": {}, "class_name": "Zeros"}, "activation": "relu", "data_format": "channels_last", "kernel_size": [1, 1], "kernel_constraint": null, "dilation_rate": [1, 1], "bias_constraint": null, "kernel_regularizer": null, "bias_regularizer": null}, "class_name": "Conv2D"}, {"inbound_nodes": [[["hg_0lf8_resi_x2_convBlock_conv_1x1_x1", 0, 0, {}]]], "name": "batch_normalization_29", "config": {"gamma_regularizer": null, "trainable": true, "moving_variance_initializer": {"config": {}, "class_name": "Ones"}, "name": "batch_normalization_29", "center": true, "beta_regularizer": null, "beta_constraint": null, "epsilon": 0.001, "gamma_constraint": null, "axis": -1, "momentum": 0.99, "beta_initializer": {"config": {}, "class_name": "Zeros"}, "gamma_initializer": {"config": {}, "class_name": "Ones"}, "scale": true, "moving_mean_initializer": {"config": {}, "class_name": "Zeros"}}, "class_name": "BatchNormalization"}, {"inbound_nodes": [[["batch_normalization_29", 0, 0, {}]]], "name": "hg_0lf8_resi_x2_convBlock_conv_3x3_x2", "config": {"padding": "same", "use_bias": true, "trainable": true, "activity_regularizer": null, "kernel_initializer": {"config": {"mode": "fan_avg", "scale": 1.0, "distribution": "uniform", "seed": null}, "class_name": "VarianceScaling"}, "name": "hg_0lf8_resi_x2_convBlock_conv_3x3_x2", "strides": [1, 1], "filters": 64, "bias_initializer": {"config": {}, "class_name": "Zeros"}, "activation": "relu", "data_format": "channels_last", "kernel_size": [3, 3], "kernel_constraint": null, "dilation_rate": [1, 1], "bias_constraint": null, "kernel_regularizer": null, "bias_regularizer": null}, "class_name": "Conv2D"}, {"inbound_nodes": [[["hg_0lf8_resi_x2_convBlock_conv_3x3_x2", 0, 0, {}]]], "name": "batch_normalization_30", "config": {"gamma_regularizer": null, "trainable": true, "moving_variance_initializer": {"config": {}, "class_name": "Ones"}, "name": "batch_normalization_30", "center": true, "beta_regularizer": null, "beta_constraint": null, "epsilon": 0.001, "gamma_constraint": null, "axis": -1, "momentum": 0.99, "beta_initializer": {"config": {}, "class_name": "Zeros"}, "gamma_initializer": {"config": {}, "class_name": "Ones"}, "scale": true, "moving_mean_initializer": {"config": {}, "class_name": "Zeros"}}, "class_name": "BatchNormalization"}, {"inbound_nodes": [[["batch_normalization_30", 0, 0, {}]]], "name": "hg_0lf8_resi_x2_convBlock_conv_1x1_x3", "config": {"padding": "same", "use_bias": true, "trainable": true, "activity_regularizer": null, "kernel_initializer": {"config": {"mode": "fan_avg", "scale": 1.0, "distribution": "uniform", "seed": null}, "class_name": "VarianceScaling"}, "name": "hg_0lf8_resi_x2_convBlock_conv_1x1_x3", "strides": [1, 1], "filters": 128, "bias_initializer": {"config": {}, "class_name": "Zeros"}, "activation": "relu", "data_format": "channels_last", "kernel_size": [1, 1], "kernel_constraint": null, "dilation_rate": [1, 1], "bias_constraint": null, "kernel_regularizer": null, "bias_regularizer": null}, "class_name": "Conv2D"}, {"inbound_nodes": [[["hg_0lf8_resi_x2_convBlock_conv_1x1_x3", 0, 0, {}]]], "name": "batch_normalization_31", "config": {"gamma_regularizer": null, "trainable": true, "moving_variance_initializer": {"config": {}, "class_name": "Ones"}, "name": "batch_normalization_31", "center": true, "beta_regularizer": null, "beta_constraint": null, "epsilon": 0.001, "gamma_constraint": null, "axis": -1, "momentum": 0.99, "beta_initializer": {"config": {}, "class_name": "Zeros"}, "gamma_initializer": {"config": {}, "class_name": "Ones"}, "scale": true, "moving_mean_initializer": {"config": {}, "class_name": "Zeros"}}, "class_name": "BatchNormalization"}, {"inbound_nodes": [[["batch_normalization_31", 0, 0, {}], ["add_9", 0, 0, {}]]], "name": "add_10", "config": {"trainable": true, "name": "add_10"}, "class_name": "Add"}, {"inbound_nodes": [[["add_10", 0, 0, {}]]], "name": "hg_0lf8_resi_x3_convBlock_conv_1x1_x1", "config": {"padding": "same", "use_bias": true, "trainable": true, "activity_regularizer": null, "kernel_initializer": {"config": {"mode": "fan_avg", "scale": 1.0, "distribution": "uniform", "seed": null}, "class_name": "VarianceScaling"}, "name": "hg_0lf8_resi_x3_convBlock_conv_1x1_x1", "strides": [1, 1], "filters": 64, "bias_initializer": {"config": {}, "class_name": "Zeros"}, "activation": "relu", "data_format": "channels_last", "kernel_size": [1, 1], "kernel_constraint": null, "dilation_rate": [1, 1], "bias_constraint": null, "kernel_regularizer": null, "bias_regularizer": null}, "class_name": "Conv2D"}, {"inbound_nodes": [[["add_7", 0, 0, {}]]], "name": "hg_0_lf8convBlock_conv_1x1_x1", "config": {"padding": "same", "use_bias": true, "trainable": true, "activity_regularizer": null, "kernel_initializer": {"config": {"mode": "fan_avg", "scale": 1.0, "distribution": "uniform", "seed": null}, "class_name": "VarianceScaling"}, "name": "hg_0_lf8convBlock_conv_1x1_x1", "strides": [1, 1], "filters": 64, "bias_initializer": {"config": {}, "class_name": "Zeros"}, "activation": "relu", "data_format": "channels_last", "kernel_size": [1, 1], "kernel_constraint": null, "dilation_rate": [1, 1], "bias_constraint": null, "kernel_regularizer": null, "bias_regularizer": null}, "class_name": "Conv2D"}, {"inbound_nodes": [[["hg_0lf8_resi_x3_convBlock_conv_1x1_x1", 0, 0, {}]]], "name": "batch_normalization_32", "config": {"gamma_regularizer": null, "trainable": true, "moving_variance_initializer": {"config": {}, "class_name": "Ones"}, "name": "batch_normalization_32", "center": true, "beta_regularizer": null, "beta_constraint": null, "epsilon": 0.001, "gamma_constraint": null, "axis": -1, "momentum": 0.99, "beta_initializer": {"config": {}, "class_name": "Zeros"}, "gamma_initializer": {"config": {}, "class_name": "Ones"}, "scale": true, "moving_mean_initializer": {"config": {}, "class_name": "Zeros"}}, "class_name": "BatchNormalization"}, {"inbound_nodes": [[["hg_0_lf8convBlock_conv_1x1_x1", 0, 0, {}]]], "name": "batch_normalization_23", "config": {"gamma_regularizer": null, "trainable": true, "moving_variance_initializer": {"config": {}, "class_name": "Ones"}, "name": "batch_normalization_23", "center": true, "beta_regularizer": null, "beta_constraint": null, "epsilon": 0.001, "gamma_constraint": null, "axis": -1, "momentum": 0.99, "beta_initializer": {"config": {}, "class_name": "Zeros"}, "gamma_initializer": {"config": {}, "class_name": "Ones"}, "scale": true, "moving_mean_initializer": {"config": {}, "class_name": "Zeros"}}, "class_name": "BatchNormalization"}, {"inbound_nodes": [[["add_6", 0, 0, {}]]], "name": "hg_0_rf4_connect_left_resi_convBlock_conv_1x1_x1", "config": {"padding": "same", "use_bias": true, "trainable": true, "activity_regularizer": null, "kernel_initializer": {"config": {"mode": "fan_avg", "scale": 1.0, "distribution": "uniform", "seed": null}, "class_name": "VarianceScaling"}, "name": "hg_0_rf4_connect_left_resi_convBlock_conv_1x1_x1", "strides": [1, 1], "filters": 64, "bias_initializer": {"config": {}, "class_name": "Zeros"}, "activation": "relu", "data_format": "channels_last", "kernel_size": [1, 1], "kernel_constraint": null, "dilation_rate": [1, 1], "bias_constraint": null, "kernel_regularizer": null, "bias_regularizer": null}, "class_name": "Conv2D"}, {"inbound_nodes": [[["batch_normalization_32", 0, 0, {}]]], "name": "hg_0lf8_resi_x3_convBlock_conv_3x3_x2", "config": {"padding": "same", "use_bias": true, "trainable": true, "activity_regularizer": null, "kernel_initializer": {"config": {"mode": "fan_avg", "scale": 1.0, "distribution": "uniform", "seed": null}, "class_name": "VarianceScaling"}, "name": "hg_0lf8_resi_x3_convBlock_conv_3x3_x2", "strides": [1, 1], "filters": 64, "bias_initializer": {"config": {}, "class_name": "Zeros"}, "activation": "relu", "data_format": "channels_last", "kernel_size": [3, 3], "kernel_constraint": null, "dilation_rate": [1, 1], "bias_constraint": null, "kernel_regularizer": null, "bias_regularizer": null}, "class_name": "Conv2D"}, {"inbound_nodes": [[["batch_normalization_23", 0, 0, {}]]], "name": "hg_0_lf8convBlock_conv_3x3_x2", "config": {"padding": "same", "use_bias": true, "trainable": true, "activity_regularizer": null, "kernel_initializer": {"config": {"mode": "fan_avg", "scale": 1.0, "distribution": "uniform", "seed": null}, "class_name": "VarianceScaling"}, "name": "hg_0_lf8convBlock_conv_3x3_x2", "strides": [1, 1], "filters": 64, "bias_initializer": {"config": {}, "class_name": "Zeros"}, "activation": "relu", "data_format": "channels_last", "kernel_size": [3, 3], "kernel_constraint": null, "dilation_rate": [1, 1], "bias_constraint": null, "kernel_regularizer": null, "bias_regularizer": null}, "class_name": "Conv2D"}, {"inbound_nodes": [[["hg_0_rf4_connect_left_resi_convBlock_conv_1x1_x1", 0, 0, {}]]], "name": "batch_normalization_35", "config": {"gamma_regularizer": null, "trainable": true, "moving_variance_initializer": {"config": {}, "class_name": "Ones"}, "name": "batch_normalization_35", "center": true, "beta_regularizer": null, "beta_constraint": null, "epsilon": 0.001, "gamma_constraint": null, "axis": -1, "momentum": 0.99, "beta_initializer": {"config": {}, "class_name": "Zeros"}, "gamma_initializer": {"config": {}, "class_name": "Ones"}, "scale": true, "moving_mean_initializer": {"config": {}, "class_name": "Zeros"}}, "class_name": "BatchNormalization"}, {"inbound_nodes": [[["hg_0lf8_resi_x3_convBlock_conv_3x3_x2", 0, 0, {}]]], "name": "batch_normalization_33", "config": {"gamma_regularizer": null, "trainable": true, "moving_variance_initializer": {"config": {}, "class_name": "Ones"}, "name": "batch_normalization_33", "center": true, "beta_regularizer": null, "beta_constraint": null, "epsilon": 0.001, "gamma_constraint": null, "axis": -1, "momentum": 0.99, "beta_initializer": {"config": {}, "class_name": "Zeros"}, "gamma_initializer": {"config": {}, "class_name": "Ones"}, "scale": true, "moving_mean_initializer": {"config": {}, "class_name": "Zeros"}}, "class_name": "BatchNormalization"}, {"inbound_nodes": [[["hg_0_lf8convBlock_conv_3x3_x2", 0, 0, {}]]], "name": "batch_normalization_24", "config": {"gamma_regularizer": null, "trainable": true, "moving_variance_initializer": {"config": {}, "class_name": "Ones"}, "name": "batch_normalization_24", "center": true, "beta_regularizer": null, "beta_constraint": null, "epsilon": 0.001, "gamma_constraint": null, "axis": -1, "momentum": 0.99, "beta_initializer": {"config": {}, "class_name": "Zeros"}, "gamma_initializer": {"config": {}, "class_name": "Ones"}, "scale": true, "moving_mean_initializer": {"config": {}, "class_name": "Zeros"}}, "class_name": "BatchNormalization"}, {"inbound_nodes": [[["batch_normalization_35", 0, 0, {}]]], "name": "hg_0_rf4_connect_left_resi_convBlock_conv_3x3_x2", "config": {"padding": "same", "use_bias": true, "trainable": true, "activity_regularizer": null, "kernel_initializer": {"config": {"mode": "fan_avg", "scale": 1.0, "distribution": "uniform", "seed": null}, "class_name": "VarianceScaling"}, "name": "hg_0_rf4_connect_left_resi_convBlock_conv_3x3_x2", "strides": [1, 1], "filters": 64, "bias_initializer": {"config": {}, "class_name": "Zeros"}, "activation": "relu", "data_format": "channels_last", "kernel_size": [3, 3], "kernel_constraint": null, "dilation_rate": [1, 1], "bias_constraint": null, "kernel_regularizer": null, "bias_regularizer": null}, "class_name": "Conv2D"}, {"inbound_nodes": [[["batch_normalization_33", 0, 0, {}]]], "name": "hg_0lf8_resi_x3_convBlock_conv_1x1_x3", "config": {"padding": "same", "use_bias": true, "trainable": true, "activity_regularizer": null, "kernel_initializer": {"config": {"mode": "fan_avg", "scale": 1.0, "distribution": "uniform", "seed": null}, "class_name": "VarianceScaling"}, "name": "hg_0lf8_resi_x3_convBlock_conv_1x1_x3", "strides": [1, 1], "filters": 128, "bias_initializer": {"config": {}, "class_name": "Zeros"}, "activation": "relu", "data_format": "channels_last", "kernel_size": [1, 1], "kernel_constraint": null, "dilation_rate": [1, 1], "bias_constraint": null, "kernel_regularizer": null, "bias_regularizer": null}, "class_name": "Conv2D"}, {"inbound_nodes": [[["batch_normalization_24", 0, 0, {}]]], "name": "hg_0_lf8convBlock_conv_1x1_x3", "config": {"padding": "same", "use_bias": true, "trainable": true, "activity_regularizer": null, "kernel_initializer": {"config": {"mode": "fan_avg", "scale": 1.0, "distribution": "uniform", "seed": null}, "class_name": "VarianceScaling"}, "name": "hg_0_lf8convBlock_conv_1x1_x3", "strides": [1, 1], "filters": 128, "bias_initializer": {"config": {}, "class_name": "Zeros"}, "activation": "relu", "data_format": "channels_last", "kernel_size": [1, 1], "kernel_constraint": null, "dilation_rate": [1, 1], "bias_constraint": null, "kernel_regularizer": null, "bias_regularizer": null}, "class_name": "Conv2D"}, {"inbound_nodes": [[["hg_0_rf4_connect_left_resi_convBlock_conv_3x3_x2", 0, 0, {}]]], "name": "batch_normalization_36", "config": {"gamma_regularizer": null, "trainable": true, "moving_variance_initializer": {"config": {}, "class_name": "Ones"}, "name": "batch_normalization_36", "center": true, "beta_regularizer": null, "beta_constraint": null, "epsilon": 0.001, "gamma_constraint": null, "axis": -1, "momentum": 0.99, "beta_initializer": {"config": {}, "class_name": "Zeros"}, "gamma_initializer": {"config": {}, "class_name": "Ones"}, "scale": true, "moving_mean_initializer": {"config": {}, "class_name": "Zeros"}}, "class_name": "BatchNormalization"}, {"inbound_nodes": [[["hg_0lf8_resi_x3_convBlock_conv_1x1_x3", 0, 0, {}]]], "name": "batch_normalization_34", "config": {"gamma_regularizer": null, "trainable": true, "moving_variance_initializer": {"config": {}, "class_name": "Ones"}, "name": "batch_normalization_34", "center": true, "beta_regularizer": null, "beta_constraint": null, "epsilon": 0.001, "gamma_constraint": null, "axis": -1, "momentum": 0.99, "beta_initializer": {"config": {}, "class_name": "Zeros"}, "gamma_initializer": {"config": {}, "class_name": "Ones"}, "scale": true, "moving_mean_initializer": {"config": {}, "class_name": "Zeros"}}, "class_name": "BatchNormalization"}, {"inbound_nodes": [[["hg_0_lf8convBlock_conv_1x1_x3", 0, 0, {}]]], "name": "batch_normalization_25", "config": {"gamma_regularizer": null, "trainable": true, "moving_variance_initializer": {"config": {}, "class_name": "Ones"}, "name": "batch_normalization_25", "center": true, "beta_regularizer": null, "beta_constraint": null, "epsilon": 0.001, "gamma_constraint": null, "axis": -1, "momentum": 0.99, "beta_initializer": {"config": {}, "class_name": "Zeros"}, "gamma_initializer": {"config": {}, "class_name": "Ones"}, "scale": true, "moving_mean_initializer": {"config": {}, "class_name": "Zeros"}}, "class_name": "BatchNormalization"}, {"inbound_nodes": [[["batch_normalization_36", 0, 0, {}]]], "name": "hg_0_rf4_connect_left_resi_convBlock_conv_1x1_x3", "config": {"padding": "same", "use_bias": true, "trainable": true, "activity_regularizer": null, "kernel_initializer": {"config": {"mode": "fan_avg", "scale": 1.0, "distribution": "uniform", "seed": null}, "class_name": "VarianceScaling"}, "name": "hg_0_rf4_connect_left_resi_convBlock_conv_1x1_x3", "strides": [1, 1], "filters": 128, "bias_initializer": {"config": {}, "class_name": "Zeros"}, "activation": "relu", "data_format": "channels_last", "kernel_size": [1, 1], "kernel_constraint": null, "dilation_rate": [1, 1], "bias_constraint": null, "kernel_regularizer": null, "bias_regularizer": null}, "class_name": "Conv2D"}, {"inbound_nodes": [[["batch_normalization_34", 0, 0, {}], ["add_10", 0, 0, {}]]], "name": "add_11", "config": {"trainable": true, "name": "add_11"}, "class_name": "Add"}, {"inbound_nodes": [[["batch_normalization_25", 0, 0, {}], ["add_7", 0, 0, {}]]], "name": "add_8", "config": {"trainable": true, "name": "add_8"}, "class_name": "Add"}, {"inbound_nodes": [[["hg_0_rf4_connect_left_resi_convBlock_conv_1x1_x3", 0, 0, {}]]], "name": "batch_normalization_37", "config": {"gamma_regularizer": null, "trainable": true, "moving_variance_initializer": {"config": {}, "class_name": "Ones"}, "name": "batch_normalization_37", "center": true, "beta_regularizer": null, "beta_constraint": null, "epsilon": 0.001, "gamma_constraint": null, "axis": -1, "momentum": 0.99, "beta_initializer": {"config": {}, "class_name": "Zeros"}, "gamma_initializer": {"config": {}, "class_name": "Ones"}, "scale": true, "moving_mean_initializer": {"config": {}, "class_name": "Zeros"}}, "class_name": "BatchNormalization"}, {"inbound_nodes": [[["add_11", 0, 0, {}], ["add_8", 0, 0, {}]]], "name": "add_12", "config": {"trainable": true, "name": "add_12"}, "class_name": "Add"}, {"inbound_nodes": [[["batch_normalization_37", 0, 0, {}], ["add_6", 0, 0, {}]]], "name": "add_13", "config": {"trainable": true, "name": "add_13"}, "class_name": "Add"}, {"inbound_nodes": [[["add_12", 0, 0, {}]]], "name": "up_sampling2d_1", "config": {"data_format": "channels_last", "trainable": true, "size": [2, 2], "name": "up_sampling2d_1"}, "class_name": "UpSampling2D"}, {"inbound_nodes": [[["add_13", 0, 0, {}], ["up_sampling2d_1", 0, 0, {}]]], "name": "add_14", "config": {"trainable": true, "name": "add_14"}, "class_name": "Add"}, {"inbound_nodes": [[["add_14", 0, 0, {}]]], "name": "hg_0_rf4_connect_convBlock_conv_1x1_x1", "config": {"padding": "same", "use_bias": true, "trainable": true, "activity_regularizer": null, "kernel_initializer": {"config": {"mode": "fan_avg", "scale": 1.0, "distribution": "uniform", "seed": null}, "class_name": "VarianceScaling"}, "name": "hg_0_rf4_connect_convBlock_conv_1x1_x1", "strides": [1, 1], "filters": 64, "bias_initializer": {"config": {}, "class_name": "Zeros"}, "activation": "relu", "data_format": "channels_last", "kernel_size": [1, 1], "kernel_constraint": null, "dilation_rate": [1, 1], "bias_constraint": null, "kernel_regularizer": null, "bias_regularizer": null}, "class_name": "Conv2D"}, {"inbound_nodes": [[["add_5", 0, 0, {}]]], "name": "hg_0_rf2_connect_left_resi_convBlock_conv_1x1_x1", "config": {"padding": "same", "use_bias": true, "trainable": true, "activity_regularizer": null, "kernel_initializer": {"config": {"mode": "fan_avg", "scale": 1.0, "distribution": "uniform", "seed": null}, "class_name": "VarianceScaling"}, "name": "hg_0_rf2_connect_left_resi_convBlock_conv_1x1_x1", "strides": [1, 1], "filters": 64, "bias_initializer": {"config": {}, "class_name": "Zeros"}, "activation": "relu", "data_format": "channels_last", "kernel_size": [1, 1], "kernel_constraint": null, "dilation_rate": [1, 1], "bias_constraint": null, "kernel_regularizer": null, "bias_regularizer": null}, "class_name": "Conv2D"}, {"inbound_nodes": [[["hg_0_rf4_connect_convBlock_conv_1x1_x1", 0, 0, {}]]], "name": "batch_normalization_38", "config": {"gamma_regularizer": null, "trainable": true, "moving_variance_initializer": {"config": {}, "class_name": "Ones"}, "name": "batch_normalization_38", "center": true, "beta_regularizer": null, "beta_constraint": null, "epsilon": 0.001, "gamma_constraint": null, "axis": -1, "momentum": 0.99, "beta_initializer": {"config": {}, "class_name": "Zeros"}, "gamma_initializer": {"config": {}, "class_name": "Ones"}, "scale": true, "moving_mean_initializer": {"config": {}, "class_name": "Zeros"}}, "class_name": "BatchNormalization"}, {"inbound_nodes": [[["hg_0_rf2_connect_left_resi_convBlock_conv_1x1_x1", 0, 0, {}]]], "name": "batch_normalization_41", "config": {"gamma_regularizer": null, "trainable": true, "moving_variance_initializer": {"config": {}, "class_name": "Ones"}, "name": "batch_normalization_41", "center": true, "beta_regularizer": null, "beta_constraint": null, "epsilon": 0.001, "gamma_constraint": null, "axis": -1, "momentum": 0.99, "beta_initializer": {"config": {}, "class_name": "Zeros"}, "gamma_initializer": {"config": {}, "class_name": "Ones"}, "scale": true, "moving_mean_initializer": {"config": {}, "class_name": "Zeros"}}, "class_name": "BatchNormalization"}, {"inbound_nodes": [[["batch_normalization_38", 0, 0, {}]]], "name": "hg_0_rf4_connect_convBlock_conv_3x3_x2", "config": {"padding": "same", "use_bias": true, "trainable": true, "activity_regularizer": null, "kernel_initializer": {"config": {"mode": "fan_avg", "scale": 1.0, "distribution": "uniform", "seed": null}, "class_name": "VarianceScaling"}, "name": "hg_0_rf4_connect_convBlock_conv_3x3_x2", "strides": [1, 1], "filters": 64, "bias_initializer": {"config": {}, "class_name": "Zeros"}, "activation": "relu", "data_format": "channels_last", "kernel_size": [3, 3], "kernel_constraint": null, "dilation_rate": [1, 1], "bias_constraint": null, "kernel_regularizer": null, "bias_regularizer": null}, "class_name": "Conv2D"}, {"inbound_nodes": [[["batch_normalization_41", 0, 0, {}]]], "name": "hg_0_rf2_connect_left_resi_convBlock_conv_3x3_x2", "config": {"padding": "same", "use_bias": true, "trainable": true, "activity_regularizer": null, "kernel_initializer": {"config": {"mode": "fan_avg", "scale": 1.0, "distribution": "uniform", "seed": null}, "class_name": "VarianceScaling"}, "name": "hg_0_rf2_connect_left_resi_convBlock_conv_3x3_x2", "strides": [1, 1], "filters": 64, "bias_initializer": {"config": {}, "class_name": "Zeros"}, "activation": "relu", "data_format": "channels_last", "kernel_size": [3, 3], "kernel_constraint": null, "dilation_rate": [1, 1], "bias_constraint": null, "kernel_regularizer": null, "bias_regularizer": null}, "class_name": "Conv2D"}, {"inbound_nodes": [[["hg_0_rf4_connect_convBlock_conv_3x3_x2", 0, 0, {}]]], "name": "batch_normalization_39", "config": {"gamma_regularizer": null, "trainable": true, "moving_variance_initializer": {"config": {}, "class_name": "Ones"}, "name": "batch_normalization_39", "center": true, "beta_regularizer": null, "beta_constraint": null, "epsilon": 0.001, "gamma_constraint": null, "axis": -1, "momentum": 0.99, "beta_initializer": {"config": {}, "class_name": "Zeros"}, "gamma_initializer": {"config": {}, "class_name": "Ones"}, "scale": true, "moving_mean_initializer": {"config": {}, "class_name": "Zeros"}}, "class_name": "BatchNormalization"}, {"inbound_nodes": [[["hg_0_rf2_connect_left_resi_convBlock_conv_3x3_x2", 0, 0, {}]]], "name": "batch_normalization_42", "config": {"gamma_regularizer": null, "trainable": true, "moving_variance_initializer": {"config": {}, "class_name": "Ones"}, "name": "batch_normalization_42", "center": true, "beta_regularizer": null, "beta_constraint": null, "epsilon": 0.001, "gamma_constraint": null, "axis": -1, "momentum": 0.99, "beta_initializer": {"config": {}, "class_name": "Zeros"}, "gamma_initializer": {"config": {}, "class_name": "Ones"}, "scale": true, "moving_mean_initializer": {"config": {}, "class_name": "Zeros"}}, "class_name": "BatchNormalization"}, {"inbound_nodes": [[["batch_normalization_39", 0, 0, {}]]], "name": "hg_0_rf4_connect_convBlock_conv_1x1_x3", "config": {"padding": "same", "use_bias": true, "trainable": true, "activity_regularizer": null, "kernel_initializer": {"config": {"mode": "fan_avg", "scale": 1.0, "distribution": "uniform", "seed": null}, "class_name": "VarianceScaling"}, "name": "hg_0_rf4_connect_convBlock_conv_1x1_x3", "strides": [1, 1], "filters": 128, "bias_initializer": {"config": {}, "class_name": "Zeros"}, "activation": "relu", "data_format": "channels_last", "kernel_size": [1, 1], "kernel_constraint": null, "dilation_rate": [1, 1], "bias_constraint": null, "kernel_regularizer": null, "bias_regularizer": null}, "class_name": "Conv2D"}, {"inbound_nodes": [[["batch_normalization_42", 0, 0, {}]]], "name": "hg_0_rf2_connect_left_resi_convBlock_conv_1x1_x3", "config": {"padding": "same", "use_bias": true, "trainable": true, "activity_regularizer": null, "kernel_initializer": {"config": {"mode": "fan_avg", "scale": 1.0, "distribution": "uniform", "seed": null}, "class_name": "VarianceScaling"}, "name": "hg_0_rf2_connect_left_resi_convBlock_conv_1x1_x3", "strides": [1, 1], "filters": 128, "bias_initializer": {"config": {}, "class_name": "Zeros"}, "activation": "relu", "data_format": "channels_last", "kernel_size": [1, 1], "kernel_constraint": null, "dilation_rate": [1, 1], "bias_constraint": null, "kernel_regularizer": null, "bias_regularizer": null}, "class_name": "Conv2D"}, {"inbound_nodes": [[["hg_0_rf4_connect_convBlock_conv_1x1_x3", 0, 0, {}]]], "name": "batch_normalization_40", "config": {"gamma_regularizer": null, "trainable": true, "moving_variance_initializer": {"config": {}, "class_name": "Ones"}, "name": "batch_normalization_40", "center": true, "beta_regularizer": null, "beta_constraint": null, "epsilon": 0.001, "gamma_constraint": null, "axis": -1, "momentum": 0.99, "beta_initializer": {"config": {}, "class_name": "Zeros"}, "gamma_initializer": {"config": {}, "class_name": "Ones"}, "scale": true, "moving_mean_initializer": {"config": {}, "class_name": "Zeros"}}, "class_name": "BatchNormalization"}, {"inbound_nodes": [[["hg_0_rf2_connect_left_resi_convBlock_conv_1x1_x3", 0, 0, {}]]], "name": "batch_normalization_43", "config": {"gamma_regularizer": null, "trainable": true, "moving_variance_initializer": {"config": {}, "class_name": "Ones"}, "name": "batch_normalization_43", "center": true, "beta_regularizer": null, "beta_constraint": null, "epsilon": 0.001, "gamma_constraint": null, "axis": -1, "momentum": 0.99, "beta_initializer": {"config": {}, "class_name": "Zeros"}, "gamma_initializer": {"config": {}, "class_name": "Ones"}, "scale": true, "moving_mean_initializer": {"config": {}, "class_name": "Zeros"}}, "class_name": "BatchNormalization"}, {"inbound_nodes": [[["batch_normalization_40", 0, 0, {}], ["add_14", 0, 0, {}]]], "name": "add_15", "config": {"trainable": true, "name": "add_15"}, "class_name": "Add"}, {"inbound_nodes": [[["batch_normalization_43", 0, 0, {}], ["add_5", 0, 0, {}]]], "name": "add_16", "config": {"trainable": true, "name": "add_16"}, "class_name": "Add"}, {"inbound_nodes": [[["add_15", 0, 0, {}]]], "name": "up_sampling2d_2", "config": {"data_format": "channels_last", "trainable": true, "size": [2, 2], "name": "up_sampling2d_2"}, "class_name": "UpSampling2D"}, {"inbound_nodes": [[["add_16", 0, 0, {}], ["up_sampling2d_2", 0, 0, {}]]], "name": "add_17", "config": {"trainable": true, "name": "add_17"}, "class_name": "Add"}, {"inbound_nodes": [[["add_17", 0, 0, {}]]], "name": "hg_0_rf2_connect_convBlock_conv_1x1_x1", "config": {"padding": "same", "use_bias": true, "trainable": true, "activity_regularizer": null, "kernel_initializer": {"config": {"mode": "fan_avg", "scale": 1.0, "distribution": "uniform", "seed": null}, "class_name": "VarianceScaling"}, "name": "hg_0_rf2_connect_convBlock_conv_1x1_x1", "strides": [1, 1], "filters": 64, "bias_initializer": {"config": {}, "class_name": "Zeros"}, "activation": "relu", "data_format": "channels_last", "kernel_size": [1, 1], "kernel_constraint": null, "dilation_rate": [1, 1], "bias_constraint": null, "kernel_regularizer": null, "bias_regularizer": null}, "class_name": "Conv2D"}, {"inbound_nodes": [[["add_4", 0, 0, {}]]], "name": "hg_0_rf1_connect_left_resi_convBlock_conv_1x1_x1", "config": {"padding": "same", "use_bias": true, "trainable": true, "activity_regularizer": null, "kernel_initializer": {"config": {"mode": "fan_avg", "scale": 1.0, "distribution": "uniform", "seed": null}, "class_name": "VarianceScaling"}, "name": "hg_0_rf1_connect_left_resi_convBlock_conv_1x1_x1", "strides": [1, 1], "filters": 64, "bias_initializer": {"config": {}, "class_name": "Zeros"}, "activation": "relu", "data_format": "channels_last", "kernel_size": [1, 1], "kernel_constraint": null, "dilation_rate": [1, 1], "bias_constraint": null, "kernel_regularizer": null, "bias_regularizer": null}, "class_name": "Conv2D"}, {"inbound_nodes": [[["hg_0_rf2_connect_convBlock_conv_1x1_x1", 0, 0, {}]]], "name": "batch_normalization_44", "config": {"gamma_regularizer": null, "trainable": true, "moving_variance_initializer": {"config": {}, "class_name": "Ones"}, "name": "batch_normalization_44", "center": true, "beta_regularizer": null, "beta_constraint": null, "epsilon": 0.001, "gamma_constraint": null, "axis": -1, "momentum": 0.99, "beta_initializer": {"config": {}, "class_name": "Zeros"}, "gamma_initializer": {"config": {}, "class_name": "Ones"}, "scale": true, "moving_mean_initializer": {"config": {}, "class_name": "Zeros"}}, "class_name": "BatchNormalization"}, {"inbound_nodes": [[["hg_0_rf1_connect_left_resi_convBlock_conv_1x1_x1", 0, 0, {}]]], "name": "batch_normalization_47", "config": {"gamma_regularizer": null, "trainable": true, "moving_variance_initializer": {"config": {}, "class_name": "Ones"}, "name": "batch_normalization_47", "center": true, "beta_regularizer": null, "beta_constraint": null, "epsilon": 0.001, "gamma_constraint": null, "axis": -1, "momentum": 0.99, "beta_initializer": {"config": {}, "class_name": "Zeros"}, "gamma_initializer": {"config": {}, "class_name": "Ones"}, "scale": true, "moving_mean_initializer": {"config": {}, "class_name": "Zeros"}}, "class_name": "BatchNormalization"}, {"inbound_nodes": [[["batch_normalization_44", 0, 0, {}]]], "name": "hg_0_rf2_connect_convBlock_conv_3x3_x2", "config": {"padding": "same", "use_bias": true, "trainable": true, "activity_regularizer": null, "kernel_initializer": {"config": {"mode": "fan_avg", "scale": 1.0, "distribution": "uniform", "seed": null}, "class_name": "VarianceScaling"}, "name": "hg_0_rf2_connect_convBlock_conv_3x3_x2", "strides": [1, 1], "filters": 64, "bias_initializer": {"config": {}, "class_name": "Zeros"}, "activation": "relu", "data_format": "channels_last", "kernel_size": [3, 3], "kernel_constraint": null, "dilation_rate": [1, 1], "bias_constraint": null, "kernel_regularizer": null, "bias_regularizer": null}, "class_name": "Conv2D"}, {"inbound_nodes": [[["batch_normalization_47", 0, 0, {}]]], "name": "hg_0_rf1_connect_left_resi_convBlock_conv_3x3_x2", "config": {"padding": "same", "use_bias": true, "trainable": true, "activity_regularizer": null, "kernel_initializer": {"config": {"mode": "fan_avg", "scale": 1.0, "distribution": "uniform", "seed": null}, "class_name": "VarianceScaling"}, "name": "hg_0_rf1_connect_left_resi_convBlock_conv_3x3_x2", "strides": [1, 1], "filters": 64, "bias_initializer": {"config": {}, "class_name": "Zeros"}, "activation": "relu", "data_format": "channels_last", "kernel_size": [3, 3], "kernel_constraint": null, "dilation_rate": [1, 1], "bias_constraint": null, "kernel_regularizer": null, "bias_regularizer": null}, "class_name": "Conv2D"}, {"inbound_nodes": [[["hg_0_rf2_connect_convBlock_conv_3x3_x2", 0, 0, {}]]], "name": "batch_normalization_45", "config": {"gamma_regularizer": null, "trainable": true, "moving_variance_initializer": {"config": {}, "class_name": "Ones"}, "name": "batch_normalization_45", "center": true, "beta_regularizer": null, "beta_constraint": null, "epsilon": 0.001, "gamma_constraint": null, "axis": -1, "momentum": 0.99, "beta_initializer": {"config": {}, "class_name": "Zeros"}, "gamma_initializer": {"config": {}, "class_name": "Ones"}, "scale": true, "moving_mean_initializer": {"config": {}, "class_name": "Zeros"}}, "class_name": "BatchNormalization"}, {"inbound_nodes": [[["hg_0_rf1_connect_left_resi_convBlock_conv_3x3_x2", 0, 0, {}]]], "name": "batch_normalization_48", "config": {"gamma_regularizer": null, "trainable": true, "moving_variance_initializer": {"config": {}, "class_name": "Ones"}, "name": "batch_normalization_48", "center": true, "beta_regularizer": null, "beta_constraint": null, "epsilon": 0.001, "gamma_constraint": null, "axis": -1, "momentum": 0.99, "beta_initializer": {"config": {}, "class_name": "Zeros"}, "gamma_initializer": {"config": {}, "class_name": "Ones"}, "scale": true, "moving_mean_initializer": {"config": {}, "class_name": "Zeros"}}, "class_name": "BatchNormalization"}, {"inbound_nodes": [[["batch_normalization_45", 0, 0, {}]]], "name": "hg_0_rf2_connect_convBlock_conv_1x1_x3", "config": {"padding": "same", "use_bias": true, "trainable": true, "activity_regularizer": null, "kernel_initializer": {"config": {"mode": "fan_avg", "scale": 1.0, "distribution": "uniform", "seed": null}, "class_name": "VarianceScaling"}, "name": "hg_0_rf2_connect_convBlock_conv_1x1_x3", "strides": [1, 1], "filters": 128, "bias_initializer": {"config": {}, "class_name": "Zeros"}, "activation": "relu", "data_format": "channels_last", "kernel_size": [1, 1], "kernel_constraint": null, "dilation_rate": [1, 1], "bias_constraint": null, "kernel_regularizer": null, "bias_regularizer": null}, "class_name": "Conv2D"}, {"inbound_nodes": [[["batch_normalization_48", 0, 0, {}]]], "name": "hg_0_rf1_connect_left_resi_convBlock_conv_1x1_x3", "config": {"padding": "same", "use_bias": true, "trainable": true, "activity_regularizer": null, "kernel_initializer": {"config": {"mode": "fan_avg", "scale": 1.0, "distribution": "uniform", "seed": null}, "class_name": "VarianceScaling"}, "name": "hg_0_rf1_connect_left_resi_convBlock_conv_1x1_x3", "strides": [1, 1], "filters": 128, "bias_initializer": {"config": {}, "class_name": "Zeros"}, "activation": "relu", "data_format": "channels_last", "kernel_size": [1, 1], "kernel_constraint": null, "dilation_rate": [1, 1], "bias_constraint": null, "kernel_regularizer": null, "bias_regularizer": null}, "class_name": "Conv2D"}, {"inbound_nodes": [[["hg_0_rf2_connect_convBlock_conv_1x1_x3", 0, 0, {}]]], "name": "batch_normalization_46", "config": {"gamma_regularizer": null, "trainable": true, "moving_variance_initializer": {"config": {}, "class_name": "Ones"}, "name": "batch_normalization_46", "center": true, "beta_regularizer": null, "beta_constraint": null, "epsilon": 0.001, "gamma_constraint": null, "axis": -1, "momentum": 0.99, "beta_initializer": {"config": {}, "class_name": "Zeros"}, "gamma_initializer": {"config": {}, "class_name": "Ones"}, "scale": true, "moving_mean_initializer": {"config": {}, "class_name": "Zeros"}}, "class_name": "BatchNormalization"}, {"inbound_nodes": [[["hg_0_rf1_connect_left_resi_convBlock_conv_1x1_x3", 0, 0, {}]]], "name": "batch_normalization_49", "config": {"gamma_regularizer": null, "trainable": true, "moving_variance_initializer": {"config": {}, "class_name": "Ones"}, "name": "batch_normalization_49", "center": true, "beta_regularizer": null, "beta_constraint": null, "epsilon": 0.001, "gamma_constraint": null, "axis": -1, "momentum": 0.99, "beta_initializer": {"config": {}, "class_name": "Zeros"}, "gamma_initializer": {"config": {}, "class_name": "Ones"}, "scale": true, "moving_mean_initializer": {"config": {}, "class_name": "Zeros"}}, "class_name": "BatchNormalization"}, {"inbound_nodes": [[["batch_normalization_46", 0, 0, {}], ["add_17", 0, 0, {}]]], "name": "add_18", "config": {"trainable": true, "name": "add_18"}, "class_name": "Add"}, {"inbound_nodes": [[["batch_normalization_49", 0, 0, {}], ["add_4", 0, 0, {}]]], "name": "add_19", "config": {"trainable": true, "name": "add_19"}, "class_name": "Add"}, {"inbound_nodes": [[["add_18", 0, 0, {}]]], "name": "up_sampling2d_3", "config": {"data_format": "channels_last", "trainable": true, "size": [2, 2], "name": "up_sampling2d_3"}, "class_name": "UpSampling2D"}, {"inbound_nodes": [[["add_19", 0, 0, {}], ["up_sampling2d_3", 0, 0, {}]]], "name": "add_20", "config": {"trainable": true, "name": "add_20"}, "class_name": "Add"}, {"inbound_nodes": [[["add_20", 0, 0, {}]]], "name": "hg_0_rf1_connect_convBlock_conv_1x1_x1", "config": {"padding": "same", "use_bias": true, "trainable": true, "activity_regularizer": null, "kernel_initializer": {"config": {"mode": "fan_avg", "scale": 1.0, "distribution": "uniform", "seed": null}, "class_name": "VarianceScaling"}, "name": "hg_0_rf1_connect_convBlock_conv_1x1_x1", "strides": [1, 1], "filters": 64, "bias_initializer": {"config": {}, "class_name": "Zeros"}, "activation": "relu", "data_format": "channels_last", "kernel_size": [1, 1], "kernel_constraint": null, "dilation_rate": [1, 1], "bias_constraint": null, "kernel_regularizer": null, "bias_regularizer": null}, "class_name": "Conv2D"}, {"inbound_nodes": [[["hg_0_rf1_connect_convBlock_conv_1x1_x1", 0, 0, {}]]], "name": "batch_normalization_50", "config": {"gamma_regularizer": null, "trainable": true, "moving_variance_initializer": {"config": {}, "class_name": "Ones"}, "name": "batch_normalization_50", "center": true, "beta_regularizer": null, "beta_constraint": null, "epsilon": 0.001, "gamma_constraint": null, "axis": -1, "momentum": 0.99, "beta_initializer": {"config": {}, "class_name": "Zeros"}, "gamma_initializer": {"config": {}, "class_name": "Ones"}, "scale": true, "moving_mean_initializer": {"config": {}, "class_name": "Zeros"}}, "class_name": "BatchNormalization"}, {"inbound_nodes": [[["batch_normalization_50", 0, 0, {}]]], "name": "hg_0_rf1_connect_convBlock_conv_3x3_x2", "config": {"padding": "same", "use_bias": true, "trainable": true, "activity_regularizer": null, "kernel_initializer": {"config": {"mode": "fan_avg", "scale": 1.0, "distribution": "uniform", "seed": null}, "class_name": "VarianceScaling"}, "name": "hg_0_rf1_connect_convBlock_conv_3x3_x2", "strides": [1, 1], "filters": 64, "bias_initializer": {"config": {}, "class_name": "Zeros"}, "activation": "relu", "data_format": "channels_last", "kernel_size": [3, 3], "kernel_constraint": null, "dilation_rate": [1, 1], "bias_constraint": null, "kernel_regularizer": null, "bias_regularizer": null}, "class_name": "Conv2D"}, {"inbound_nodes": [[["hg_0_rf1_connect_convBlock_conv_3x3_x2", 0, 0, {}]]], "name": "batch_normalization_51", "config": {"gamma_regularizer": null, "trainable": true, "moving_variance_initializer": {"config": {}, "class_name": "Ones"}, "name": "batch_normalization_51", "center": true, "beta_regularizer": null, "beta_constraint": null, "epsilon": 0.001, "gamma_constraint": null, "axis": -1, "momentum": 0.99, "beta_initializer": {"config": {}, "class_name": "Zeros"}, "gamma_initializer": {"config": {}, "class_name": "Ones"}, "scale": true, "moving_mean_initializer": {"config": {}, "class_name": "Zeros"}}, "class_name": "BatchNormalization"}, {"inbound_nodes": [[["batch_normalization_51", 0, 0, {}]]], "name": "hg_0_rf1_connect_convBlock_conv_1x1_x3", "config": {"padding": "same", "use_bias": true, "trainable": true, "activity_regularizer": null, "kernel_initializer": {"config": {"mode": "fan_avg", "scale": 1.0, "distribution": "uniform", "seed": null}, "class_name": "VarianceScaling"}, "name": "hg_0_rf1_connect_convBlock_conv_1x1_x3", "strides": [1, 1], "filters": 128, "bias_initializer": {"config": {}, "class_name": "Zeros"}, "activation": "relu", "data_format": "channels_last", "kernel_size": [1, 1], "kernel_constraint": null, "dilation_rate": [1, 1], "bias_constraint": null, "kernel_regularizer": null, "bias_regularizer": null}, "class_name": "Conv2D"}, {"inbound_nodes": [[["hg_0_rf1_connect_convBlock_conv_1x1_x3", 0, 0, {}]]], "name": "batch_normalization_52", "config": {"gamma_regularizer": null, "trainable": true, "moving_variance_initializer": {"config": {}, "class_name": "Ones"}, "name": "batch_normalization_52", "center": true, "beta_regularizer": null, "beta_constraint": null, "epsilon": 0.001, "gamma_constraint": null, "axis": -1, "momentum": 0.99, "beta_initializer": {"config": {}, "class_name": "Zeros"}, "gamma_initializer": {"config": {}, "class_name": "Ones"}, "scale": true, "moving_mean_initializer": {"config": {}, "class_name": "Zeros"}}, "class_name": "BatchNormalization"}, {"inbound_nodes": [[["batch_normalization_52", 0, 0, {}], ["add_20", 0, 0, {}]]], "name": "add_21", "config": {"trainable": true, "name": "add_21"}, "class_name": "Add"}, {"inbound_nodes": [[["add_21", 0, 0, {}]]], "name": "head_0_conv_1x1_x1", "config": {"padding": "same", "use_bias": true, "trainable": true, "activity_regularizer": null, "kernel_initializer": {"config": {"mode": "fan_avg", "scale": 1.0, "distribution": "uniform", "seed": null}, "class_name": "VarianceScaling"}, "name": "head_0_conv_1x1_x1", "strides": [1, 1], "filters": 128, "bias_initializer": {"config": {}, "class_name": "Zeros"}, "activation": "relu", "data_format": "channels_last", "kernel_size": [1, 1], "kernel_constraint": null, "dilation_rate": [1, 1], "bias_constraint": null, "kernel_regularizer": null, "bias_regularizer": null}, "class_name": "Conv2D"}, {"inbound_nodes": [[["head_0_conv_1x1_x1", 0, 0, {}]]], "name": "batch_normalization_53", "config": {"gamma_regularizer": null, "trainable": true, "moving_variance_initializer": {"config": {}, "class_name": "Ones"}, "name": "batch_normalization_53", "center": true, "beta_regularizer": null, "beta_constraint": null, "epsilon": 0.001, "gamma_constraint": null, "axis": -1, "momentum": 0.99, "beta_initializer": {"config": {}, "class_name": "Zeros"}, "gamma_initializer": {"config": {}, "class_name": "Ones"}, "scale": true, "moving_mean_initializer": {"config": {}, "class_name": "Zeros"}}, "class_name": "BatchNormalization"}, {"inbound_nodes": [[["batch_normalization_53", 0, 0, {}]]], "name": "head_0_conv_1x1_parts", "config": {"padding": "same", "use_bias": true, "trainable": true, "activity_regularizer": null, "kernel_initializer": {"config": {"mode": "fan_avg", "scale": 1.0, "distribution": "uniform", "seed": null}, "class_name": "VarianceScaling"}, "name": "head_0_conv_1x1_parts", "strides": [1, 1], "filters": 16, "bias_initializer": {"config": {}, "class_name": "Zeros"}, "activation": "linear", "data_format": "channels_last", "kernel_size": [1, 1], "kernel_constraint": null, "dilation_rate": [1, 1], "bias_constraint": null, "kernel_regularizer": null, "bias_regularizer": null}, "class_name": "Conv2D"}, {"inbound_nodes": [[["batch_normalization_53", 0, 0, {}]]], "name": "head_0_conv_1x1_x2", "config": {"padding": "same", "use_bias": true, "trainable": true, "activity_regularizer": null, "kernel_initializer": {"config": {"mode": "fan_avg", "scale": 1.0, "distribution": "uniform", "seed": null}, "class_name": "VarianceScaling"}, "name": "head_0_conv_1x1_x2", "strides": [1, 1], "filters": 128, "bias_initializer": {"config": {}, "class_name": "Zeros"}, "activation": "linear", "data_format": "channels_last", "kernel_size": [1, 1], "kernel_constraint": null, "dilation_rate": [1, 1], "bias_constraint": null, "kernel_regularizer": null, "bias_regularizer": null}, "class_name": "Conv2D"}, {"inbound_nodes": [[["head_0_conv_1x1_parts", 0, 0, {}]]], "name": "head_0_conv_1x1_x3", "config": {"padding": "same", "use_bias": true, "trainable": true, "activity_regularizer": null, "kernel_initializer": {"config": {"mode": "fan_avg", "scale": 1.0, "distribution": "uniform", "seed": null}, "class_name": "VarianceScaling"}, "name": "head_0_conv_1x1_x3", "strides": [1, 1], "filters": 128, "bias_initializer": {"config": {}, "class_name": "Zeros"}, "activation": "linear", "data_format": "channels_last", "kernel_size": [1, 1], "kernel_constraint": null, "dilation_rate": [1, 1], "bias_constraint": null, "kernel_regularizer": null, "bias_regularizer": null}, "class_name": "Conv2D"}, {"inbound_nodes": [[["head_0_conv_1x1_x2", 0, 0, {}], ["head_0_conv_1x1_x3", 0, 0, {}], ["add_3", 0, 0, {}]]], "name": "add_22", "config": {"trainable": true, "name": "add_22"}, "class_name": "Add"}, {"inbound_nodes": [[["add_22", 0, 0, {}]]], "name": "hg_1_l1convBlock_conv_1x1_x1", "config": {"padding": "same", "use_bias": true, "trainable": true, "activity_regularizer": null, "kernel_initializer": {"config": {"mode": "fan_avg", "scale": 1.0, "distribution": "uniform", "seed": null}, "class_name": "VarianceScaling"}, "name": "hg_1_l1convBlock_conv_1x1_x1", "strides": [1, 1], "filters": 64, "bias_initializer": {"config": {}, "class_name": "Zeros"}, "activation": "relu", "data_format": "channels_last", "kernel_size": [1, 1], "kernel_constraint": null, "dilation_rate": [1, 1], "bias_constraint": null, "kernel_regularizer": null, "bias_regularizer": null}, "class_name": "Conv2D"}, {"inbound_nodes": [[["hg_1_l1convBlock_conv_1x1_x1", 0, 0, {}]]], "name": "batch_normalization_54", "config": {"gamma_regularizer": null, "trainable": true, "moving_variance_initializer": {"config": {}, "class_name": "Ones"}, "name": "batch_normalization_54", "center": true, "beta_regularizer": null, "beta_constraint": null, "epsilon": 0.001, "gamma_constraint": null, "axis": -1, "momentum": 0.99, "beta_initializer": {"config": {}, "class_name": "Zeros"}, "gamma_initializer": {"config": {}, "class_name": "Ones"}, "scale": true, "moving_mean_initializer": {"config": {}, "class_name": "Zeros"}}, "class_name": "BatchNormalization"}, {"inbound_nodes": [[["batch_normalization_54", 0, 0, {}]]], "name": "hg_1_l1convBlock_conv_3x3_x2", "config": {"padding": "same", "use_bias": true, "trainable": true, "activity_regularizer": null, "kernel_initializer": {"config": {"mode": "fan_avg", "scale": 1.0, "distribution": "uniform", "seed": null}, "class_name": "VarianceScaling"}, "name": "hg_1_l1convBlock_conv_3x3_x2", "strides": [1, 1], "filters": 64, "bias_initializer": {"config": {}, "class_name": "Zeros"}, "activation": "relu", "data_format": "channels_last", "kernel_size": [3, 3], "kernel_constraint": null, "dilation_rate": [1, 1], "bias_constraint": null, "kernel_regularizer": null, "bias_regularizer": null}, "class_name": "Conv2D"}, {"inbound_nodes": [[["hg_1_l1convBlock_conv_3x3_x2", 0, 0, {}]]], "name": "batch_normalization_55", "config": {"gamma_regularizer": null, "trainable": true, "moving_variance_initializer": {"config": {}, "class_name": "Ones"}, "name": "batch_normalization_55", "center": true, "beta_regularizer": null, "beta_constraint": null, "epsilon": 0.001, "gamma_constraint": null, "axis": -1, "momentum": 0.99, "beta_initializer": {"config": {}, "class_name": "Zeros"}, "gamma_initializer": {"config": {}, "class_name": "Ones"}, "scale": true, "moving_mean_initializer": {"config": {}, "class_name": "Zeros"}}, "class_name": "BatchNormalization"}, {"inbound_nodes": [[["batch_normalization_55", 0, 0, {}]]], "name": "hg_1_l1convBlock_conv_1x1_x3", "config": {"padding": "same", "use_bias": true, "trainable": true, "activity_regularizer": null, "kernel_initializer": {"config": {"mode": "fan_avg", "scale": 1.0, "distribution": "uniform", "seed": null}, "class_name": "VarianceScaling"}, "name": "hg_1_l1convBlock_conv_1x1_x3", "strides": [1, 1], "filters": 128, "bias_initializer": {"config": {}, "class_name": "Zeros"}, "activation": "relu", "data_format": "channels_last", "kernel_size": [1, 1], "kernel_constraint": null, "dilation_rate": [1, 1], "bias_constraint": null, "kernel_regularizer": null, "bias_regularizer": null}, "class_name": "Conv2D"}, {"inbound_nodes": [[["hg_1_l1convBlock_conv_1x1_x3", 0, 0, {}]]], "name": "batch_normalization_56", "config": {"gamma_regularizer": null, "trainable": true, "moving_variance_initializer": {"config": {}, "class_name": "Ones"}, "name": "batch_normalization_56", "center": true, "beta_regularizer": null, "beta_constraint": null, "epsilon": 0.001, "gamma_constraint": null, "axis": -1, "momentum": 0.99, "beta_initializer": {"config": {}, "class_name": "Zeros"}, "gamma_initializer": {"config": {}, "class_name": "Ones"}, "scale": true, "moving_mean_initializer": {"config": {}, "class_name": "Zeros"}}, "class_name": "BatchNormalization"}, {"inbound_nodes": [[["batch_normalization_56", 0, 0, {}], ["add_22", 0, 0, {}]]], "name": "add_23", "config": {"trainable": true, "name": "add_23"}, "class_name": "Add"}, {"inbound_nodes": [[["add_23", 0, 0, {}]]], "name": "max_pooling2d_5", "config": {"padding": "valid", "pool_size": [2, 2], "trainable": true, "name": "max_pooling2d_5", "strides": [2, 2], "data_format": "channels_last"}, "class_name": "MaxPooling2D"}, {"inbound_nodes": [[["max_pooling2d_5", 0, 0, {}]]], "name": "hg_1_l2convBlock_conv_1x1_x1", "config": {"padding": "same", "use_bias": true, "trainable": true, "activity_regularizer": null, "kernel_initializer": {"config": {"mode": "fan_avg", "scale": 1.0, "distribution": "uniform", "seed": null}, "class_name": "VarianceScaling"}, "name": "hg_1_l2convBlock_conv_1x1_x1", "strides": [1, 1], "filters": 64, "bias_initializer": {"config": {}, "class_name": "Zeros"}, "activation": "relu", "data_format": "channels_last", "kernel_size": [1, 1], "kernel_constraint": null, "dilation_rate": [1, 1], "bias_constraint": null, "kernel_regularizer": null, "bias_regularizer": null}, "class_name": "Conv2D"}, {"inbound_nodes": [[["hg_1_l2convBlock_conv_1x1_x1", 0, 0, {}]]], "name": "batch_normalization_57", "config": {"gamma_regularizer": null, "trainable": true, "moving_variance_initializer": {"config": {}, "class_name": "Ones"}, "name": "batch_normalization_57", "center": true, "beta_regularizer": null, "beta_constraint": null, "epsilon": 0.001, "gamma_constraint": null, "axis": -1, "momentum": 0.99, "beta_initializer": {"config": {}, "class_name": "Zeros"}, "gamma_initializer": {"config": {}, "class_name": "Ones"}, "scale": true, "moving_mean_initializer": {"config": {}, "class_name": "Zeros"}}, "class_name": "BatchNormalization"}, {"inbound_nodes": [[["batch_normalization_57", 0, 0, {}]]], "name": "hg_1_l2convBlock_conv_3x3_x2", "config": {"padding": "same", "use_bias": true, "trainable": true, "activity_regularizer": null, "kernel_initializer": {"config": {"mode": "fan_avg", "scale": 1.0, "distribution": "uniform", "seed": null}, "class_name": "VarianceScaling"}, "name": "hg_1_l2convBlock_conv_3x3_x2", "strides": [1, 1], "filters": 64, "bias_initializer": {"config": {}, "class_name": "Zeros"}, "activation": "relu", "data_format": "channels_last", "kernel_size": [3, 3], "kernel_constraint": null, "dilation_rate": [1, 1], "bias_constraint": null, "kernel_regularizer": null, "bias_regularizer": null}, "class_name": "Conv2D"}, {"inbound_nodes": [[["hg_1_l2convBlock_conv_3x3_x2", 0, 0, {}]]], "name": "batch_normalization_58", "config": {"gamma_regularizer": null, "trainable": true, "moving_variance_initializer": {"config": {}, "class_name": "Ones"}, "name": "batch_normalization_58", "center": true, "beta_regularizer": null, "beta_constraint": null, "epsilon": 0.001, "gamma_constraint": null, "axis": -1, "momentum": 0.99, "beta_initializer": {"config": {}, "class_name": "Zeros"}, "gamma_initializer": {"config": {}, "class_name": "Ones"}, "scale": true, "moving_mean_initializer": {"config": {}, "class_name": "Zeros"}}, "class_name": "BatchNormalization"}, {"inbound_nodes": [[["batch_normalization_58", 0, 0, {}]]], "name": "hg_1_l2convBlock_conv_1x1_x3", "config": {"padding": "same", "use_bias": true, "trainable": true, "activity_regularizer": null, "kernel_initializer": {"config": {"mode": "fan_avg", "scale": 1.0, "distribution": "uniform", "seed": null}, "class_name": "VarianceScaling"}, "name": "hg_1_l2convBlock_conv_1x1_x3", "strides": [1, 1], "filters": 128, "bias_initializer": {"config": {}, "class_name": "Zeros"}, "activation": "relu", "data_format": "channels_last", "kernel_size": [1, 1], "kernel_constraint": null, "dilation_rate": [1, 1], "bias_constraint": null, "kernel_regularizer": null, "bias_regularizer": null}, "class_name": "Conv2D"}, {"inbound_nodes": [[["hg_1_l2convBlock_conv_1x1_x3", 0, 0, {}]]], "name": "batch_normalization_59", "config": {"gamma_regularizer": null, "trainable": true, "moving_variance_initializer": {"config": {}, "class_name": "Ones"}, "name": "batch_normalization_59", "center": true, "beta_regularizer": null, "beta_constraint": null, "epsilon": 0.001, "gamma_constraint": null, "axis": -1, "momentum": 0.99, "beta_initializer": {"config": {}, "class_name": "Zeros"}, "gamma_initializer": {"config": {}, "class_name": "Ones"}, "scale": true, "moving_mean_initializer": {"config": {}, "class_name": "Zeros"}}, "class_name": "BatchNormalization"}, {"inbound_nodes": [[["batch_normalization_59", 0, 0, {}], ["max_pooling2d_5", 0, 0, {}]]], "name": "add_24", "config": {"trainable": true, "name": "add_24"}, "class_name": "Add"}, {"inbound_nodes": [[["add_24", 0, 0, {}]]], "name": "max_pooling2d_6", "config": {"padding": "valid", "pool_size": [2, 2], "trainable": true, "name": "max_pooling2d_6", "strides": [2, 2], "data_format": "channels_last"}, "class_name": "MaxPooling2D"}, {"inbound_nodes": [[["max_pooling2d_6", 0, 0, {}]]], "name": "hg_1_l4convBlock_conv_1x1_x1", "config": {"padding": "same", "use_bias": true, "trainable": true, "activity_regularizer": null, "kernel_initializer": {"config": {"mode": "fan_avg", "scale": 1.0, "distribution": "uniform", "seed": null}, "class_name": "VarianceScaling"}, "name": "hg_1_l4convBlock_conv_1x1_x1", "strides": [1, 1], "filters": 64, "bias_initializer": {"config": {}, "class_name": "Zeros"}, "activation": "relu", "data_format": "channels_last", "kernel_size": [1, 1], "kernel_constraint": null, "dilation_rate": [1, 1], "bias_constraint": null, "kernel_regularizer": null, "bias_regularizer": null}, "class_name": "Conv2D"}, {"inbound_nodes": [[["hg_1_l4convBlock_conv_1x1_x1", 0, 0, {}]]], "name": "batch_normalization_60", "config": {"gamma_regularizer": null, "trainable": true, "moving_variance_initializer": {"config": {}, "class_name": "Ones"}, "name": "batch_normalization_60", "center": true, "beta_regularizer": null, "beta_constraint": null, "epsilon": 0.001, "gamma_constraint": null, "axis": -1, "momentum": 0.99, "beta_initializer": {"config": {}, "class_name": "Zeros"}, "gamma_initializer": {"config": {}, "class_name": "Ones"}, "scale": true, "moving_mean_initializer": {"config": {}, "class_name": "Zeros"}}, "class_name": "BatchNormalization"}, {"inbound_nodes": [[["batch_normalization_60", 0, 0, {}]]], "name": "hg_1_l4convBlock_conv_3x3_x2", "config": {"padding": "same", "use_bias": true, "trainable": true, "activity_regularizer": null, "kernel_initializer": {"config": {"mode": "fan_avg", "scale": 1.0, "distribution": "uniform", "seed": null}, "class_name": "VarianceScaling"}, "name": "hg_1_l4convBlock_conv_3x3_x2", "strides": [1, 1], "filters": 64, "bias_initializer": {"config": {}, "class_name": "Zeros"}, "activation": "relu", "data_format": "channels_last", "kernel_size": [3, 3], "kernel_constraint": null, "dilation_rate": [1, 1], "bias_constraint": null, "kernel_regularizer": null, "bias_regularizer": null}, "class_name": "Conv2D"}, {"inbound_nodes": [[["hg_1_l4convBlock_conv_3x3_x2", 0, 0, {}]]], "name": "batch_normalization_61", "config": {"gamma_regularizer": null, "trainable": true, "moving_variance_initializer": {"config": {}, "class_name": "Ones"}, "name": "batch_normalization_61", "center": true, "beta_regularizer": null, "beta_constraint": null, "epsilon": 0.001, "gamma_constraint": null, "axis": -1, "momentum": 0.99, "beta_initializer": {"config": {}, "class_name": "Zeros"}, "gamma_initializer": {"config": {}, "class_name": "Ones"}, "scale": true, "moving_mean_initializer": {"config": {}, "class_name": "Zeros"}}, "class_name": "BatchNormalization"}, {"inbound_nodes": [[["batch_normalization_61", 0, 0, {}]]], "name": "hg_1_l4convBlock_conv_1x1_x3", "config": {"padding": "same", "use_bias": true, "trainable": true, "activity_regularizer": null, "kernel_initializer": {"config": {"mode": "fan_avg", "scale": 1.0, "distribution": "uniform", "seed": null}, "class_name": "VarianceScaling"}, "name": "hg_1_l4convBlock_conv_1x1_x3", "strides": [1, 1], "filters": 128, "bias_initializer": {"config": {}, "class_name": "Zeros"}, "activation": "relu", "data_format": "channels_last", "kernel_size": [1, 1], "kernel_constraint": null, "dilation_rate": [1, 1], "bias_constraint": null, "kernel_regularizer": null, "bias_regularizer": null}, "class_name": "Conv2D"}, {"inbound_nodes": [[["hg_1_l4convBlock_conv_1x1_x3", 0, 0, {}]]], "name": "batch_normalization_62", "config": {"gamma_regularizer": null, "trainable": true, "moving_variance_initializer": {"config": {}, "class_name": "Ones"}, "name": "batch_normalization_62", "center": true, "beta_regularizer": null, "beta_constraint": null, "epsilon": 0.001, "gamma_constraint": null, "axis": -1, "momentum": 0.99, "beta_initializer": {"config": {}, "class_name": "Zeros"}, "gamma_initializer": {"config": {}, "class_name": "Ones"}, "scale": true, "moving_mean_initializer": {"config": {}, "class_name": "Zeros"}}, "class_name": "BatchNormalization"}, {"inbound_nodes": [[["batch_normalization_62", 0, 0, {}], ["max_pooling2d_6", 0, 0, {}]]], "name": "add_25", "config": {"trainable": true, "name": "add_25"}, "class_name": "Add"}, {"inbound_nodes": [[["add_25", 0, 0, {}]]], "name": "max_pooling2d_7", "config": {"padding": "valid", "pool_size": [2, 2], "trainable": true, "name": "max_pooling2d_7", "strides": [2, 2], "data_format": "channels_last"}, "class_name": "MaxPooling2D"}, {"inbound_nodes": [[["max_pooling2d_7", 0, 0, {}]]], "name": "hg_1_l8convBlock_conv_1x1_x1", "config": {"padding": "same", "use_bias": true, "trainable": true, "activity_regularizer": null, "kernel_initializer": {"config": {"mode": "fan_avg", "scale": 1.0, "distribution": "uniform", "seed": null}, "class_name": "VarianceScaling"}, "name": "hg_1_l8convBlock_conv_1x1_x1", "strides": [1, 1], "filters": 64, "bias_initializer": {"config": {}, "class_name": "Zeros"}, "activation": "relu", "data_format": "channels_last", "kernel_size": [1, 1], "kernel_constraint": null, "dilation_rate": [1, 1], "bias_constraint": null, "kernel_regularizer": null, "bias_regularizer": null}, "class_name": "Conv2D"}, {"inbound_nodes": [[["hg_1_l8convBlock_conv_1x1_x1", 0, 0, {}]]], "name": "batch_normalization_63", "config": {"gamma_regularizer": null, "trainable": true, "moving_variance_initializer": {"config": {}, "class_name": "Ones"}, "name": "batch_normalization_63", "center": true, "beta_regularizer": null, "beta_constraint": null, "epsilon": 0.001, "gamma_constraint": null, "axis": -1, "momentum": 0.99, "beta_initializer": {"config": {}, "class_name": "Zeros"}, "gamma_initializer": {"config": {}, "class_name": "Ones"}, "scale": true, "moving_mean_initializer": {"config": {}, "class_name": "Zeros"}}, "class_name": "BatchNormalization"}, {"inbound_nodes": [[["batch_normalization_63", 0, 0, {}]]], "name": "hg_1_l8convBlock_conv_3x3_x2", "config": {"padding": "same", "use_bias": true, "trainable": true, "activity_regularizer": null, "kernel_initializer": {"config": {"mode": "fan_avg", "scale": 1.0, "distribution": "uniform", "seed": null}, "class_name": "VarianceScaling"}, "name": "hg_1_l8convBlock_conv_3x3_x2", "strides": [1, 1], "filters": 64, "bias_initializer": {"config": {}, "class_name": "Zeros"}, "activation": "relu", "data_format": "channels_last", "kernel_size": [3, 3], "kernel_constraint": null, "dilation_rate": [1, 1], "bias_constraint": null, "kernel_regularizer": null, "bias_regularizer": null}, "class_name": "Conv2D"}, {"inbound_nodes": [[["hg_1_l8convBlock_conv_3x3_x2", 0, 0, {}]]], "name": "batch_normalization_64", "config": {"gamma_regularizer": null, "trainable": true, "moving_variance_initializer": {"config": {}, "class_name": "Ones"}, "name": "batch_normalization_64", "center": true, "beta_regularizer": null, "beta_constraint": null, "epsilon": 0.001, "gamma_constraint": null, "axis": -1, "momentum": 0.99, "beta_initializer": {"config": {}, "class_name": "Zeros"}, "gamma_initializer": {"config": {}, "class_name": "Ones"}, "scale": true, "moving_mean_initializer": {"config": {}, "class_name": "Zeros"}}, "class_name": "BatchNormalization"}, {"inbound_nodes": [[["batch_normalization_64", 0, 0, {}]]], "name": "hg_1_l8convBlock_conv_1x1_x3", "config": {"padding": "same", "use_bias": true, "trainable": true, "activity_regularizer": null, "kernel_initializer": {"config": {"mode": "fan_avg", "scale": 1.0, "distribution": "uniform", "seed": null}, "class_name": "VarianceScaling"}, "name": "hg_1_l8convBlock_conv_1x1_x3", "strides": [1, 1], "filters": 128, "bias_initializer": {"config": {}, "class_name": "Zeros"}, "activation": "relu", "data_format": "channels_last", "kernel_size": [1, 1], "kernel_constraint": null, "dilation_rate": [1, 1], "bias_constraint": null, "kernel_regularizer": null, "bias_regularizer": null}, "class_name": "Conv2D"}, {"inbound_nodes": [[["hg_1_l8convBlock_conv_1x1_x3", 0, 0, {}]]], "name": "batch_normalization_65", "config": {"gamma_regularizer": null, "trainable": true, "moving_variance_initializer": {"config": {}, "class_name": "Ones"}, "name": "batch_normalization_65", "center": true, "beta_regularizer": null, "beta_constraint": null, "epsilon": 0.001, "gamma_constraint": null, "axis": -1, "momentum": 0.99, "beta_initializer": {"config": {}, "class_name": "Zeros"}, "gamma_initializer": {"config": {}, "class_name": "Ones"}, "scale": true, "moving_mean_initializer": {"config": {}, "class_name": "Zeros"}}, "class_name": "BatchNormalization"}, {"inbound_nodes": [[["batch_normalization_65", 0, 0, {}], ["max_pooling2d_7", 0, 0, {}]]], "name": "add_26", "config": {"trainable": true, "name": "add_26"}, "class_name": "Add"}, {"inbound_nodes": [[["add_26", 0, 0, {}]]], "name": "hg_1lf8_resi_x1_convBlock_conv_1x1_x1", "config": {"padding": "same", "use_bias": true, "trainable": true, "activity_regularizer": null, "kernel_initializer": {"config": {"mode": "fan_avg", "scale": 1.0, "distribution": "uniform", "seed": null}, "class_name": "VarianceScaling"}, "name": "hg_1lf8_resi_x1_convBlock_conv_1x1_x1", "strides": [1, 1], "filters": 64, "bias_initializer": {"config": {}, "class_name": "Zeros"}, "activation": "relu", "data_format": "channels_last", "kernel_size": [1, 1], "kernel_constraint": null, "dilation_rate": [1, 1], "bias_constraint": null, "kernel_regularizer": null, "bias_regularizer": null}, "class_name": "Conv2D"}, {"inbound_nodes": [[["hg_1lf8_resi_x1_convBlock_conv_1x1_x1", 0, 0, {}]]], "name": "batch_normalization_69", "config": {"gamma_regularizer": null, "trainable": true, "moving_variance_initializer": {"config": {}, "class_name": "Ones"}, "name": "batch_normalization_69", "center": true, "beta_regularizer": null, "beta_constraint": null, "epsilon": 0.001, "gamma_constraint": null, "axis": -1, "momentum": 0.99, "beta_initializer": {"config": {}, "class_name": "Zeros"}, "gamma_initializer": {"config": {}, "class_name": "Ones"}, "scale": true, "moving_mean_initializer": {"config": {}, "class_name": "Zeros"}}, "class_name": "BatchNormalization"}, {"inbound_nodes": [[["batch_normalization_69", 0, 0, {}]]], "name": "hg_1lf8_resi_x1_convBlock_conv_3x3_x2", "config": {"padding": "same", "use_bias": true, "trainable": true, "activity_regularizer": null, "kernel_initializer": {"config": {"mode": "fan_avg", "scale": 1.0, "distribution": "uniform", "seed": null}, "class_name": "VarianceScaling"}, "name": "hg_1lf8_resi_x1_convBlock_conv_3x3_x2", "strides": [1, 1], "filters": 64, "bias_initializer": {"config": {}, "class_name": "Zeros"}, "activation": "relu", "data_format": "channels_last", "kernel_size": [3, 3], "kernel_constraint": null, "dilation_rate": [1, 1], "bias_constraint": null, "kernel_regularizer": null, "bias_regularizer": null}, "class_name": "Conv2D"}, {"inbound_nodes": [[["hg_1lf8_resi_x1_convBlock_conv_3x3_x2", 0, 0, {}]]], "name": "batch_normalization_70", "config": {"gamma_regularizer": null, "trainable": true, "moving_variance_initializer": {"config": {}, "class_name": "Ones"}, "name": "batch_normalization_70", "center": true, "beta_regularizer": null, "beta_constraint": null, "epsilon": 0.001, "gamma_constraint": null, "axis": -1, "momentum": 0.99, "beta_initializer": {"config": {}, "class_name": "Zeros"}, "gamma_initializer": {"config": {}, "class_name": "Ones"}, "scale": true, "moving_mean_initializer": {"config": {}, "class_name": "Zeros"}}, "class_name": "BatchNormalization"}, {"inbound_nodes": [[["batch_normalization_70", 0, 0, {}]]], "name": "hg_1lf8_resi_x1_convBlock_conv_1x1_x3", "config": {"padding": "same", "use_bias": true, "trainable": true, "activity_regularizer": null, "kernel_initializer": {"config": {"mode": "fan_avg", "scale": 1.0, "distribution": "uniform", "seed": null}, "class_name": "VarianceScaling"}, "name": "hg_1lf8_resi_x1_convBlock_conv_1x1_x3", "strides": [1, 1], "filters": 128, "bias_initializer": {"config": {}, "class_name": "Zeros"}, "activation": "relu", "data_format": "channels_last", "kernel_size": [1, 1], "kernel_constraint": null, "dilation_rate": [1, 1], "bias_constraint": null, "kernel_regularizer": null, "bias_regularizer": null}, "class_name": "Conv2D"}, {"inbound_nodes": [[["hg_1lf8_resi_x1_convBlock_conv_1x1_x3", 0, 0, {}]]], "name": "batch_normalization_71", "config": {"gamma_regularizer": null, "trainable": true, "moving_variance_initializer": {"config": {}, "class_name": "Ones"}, "name": "batch_normalization_71", "center": true, "beta_regularizer": null, "beta_constraint": null, "epsilon": 0.001, "gamma_constraint": null, "axis": -1, "momentum": 0.99, "beta_initializer": {"config": {}, "class_name": "Zeros"}, "gamma_initializer": {"config": {}, "class_name": "Ones"}, "scale": true, "moving_mean_initializer": {"config": {}, "class_name": "Zeros"}}, "class_name": "BatchNormalization"}, {"inbound_nodes": [[["batch_normalization_71", 0, 0, {}], ["add_26", 0, 0, {}]]], "name": "add_28", "config": {"trainable": true, "name": "add_28"}, "class_name": "Add"}, {"inbound_nodes": [[["add_28", 0, 0, {}]]], "name": "hg_1lf8_resi_x2_convBlock_conv_1x1_x1", "config": {"padding": "same", "use_bias": true, "trainable": true, "activity_regularizer": null, "kernel_initializer": {"config": {"mode": "fan_avg", "scale": 1.0, "distribution": "uniform", "seed": null}, "class_name": "VarianceScaling"}, "name": "hg_1lf8_resi_x2_convBlock_conv_1x1_x1", "strides": [1, 1], "filters": 64, "bias_initializer": {"config": {}, "class_name": "Zeros"}, "activation": "relu", "data_format": "channels_last", "kernel_size": [1, 1], "kernel_constraint": null, "dilation_rate": [1, 1], "bias_constraint": null, "kernel_regularizer": null, "bias_regularizer": null}, "class_name": "Conv2D"}, {"inbound_nodes": [[["hg_1lf8_resi_x2_convBlock_conv_1x1_x1", 0, 0, {}]]], "name": "batch_normalization_72", "config": {"gamma_regularizer": null, "trainable": true, "moving_variance_initializer": {"config": {}, "class_name": "Ones"}, "name": "batch_normalization_72", "center": true, "beta_regularizer": null, "beta_constraint": null, "epsilon": 0.001, "gamma_constraint": null, "axis": -1, "momentum": 0.99, "beta_initializer": {"config": {}, "class_name": "Zeros"}, "gamma_initializer": {"config": {}, "class_name": "Ones"}, "scale": true, "moving_mean_initializer": {"config": {}, "class_name": "Zeros"}}, "class_name": "BatchNormalization"}, {"inbound_nodes": [[["batch_normalization_72", 0, 0, {}]]], "name": "hg_1lf8_resi_x2_convBlock_conv_3x3_x2", "config": {"padding": "same", "use_bias": true, "trainable": true, "activity_regularizer": null, "kernel_initializer": {"config": {"mode": "fan_avg", "scale": 1.0, "distribution": "uniform", "seed": null}, "class_name": "VarianceScaling"}, "name": "hg_1lf8_resi_x2_convBlock_conv_3x3_x2", "strides": [1, 1], "filters": 64, "bias_initializer": {"config": {}, "class_name": "Zeros"}, "activation": "relu", "data_format": "channels_last", "kernel_size": [3, 3], "kernel_constraint": null, "dilation_rate": [1, 1], "bias_constraint": null, "kernel_regularizer": null, "bias_regularizer": null}, "class_name": "Conv2D"}, {"inbound_nodes": [[["hg_1lf8_resi_x2_convBlock_conv_3x3_x2", 0, 0, {}]]], "name": "batch_normalization_73", "config": {"gamma_regularizer": null, "trainable": true, "moving_variance_initializer": {"config": {}, "class_name": "Ones"}, "name": "batch_normalization_73", "center": true, "beta_regularizer": null, "beta_constraint": null, "epsilon": 0.001, "gamma_constraint": null, "axis": -1, "momentum": 0.99, "beta_initializer": {"config": {}, "class_name": "Zeros"}, "gamma_initializer": {"config": {}, "class_name": "Ones"}, "scale": true, "moving_mean_initializer": {"config": {}, "class_name": "Zeros"}}, "class_name": "BatchNormalization"}, {"inbound_nodes": [[["batch_normalization_73", 0, 0, {}]]], "name": "hg_1lf8_resi_x2_convBlock_conv_1x1_x3", "config": {"padding": "same", "use_bias": true, "trainable": true, "activity_regularizer": null, "kernel_initializer": {"config": {"mode": "fan_avg", "scale": 1.0, "distribution": "uniform", "seed": null}, "class_name": "VarianceScaling"}, "name": "hg_1lf8_resi_x2_convBlock_conv_1x1_x3", "strides": [1, 1], "filters": 128, "bias_initializer": {"config": {}, "class_name": "Zeros"}, "activation": "relu", "data_format": "channels_last", "kernel_size": [1, 1], "kernel_constraint": null, "dilation_rate": [1, 1], "bias_constraint": null, "kernel_regularizer": null, "bias_regularizer": null}, "class_name": "Conv2D"}, {"inbound_nodes": [[["hg_1lf8_resi_x2_convBlock_conv_1x1_x3", 0, 0, {}]]], "name": "batch_normalization_74", "config": {"gamma_regularizer": null, "trainable": true, "moving_variance_initializer": {"config": {}, "class_name": "Ones"}, "name": "batch_normalization_74", "center": true, "beta_regularizer": null, "beta_constraint": null, "epsilon": 0.001, "gamma_constraint": null, "axis": -1, "momentum": 0.99, "beta_initializer": {"config": {}, "class_name": "Zeros"}, "gamma_initializer": {"config": {}, "class_name": "Ones"}, "scale": true, "moving_mean_initializer": {"config": {}, "class_name": "Zeros"}}, "class_name": "BatchNormalization"}, {"inbound_nodes": [[["batch_normalization_74", 0, 0, {}], ["add_28", 0, 0, {}]]], "name": "add_29", "config": {"trainable": true, "name": "add_29"}, "class_name": "Add"}, {"inbound_nodes": [[["add_29", 0, 0, {}]]], "name": "hg_1lf8_resi_x3_convBlock_conv_1x1_x1", "config": {"padding": "same", "use_bias": true, "trainable": true, "activity_regularizer": null, "kernel_initializer": {"config": {"mode": "fan_avg", "scale": 1.0, "distribution": "uniform", "seed": null}, "class_name": "VarianceScaling"}, "name": "hg_1lf8_resi_x3_convBlock_conv_1x1_x1", "strides": [1, 1], "filters": 64, "bias_initializer": {"config": {}, "class_name": "Zeros"}, "activation": "relu", "data_format": "channels_last", "kernel_size": [1, 1], "kernel_constraint": null, "dilation_rate": [1, 1], "bias_constraint": null, "kernel_regularizer": null, "bias_regularizer": null}, "class_name": "Conv2D"}, {"inbound_nodes": [[["add_26", 0, 0, {}]]], "name": "hg_1_lf8convBlock_conv_1x1_x1", "config": {"padding": "same", "use_bias": true, "trainable": true, "activity_regularizer": null, "kernel_initializer": {"config": {"mode": "fan_avg", "scale": 1.0, "distribution": "uniform", "seed": null}, "class_name": "VarianceScaling"}, "name": "hg_1_lf8convBlock_conv_1x1_x1", "strides": [1, 1], "filters": 64, "bias_initializer": {"config": {}, "class_name": "Zeros"}, "activation": "relu", "data_format": "channels_last", "kernel_size": [1, 1], "kernel_constraint": null, "dilation_rate": [1, 1], "bias_constraint": null, "kernel_regularizer": null, "bias_regularizer": null}, "class_name": "Conv2D"}, {"inbound_nodes": [[["hg_1lf8_resi_x3_convBlock_conv_1x1_x1", 0, 0, {}]]], "name": "batch_normalization_75", "config": {"gamma_regularizer": null, "trainable": true, "moving_variance_initializer": {"config": {}, "class_name": "Ones"}, "name": "batch_normalization_75", "center": true, "beta_regularizer": null, "beta_constraint": null, "epsilon": 0.001, "gamma_constraint": null, "axis": -1, "momentum": 0.99, "beta_initializer": {"config": {}, "class_name": "Zeros"}, "gamma_initializer": {"config": {}, "class_name": "Ones"}, "scale": true, "moving_mean_initializer": {"config": {}, "class_name": "Zeros"}}, "class_name": "BatchNormalization"}, {"inbound_nodes": [[["hg_1_lf8convBlock_conv_1x1_x1", 0, 0, {}]]], "name": "batch_normalization_66", "config": {"gamma_regularizer": null, "trainable": true, "moving_variance_initializer": {"config": {}, "class_name": "Ones"}, "name": "batch_normalization_66", "center": true, "beta_regularizer": null, "beta_constraint": null, "epsilon": 0.001, "gamma_constraint": null, "axis": -1, "momentum": 0.99, "beta_initializer": {"config": {}, "class_name": "Zeros"}, "gamma_initializer": {"config": {}, "class_name": "Ones"}, "scale": true, "moving_mean_initializer": {"config": {}, "class_name": "Zeros"}}, "class_name": "BatchNormalization"}, {"inbound_nodes": [[["add_25", 0, 0, {}]]], "name": "hg_1_rf4_connect_left_resi_convBlock_conv_1x1_x1", "config": {"padding": "same", "use_bias": true, "trainable": true, "activity_regularizer": null, "kernel_initializer": {"config": {"mode": "fan_avg", "scale": 1.0, "distribution": "uniform", "seed": null}, "class_name": "VarianceScaling"}, "name": "hg_1_rf4_connect_left_resi_convBlock_conv_1x1_x1", "strides": [1, 1], "filters": 64, "bias_initializer": {"config": {}, "class_name": "Zeros"}, "activation": "relu", "data_format": "channels_last", "kernel_size": [1, 1], "kernel_constraint": null, "dilation_rate": [1, 1], "bias_constraint": null, "kernel_regularizer": null, "bias_regularizer": null}, "class_name": "Conv2D"}, {"inbound_nodes": [[["batch_normalization_75", 0, 0, {}]]], "name": "hg_1lf8_resi_x3_convBlock_conv_3x3_x2", "config": {"padding": "same", "use_bias": true, "trainable": true, "activity_regularizer": null, "kernel_initializer": {"config": {"mode": "fan_avg", "scale": 1.0, "distribution": "uniform", "seed": null}, "class_name": "VarianceScaling"}, "name": "hg_1lf8_resi_x3_convBlock_conv_3x3_x2", "strides": [1, 1], "filters": 64, "bias_initializer": {"config": {}, "class_name": "Zeros"}, "activation": "relu", "data_format": "channels_last", "kernel_size": [3, 3], "kernel_constraint": null, "dilation_rate": [1, 1], "bias_constraint": null, "kernel_regularizer": null, "bias_regularizer": null}, "class_name": "Conv2D"}, {"inbound_nodes": [[["batch_normalization_66", 0, 0, {}]]], "name": "hg_1_lf8convBlock_conv_3x3_x2", "config": {"padding": "same", "use_bias": true, "trainable": true, "activity_regularizer": null, "kernel_initializer": {"config": {"mode": "fan_avg", "scale": 1.0, "distribution": "uniform", "seed": null}, "class_name": "VarianceScaling"}, "name": "hg_1_lf8convBlock_conv_3x3_x2", "strides": [1, 1], "filters": 64, "bias_initializer": {"config": {}, "class_name": "Zeros"}, "activation": "relu", "data_format": "channels_last", "kernel_size": [3, 3], "kernel_constraint": null, "dilation_rate": [1, 1], "bias_constraint": null, "kernel_regularizer": null, "bias_regularizer": null}, "class_name": "Conv2D"}, {"inbound_nodes": [[["hg_1_rf4_connect_left_resi_convBlock_conv_1x1_x1", 0, 0, {}]]], "name": "batch_normalization_78", "config": {"gamma_regularizer": null, "trainable": true, "moving_variance_initializer": {"config": {}, "class_name": "Ones"}, "name": "batch_normalization_78", "center": true, "beta_regularizer": null, "beta_constraint": null, "epsilon": 0.001, "gamma_constraint": null, "axis": -1, "momentum": 0.99, "beta_initializer": {"config": {}, "class_name": "Zeros"}, "gamma_initializer": {"config": {}, "class_name": "Ones"}, "scale": true, "moving_mean_initializer": {"config": {}, "class_name": "Zeros"}}, "class_name": "BatchNormalization"}, {"inbound_nodes": [[["hg_1lf8_resi_x3_convBlock_conv_3x3_x2", 0, 0, {}]]], "name": "batch_normalization_76", "config": {"gamma_regularizer": null, "trainable": true, "moving_variance_initializer": {"config": {}, "class_name": "Ones"}, "name": "batch_normalization_76", "center": true, "beta_regularizer": null, "beta_constraint": null, "epsilon": 0.001, "gamma_constraint": null, "axis": -1, "momentum": 0.99, "beta_initializer": {"config": {}, "class_name": "Zeros"}, "gamma_initializer": {"config": {}, "class_name": "Ones"}, "scale": true, "moving_mean_initializer": {"config": {}, "class_name": "Zeros"}}, "class_name": "BatchNormalization"}, {"inbound_nodes": [[["hg_1_lf8convBlock_conv_3x3_x2", 0, 0, {}]]], "name": "batch_normalization_67", "config": {"gamma_regularizer": null, "trainable": true, "moving_variance_initializer": {"config": {}, "class_name": "Ones"}, "name": "batch_normalization_67", "center": true, "beta_regularizer": null, "beta_constraint": null, "epsilon": 0.001, "gamma_constraint": null, "axis": -1, "momentum": 0.99, "beta_initializer": {"config": {}, "class_name": "Zeros"}, "gamma_initializer": {"config": {}, "class_name": "Ones"}, "scale": true, "moving_mean_initializer": {"config": {}, "class_name": "Zeros"}}, "class_name": "BatchNormalization"}, {"inbound_nodes": [[["batch_normalization_78", 0, 0, {}]]], "name": "hg_1_rf4_connect_left_resi_convBlock_conv_3x3_x2", "config": {"padding": "same", "use_bias": true, "trainable": true, "activity_regularizer": null, "kernel_initializer": {"config": {"mode": "fan_avg", "scale": 1.0, "distribution": "uniform", "seed": null}, "class_name": "VarianceScaling"}, "name": "hg_1_rf4_connect_left_resi_convBlock_conv_3x3_x2", "strides": [1, 1], "filters": 64, "bias_initializer": {"config": {}, "class_name": "Zeros"}, "activation": "relu", "data_format": "channels_last", "kernel_size": [3, 3], "kernel_constraint": null, "dilation_rate": [1, 1], "bias_constraint": null, "kernel_regularizer": null, "bias_regularizer": null}, "class_name": "Conv2D"}, {"inbound_nodes": [[["batch_normalization_76", 0, 0, {}]]], "name": "hg_1lf8_resi_x3_convBlock_conv_1x1_x3", "config": {"padding": "same", "use_bias": true, "trainable": true, "activity_regularizer": null, "kernel_initializer": {"config": {"mode": "fan_avg", "scale": 1.0, "distribution": "uniform", "seed": null}, "class_name": "VarianceScaling"}, "name": "hg_1lf8_resi_x3_convBlock_conv_1x1_x3", "strides": [1, 1], "filters": 128, "bias_initializer": {"config": {}, "class_name": "Zeros"}, "activation": "relu", "data_format": "channels_last", "kernel_size": [1, 1], "kernel_constraint": null, "dilation_rate": [1, 1], "bias_constraint": null, "kernel_regularizer": null, "bias_regularizer": null}, "class_name": "Conv2D"}, {"inbound_nodes": [[["batch_normalization_67", 0, 0, {}]]], "name": "hg_1_lf8convBlock_conv_1x1_x3", "config": {"padding": "same", "use_bias": true, "trainable": true, "activity_regularizer": null, "kernel_initializer": {"config": {"mode": "fan_avg", "scale": 1.0, "distribution": "uniform", "seed": null}, "class_name": "VarianceScaling"}, "name": "hg_1_lf8convBlock_conv_1x1_x3", "strides": [1, 1], "filters": 128, "bias_initializer": {"config": {}, "class_name": "Zeros"}, "activation": "relu", "data_format": "channels_last", "kernel_size": [1, 1], "kernel_constraint": null, "dilation_rate": [1, 1], "bias_constraint": null, "kernel_regularizer": null, "bias_regularizer": null}, "class_name": "Conv2D"}, {"inbound_nodes": [[["hg_1_rf4_connect_left_resi_convBlock_conv_3x3_x2", 0, 0, {}]]], "name": "batch_normalization_79", "config": {"gamma_regularizer": null, "trainable": true, "moving_variance_initializer": {"config": {}, "class_name": "Ones"}, "name": "batch_normalization_79", "center": true, "beta_regularizer": null, "beta_constraint": null, "epsilon": 0.001, "gamma_constraint": null, "axis": -1, "momentum": 0.99, "beta_initializer": {"config": {}, "class_name": "Zeros"}, "gamma_initializer": {"config": {}, "class_name": "Ones"}, "scale": true, "moving_mean_initializer": {"config": {}, "class_name": "Zeros"}}, "class_name": "BatchNormalization"}, {"inbound_nodes": [[["hg_1lf8_resi_x3_convBlock_conv_1x1_x3", 0, 0, {}]]], "name": "batch_normalization_77", "config": {"gamma_regularizer": null, "trainable": true, "moving_variance_initializer": {"config": {}, "class_name": "Ones"}, "name": "batch_normalization_77", "center": true, "beta_regularizer": null, "beta_constraint": null, "epsilon": 0.001, "gamma_constraint": null, "axis": -1, "momentum": 0.99, "beta_initializer": {"config": {}, "class_name": "Zeros"}, "gamma_initializer": {"config": {}, "class_name": "Ones"}, "scale": true, "moving_mean_initializer": {"config": {}, "class_name": "Zeros"}}, "class_name": "BatchNormalization"}, {"inbound_nodes": [[["hg_1_lf8convBlock_conv_1x1_x3", 0, 0, {}]]], "name": "batch_normalization_68", "config": {"gamma_regularizer": null, "trainable": true, "moving_variance_initializer": {"config": {}, "class_name": "Ones"}, "name": "batch_normalization_68", "center": true, "beta_regularizer": null, "beta_constraint": null, "epsilon": 0.001, "gamma_constraint": null, "axis": -1, "momentum": 0.99, "beta_initializer": {"config": {}, "class_name": "Zeros"}, "gamma_initializer": {"config": {}, "class_name": "Ones"}, "scale": true, "moving_mean_initializer": {"config": {}, "class_name": "Zeros"}}, "class_name": "BatchNormalization"}, {"inbound_nodes": [[["batch_normalization_79", 0, 0, {}]]], "name": "hg_1_rf4_connect_left_resi_convBlock_conv_1x1_x3", "config": {"padding": "same", "use_bias": true, "trainable": true, "activity_regularizer": null, "kernel_initializer": {"config": {"mode": "fan_avg", "scale": 1.0, "distribution": "uniform", "seed": null}, "class_name": "VarianceScaling"}, "name": "hg_1_rf4_connect_left_resi_convBlock_conv_1x1_x3", "strides": [1, 1], "filters": 128, "bias_initializer": {"config": {}, "class_name": "Zeros"}, "activation": "relu", "data_format": "channels_last", "kernel_size": [1, 1], "kernel_constraint": null, "dilation_rate": [1, 1], "bias_constraint": null, "kernel_regularizer": null, "bias_regularizer": null}, "class_name": "Conv2D"}, {"inbound_nodes": [[["batch_normalization_77", 0, 0, {}], ["add_29", 0, 0, {}]]], "name": "add_30", "config": {"trainable": true, "name": "add_30"}, "class_name": "Add"}, {"inbound_nodes": [[["batch_normalization_68", 0, 0, {}], ["add_26", 0, 0, {}]]], "name": "add_27", "config": {"trainable": true, "name": "add_27"}, "class_name": "Add"}, {"inbound_nodes": [[["hg_1_rf4_connect_left_resi_convBlock_conv_1x1_x3", 0, 0, {}]]], "name": "batch_normalization_80", "config": {"gamma_regularizer": null, "trainable": true, "moving_variance_initializer": {"config": {}, "class_name": "Ones"}, "name": "batch_normalization_80", "center": true, "beta_regularizer": null, "beta_constraint": null, "epsilon": 0.001, "gamma_constraint": null, "axis": -1, "momentum": 0.99, "beta_initializer": {"config": {}, "class_name": "Zeros"}, "gamma_initializer": {"config": {}, "class_name": "Ones"}, "scale": true, "moving_mean_initializer": {"config": {}, "class_name": "Zeros"}}, "class_name": "BatchNormalization"}, {"inbound_nodes": [[["add_30", 0, 0, {}], ["add_27", 0, 0, {}]]], "name": "add_31", "config": {"trainable": true, "name": "add_31"}, "class_name": "Add"}, {"inbound_nodes": [[["batch_normalization_80", 0, 0, {}], ["add_25", 0, 0, {}]]], "name": "add_32", "config": {"trainable": true, "name": "add_32"}, "class_name": "Add"}, {"inbound_nodes": [[["add_31", 0, 0, {}]]], "name": "up_sampling2d_4", "config": {"data_format": "channels_last", "trainable": true, "size": [2, 2], "name": "up_sampling2d_4"}, "class_name": "UpSampling2D"}, {"inbound_nodes": [[["add_32", 0, 0, {}], ["up_sampling2d_4", 0, 0, {}]]], "name": "add_33", "config": {"trainable": true, "name": "add_33"}, "class_name": "Add"}, {"inbound_nodes": [[["add_33", 0, 0, {}]]], "name": "hg_1_rf4_connect_convBlock_conv_1x1_x1", "config": {"padding": "same", "use_bias": true, "trainable": true, "activity_regularizer": null, "kernel_initializer": {"config": {"mode": "fan_avg", "scale": 1.0, "distribution": "uniform", "seed": null}, "class_name": "VarianceScaling"}, "name": "hg_1_rf4_connect_convBlock_conv_1x1_x1", "strides": [1, 1], "filters": 64, "bias_initializer": {"config": {}, "class_name": "Zeros"}, "activation": "relu", "data_format": "channels_last", "kernel_size": [1, 1], "kernel_constraint": null, "dilation_rate": [1, 1], "bias_constraint": null, "kernel_regularizer": null, "bias_regularizer": null}, "class_name": "Conv2D"}, {"inbound_nodes": [[["add_24", 0, 0, {}]]], "name": "hg_1_rf2_connect_left_resi_convBlock_conv_1x1_x1", "config": {"padding": "same", "use_bias": true, "trainable": true, "activity_regularizer": null, "kernel_initializer": {"config": {"mode": "fan_avg", "scale": 1.0, "distribution": "uniform", "seed": null}, "class_name": "VarianceScaling"}, "name": "hg_1_rf2_connect_left_resi_convBlock_conv_1x1_x1", "strides": [1, 1], "filters": 64, "bias_initializer": {"config": {}, "class_name": "Zeros"}, "activation": "relu", "data_format": "channels_last", "kernel_size": [1, 1], "kernel_constraint": null, "dilation_rate": [1, 1], "bias_constraint": null, "kernel_regularizer": null, "bias_regularizer": null}, "class_name": "Conv2D"}, {"inbound_nodes": [[["hg_1_rf4_connect_convBlock_conv_1x1_x1", 0, 0, {}]]], "name": "batch_normalization_81", "config": {"gamma_regularizer": null, "trainable": true, "moving_variance_initializer": {"config": {}, "class_name": "Ones"}, "name": "batch_normalization_81", "center": true, "beta_regularizer": null, "beta_constraint": null, "epsilon": 0.001, "gamma_constraint": null, "axis": -1, "momentum": 0.99, "beta_initializer": {"config": {}, "class_name": "Zeros"}, "gamma_initializer": {"config": {}, "class_name": "Ones"}, "scale": true, "moving_mean_initializer": {"config": {}, "class_name": "Zeros"}}, "class_name": "BatchNormalization"}, {"inbound_nodes": [[["hg_1_rf2_connect_left_resi_convBlock_conv_1x1_x1", 0, 0, {}]]], "name": "batch_normalization_84", "config": {"gamma_regularizer": null, "trainable": true, "moving_variance_initializer": {"config": {}, "class_name": "Ones"}, "name": "batch_normalization_84", "center": true, "beta_regularizer": null, "beta_constraint": null, "epsilon": 0.001, "gamma_constraint": null, "axis": -1, "momentum": 0.99, "beta_initializer": {"config": {}, "class_name": "Zeros"}, "gamma_initializer": {"config": {}, "class_name": "Ones"}, "scale": true, "moving_mean_initializer": {"config": {}, "class_name": "Zeros"}}, "class_name": "BatchNormalization"}, {"inbound_nodes": [[["batch_normalization_81", 0, 0, {}]]], "name": "hg_1_rf4_connect_convBlock_conv_3x3_x2", "config": {"padding": "same", "use_bias": true, "trainable": true, "activity_regularizer": null, "kernel_initializer": {"config": {"mode": "fan_avg", "scale": 1.0, "distribution": "uniform", "seed": null}, "class_name": "VarianceScaling"}, "name": "hg_1_rf4_connect_convBlock_conv_3x3_x2", "strides": [1, 1], "filters": 64, "bias_initializer": {"config": {}, "class_name": "Zeros"}, "activation": "relu", "data_format": "channels_last", "kernel_size": [3, 3], "kernel_constraint": null, "dilation_rate": [1, 1], "bias_constraint": null, "kernel_regularizer": null, "bias_regularizer": null}, "class_name": "Conv2D"}, {"inbound_nodes": [[["batch_normalization_84", 0, 0, {}]]], "name": "hg_1_rf2_connect_left_resi_convBlock_conv_3x3_x2", "config": {"padding": "same", "use_bias": true, "trainable": true, "activity_regularizer": null, "kernel_initializer": {"config": {"mode": "fan_avg", "scale": 1.0, "distribution": "uniform", "seed": null}, "class_name": "VarianceScaling"}, "name": "hg_1_rf2_connect_left_resi_convBlock_conv_3x3_x2", "strides": [1, 1], "filters": 64, "bias_initializer": {"config": {}, "class_name": "Zeros"}, "activation": "relu", "data_format": "channels_last", "kernel_size": [3, 3], "kernel_constraint": null, "dilation_rate": [1, 1], "bias_constraint": null, "kernel_regularizer": null, "bias_regularizer": null}, "class_name": "Conv2D"}, {"inbound_nodes": [[["hg_1_rf4_connect_convBlock_conv_3x3_x2", 0, 0, {}]]], "name": "batch_normalization_82", "config": {"gamma_regularizer": null, "trainable": true, "moving_variance_initializer": {"config": {}, "class_name": "Ones"}, "name": "batch_normalization_82", "center": true, "beta_regularizer": null, "beta_constraint": null, "epsilon": 0.001, "gamma_constraint": null, "axis": -1, "momentum": 0.99, "beta_initializer": {"config": {}, "class_name": "Zeros"}, "gamma_initializer": {"config": {}, "class_name": "Ones"}, "scale": true, "moving_mean_initializer": {"config": {}, "class_name": "Zeros"}}, "class_name": "BatchNormalization"}, {"inbound_nodes": [[["hg_1_rf2_connect_left_resi_convBlock_conv_3x3_x2", 0, 0, {}]]], "name": "batch_normalization_85", "config": {"gamma_regularizer": null, "trainable": true, "moving_variance_initializer": {"config": {}, "class_name": "Ones"}, "name": "batch_normalization_85", "center": true, "beta_regularizer": null, "beta_constraint": null, "epsilon": 0.001, "gamma_constraint": null, "axis": -1, "momentum": 0.99, "beta_initializer": {"config": {}, "class_name": "Zeros"}, "gamma_initializer": {"config": {}, "class_name": "Ones"}, "scale": true, "moving_mean_initializer": {"config": {}, "class_name": "Zeros"}}, "class_name": "BatchNormalization"}, {"inbound_nodes": [[["batch_normalization_82", 0, 0, {}]]], "name": "hg_1_rf4_connect_convBlock_conv_1x1_x3", "config": {"padding": "same", "use_bias": true, "trainable": true, "activity_regularizer": null, "kernel_initializer": {"config": {"mode": "fan_avg", "scale": 1.0, "distribution": "uniform", "seed": null}, "class_name": "VarianceScaling"}, "name": "hg_1_rf4_connect_convBlock_conv_1x1_x3", "strides": [1, 1], "filters": 128, "bias_initializer": {"config": {}, "class_name": "Zeros"}, "activation": "relu", "data_format": "channels_last", "kernel_size": [1, 1], "kernel_constraint": null, "dilation_rate": [1, 1], "bias_constraint": null, "kernel_regularizer": null, "bias_regularizer": null}, "class_name": "Conv2D"}, {"inbound_nodes": [[["batch_normalization_85", 0, 0, {}]]], "name": "hg_1_rf2_connect_left_resi_convBlock_conv_1x1_x3", "config": {"padding": "same", "use_bias": true, "trainable": true, "activity_regularizer": null, "kernel_initializer": {"config": {"mode": "fan_avg", "scale": 1.0, "distribution": "uniform", "seed": null}, "class_name": "VarianceScaling"}, "name": "hg_1_rf2_connect_left_resi_convBlock_conv_1x1_x3", "strides": [1, 1], "filters": 128, "bias_initializer": {"config": {}, "class_name": "Zeros"}, "activation": "relu", "data_format": "channels_last", "kernel_size": [1, 1], "kernel_constraint": null, "dilation_rate": [1, 1], "bias_constraint": null, "kernel_regularizer": null, "bias_regularizer": null}, "class_name": "Conv2D"}, {"inbound_nodes": [[["hg_1_rf4_connect_convBlock_conv_1x1_x3", 0, 0, {}]]], "name": "batch_normalization_83", "config": {"gamma_regularizer": null, "trainable": true, "moving_variance_initializer": {"config": {}, "class_name": "Ones"}, "name": "batch_normalization_83", "center": true, "beta_regularizer": null, "beta_constraint": null, "epsilon": 0.001, "gamma_constraint": null, "axis": -1, "momentum": 0.99, "beta_initializer": {"config": {}, "class_name": "Zeros"}, "gamma_initializer": {"config": {}, "class_name": "Ones"}, "scale": true, "moving_mean_initializer": {"config": {}, "class_name": "Zeros"}}, "class_name": "BatchNormalization"}, {"inbound_nodes": [[["hg_1_rf2_connect_left_resi_convBlock_conv_1x1_x3", 0, 0, {}]]], "name": "batch_normalization_86", "config": {"gamma_regularizer": null, "trainable": true, "moving_variance_initializer": {"config": {}, "class_name": "Ones"}, "name": "batch_normalization_86", "center": true, "beta_regularizer": null, "beta_constraint": null, "epsilon": 0.001, "gamma_constraint": null, "axis": -1, "momentum": 0.99, "beta_initializer": {"config": {}, "class_name": "Zeros"}, "gamma_initializer": {"config": {}, "class_name": "Ones"}, "scale": true, "moving_mean_initializer": {"config": {}, "class_name": "Zeros"}}, "class_name": "BatchNormalization"}, {"inbound_nodes": [[["batch_normalization_83", 0, 0, {}], ["add_33", 0, 0, {}]]], "name": "add_34", "config": {"trainable": true, "name": "add_34"}, "class_name": "Add"}, {"inbound_nodes": [[["batch_normalization_86", 0, 0, {}], ["add_24", 0, 0, {}]]], "name": "add_35", "config": {"trainable": true, "name": "add_35"}, "class_name": "Add"}, {"inbound_nodes": [[["add_34", 0, 0, {}]]], "name": "up_sampling2d_5", "config": {"data_format": "channels_last", "trainable": true, "size": [2, 2], "name": "up_sampling2d_5"}, "class_name": "UpSampling2D"}, {"inbound_nodes": [[["add_35", 0, 0, {}], ["up_sampling2d_5", 0, 0, {}]]], "name": "add_36", "config": {"trainable": true, "name": "add_36"}, "class_name": "Add"}, {"inbound_nodes": [[["add_36", 0, 0, {}]]], "name": "hg_1_rf2_connect_convBlock_conv_1x1_x1", "config": {"padding": "same", "use_bias": true, "trainable": true, "activity_regularizer": null, "kernel_initializer": {"config": {"mode": "fan_avg", "scale": 1.0, "distribution": "uniform", "seed": null}, "class_name": "VarianceScaling"}, "name": "hg_1_rf2_connect_convBlock_conv_1x1_x1", "strides": [1, 1], "filters": 64, "bias_initializer": {"config": {}, "class_name": "Zeros"}, "activation": "relu", "data_format": "channels_last", "kernel_size": [1, 1], "kernel_constraint": null, "dilation_rate": [1, 1], "bias_constraint": null, "kernel_regularizer": null, "bias_regularizer": null}, "class_name": "Conv2D"}, {"inbound_nodes": [[["add_23", 0, 0, {}]]], "name": "hg_1_rf1_connect_left_resi_convBlock_conv_1x1_x1", "config": {"padding": "same", "use_bias": true, "trainable": true, "activity_regularizer": null, "kernel_initializer": {"config": {"mode": "fan_avg", "scale": 1.0, "distribution": "uniform", "seed": null}, "class_name": "VarianceScaling"}, "name": "hg_1_rf1_connect_left_resi_convBlock_conv_1x1_x1", "strides": [1, 1], "filters": 64, "bias_initializer": {"config": {}, "class_name": "Zeros"}, "activation": "relu", "data_format": "channels_last", "kernel_size": [1, 1], "kernel_constraint": null, "dilation_rate": [1, 1], "bias_constraint": null, "kernel_regularizer": null, "bias_regularizer": null}, "class_name": "Conv2D"}, {"inbound_nodes": [[["hg_1_rf2_connect_convBlock_conv_1x1_x1", 0, 0, {}]]], "name": "batch_normalization_87", "config": {"gamma_regularizer": null, "trainable": true, "moving_variance_initializer": {"config": {}, "class_name": "Ones"}, "name": "batch_normalization_87", "center": true, "beta_regularizer": null, "beta_constraint": null, "epsilon": 0.001, "gamma_constraint": null, "axis": -1, "momentum": 0.99, "beta_initializer": {"config": {}, "class_name": "Zeros"}, "gamma_initializer": {"config": {}, "class_name": "Ones"}, "scale": true, "moving_mean_initializer": {"config": {}, "class_name": "Zeros"}}, "class_name": "BatchNormalization"}, {"inbound_nodes": [[["hg_1_rf1_connect_left_resi_convBlock_conv_1x1_x1", 0, 0, {}]]], "name": "batch_normalization_90", "config": {"gamma_regularizer": null, "trainable": true, "moving_variance_initializer": {"config": {}, "class_name": "Ones"}, "name": "batch_normalization_90", "center": true, "beta_regularizer": null, "beta_constraint": null, "epsilon": 0.001, "gamma_constraint": null, "axis": -1, "momentum": 0.99, "beta_initializer": {"config": {}, "class_name": "Zeros"}, "gamma_initializer": {"config": {}, "class_name": "Ones"}, "scale": true, "moving_mean_initializer": {"config": {}, "class_name": "Zeros"}}, "class_name": "BatchNormalization"}, {"inbound_nodes": [[["batch_normalization_87", 0, 0, {}]]], "name": "hg_1_rf2_connect_convBlock_conv_3x3_x2", "config": {"padding": "same", "use_bias": true, "trainable": true, "activity_regularizer": null, "kernel_initializer": {"config": {"mode": "fan_avg", "scale": 1.0, "distribution": "uniform", "seed": null}, "class_name": "VarianceScaling"}, "name": "hg_1_rf2_connect_convBlock_conv_3x3_x2", "strides": [1, 1], "filters": 64, "bias_initializer": {"config": {}, "class_name": "Zeros"}, "activation": "relu", "data_format": "channels_last", "kernel_size": [3, 3], "kernel_constraint": null, "dilation_rate": [1, 1], "bias_constraint": null, "kernel_regularizer": null, "bias_regularizer": null}, "class_name": "Conv2D"}, {"inbound_nodes": [[["batch_normalization_90", 0, 0, {}]]], "name": "hg_1_rf1_connect_left_resi_convBlock_conv_3x3_x2", "config": {"padding": "same", "use_bias": true, "trainable": true, "activity_regularizer": null, "kernel_initializer": {"config": {"mode": "fan_avg", "scale": 1.0, "distribution": "uniform", "seed": null}, "class_name": "VarianceScaling"}, "name": "hg_1_rf1_connect_left_resi_convBlock_conv_3x3_x2", "strides": [1, 1], "filters": 64, "bias_initializer": {"config": {}, "class_name": "Zeros"}, "activation": "relu", "data_format": "channels_last", "kernel_size": [3, 3], "kernel_constraint": null, "dilation_rate": [1, 1], "bias_constraint": null, "kernel_regularizer": null, "bias_regularizer": null}, "class_name": "Conv2D"}, {"inbound_nodes": [[["hg_1_rf2_connect_convBlock_conv_3x3_x2", 0, 0, {}]]], "name": "batch_normalization_88", "config": {"gamma_regularizer": null, "trainable": true, "moving_variance_initializer": {"config": {}, "class_name": "Ones"}, "name": "batch_normalization_88", "center": true, "beta_regularizer": null, "beta_constraint": null, "epsilon": 0.001, "gamma_constraint": null, "axis": -1, "momentum": 0.99, "beta_initializer": {"config": {}, "class_name": "Zeros"}, "gamma_initializer": {"config": {}, "class_name": "Ones"}, "scale": true, "moving_mean_initializer": {"config": {}, "class_name": "Zeros"}}, "class_name": "BatchNormalization"}, {"inbound_nodes": [[["hg_1_rf1_connect_left_resi_convBlock_conv_3x3_x2", 0, 0, {}]]], "name": "batch_normalization_91", "config": {"gamma_regularizer": null, "trainable": true, "moving_variance_initializer": {"config": {}, "class_name": "Ones"}, "name": "batch_normalization_91", "center": true, "beta_regularizer": null, "beta_constraint": null, "epsilon": 0.001, "gamma_constraint": null, "axis": -1, "momentum": 0.99, "beta_initializer": {"config": {}, "class_name": "Zeros"}, "gamma_initializer": {"config": {}, "class_name": "Ones"}, "scale": true, "moving_mean_initializer": {"config": {}, "class_name": "Zeros"}}, "class_name": "BatchNormalization"}, {"inbound_nodes": [[["batch_normalization_88", 0, 0, {}]]], "name": "hg_1_rf2_connect_convBlock_conv_1x1_x3", "config": {"padding": "same", "use_bias": true, "trainable": true, "activity_regularizer": null, "kernel_initializer": {"config": {"mode": "fan_avg", "scale": 1.0, "distribution": "uniform", "seed": null}, "class_name": "VarianceScaling"}, "name": "hg_1_rf2_connect_convBlock_conv_1x1_x3", "strides": [1, 1], "filters": 128, "bias_initializer": {"config": {}, "class_name": "Zeros"}, "activation": "relu", "data_format": "channels_last", "kernel_size": [1, 1], "kernel_constraint": null, "dilation_rate": [1, 1], "bias_constraint": null, "kernel_regularizer": null, "bias_regularizer": null}, "class_name": "Conv2D"}, {"inbound_nodes": [[["batch_normalization_91", 0, 0, {}]]], "name": "hg_1_rf1_connect_left_resi_convBlock_conv_1x1_x3", "config": {"padding": "same", "use_bias": true, "trainable": true, "activity_regularizer": null, "kernel_initializer": {"config": {"mode": "fan_avg", "scale": 1.0, "distribution": "uniform", "seed": null}, "class_name": "VarianceScaling"}, "name": "hg_1_rf1_connect_left_resi_convBlock_conv_1x1_x3", "strides": [1, 1], "filters": 128, "bias_initializer": {"config": {}, "class_name": "Zeros"}, "activation": "relu", "data_format": "channels_last", "kernel_size": [1, 1], "kernel_constraint": null, "dilation_rate": [1, 1], "bias_constraint": null, "kernel_regularizer": null, "bias_regularizer": null}, "class_name": "Conv2D"}, {"inbound_nodes": [[["hg_1_rf2_connect_convBlock_conv_1x1_x3", 0, 0, {}]]], "name": "batch_normalization_89", "config": {"gamma_regularizer": null, "trainable": true, "moving_variance_initializer": {"config": {}, "class_name": "Ones"}, "name": "batch_normalization_89", "center": true, "beta_regularizer": null, "beta_constraint": null, "epsilon": 0.001, "gamma_constraint": null, "axis": -1, "momentum": 0.99, "beta_initializer": {"config": {}, "class_name": "Zeros"}, "gamma_initializer": {"config": {}, "class_name": "Ones"}, "scale": true, "moving_mean_initializer": {"config": {}, "class_name": "Zeros"}}, "class_name": "BatchNormalization"}, {"inbound_nodes": [[["hg_1_rf1_connect_left_resi_convBlock_conv_1x1_x3", 0, 0, {}]]], "name": "batch_normalization_92", "config": {"gamma_regularizer": null, "trainable": true, "moving_variance_initializer": {"config": {}, "class_name": "Ones"}, "name": "batch_normalization_92", "center": true, "beta_regularizer": null, "beta_constraint": null, "epsilon": 0.001, "gamma_constraint": null, "axis": -1, "momentum": 0.99, "beta_initializer": {"config": {}, "class_name": "Zeros"}, "gamma_initializer": {"config": {}, "class_name": "Ones"}, "scale": true, "moving_mean_initializer": {"config": {}, "class_name": "Zeros"}}, "class_name": "BatchNormalization"}, {"inbound_nodes": [[["batch_normalization_89", 0, 0, {}], ["add_36", 0, 0, {}]]], "name": "add_37", "config": {"trainable": true, "name": "add_37"}, "class_name": "Add"}, {"inbound_nodes": [[["batch_normalization_92", 0, 0, {}], ["add_23", 0, 0, {}]]], "name": "add_38", "config": {"trainable": true, "name": "add_38"}, "class_name": "Add"}, {"inbound_nodes": [[["add_37", 0, 0, {}]]], "name": "up_sampling2d_6", "config": {"data_format": "channels_last", "trainable": true, "size": [2, 2], "name": "up_sampling2d_6"}, "class_name": "UpSampling2D"}, {"inbound_nodes": [[["add_38", 0, 0, {}], ["up_sampling2d_6", 0, 0, {}]]], "name": "add_39", "config": {"trainable": true, "name": "add_39"}, "class_name": "Add"}, {"inbound_nodes": [[["add_39", 0, 0, {}]]], "name": "hg_1_rf1_connect_convBlock_conv_1x1_x1", "config": {"padding": "same", "use_bias": true, "trainable": true, "activity_regularizer": null, "kernel_initializer": {"config": {"mode": "fan_avg", "scale": 1.0, "distribution": "uniform", "seed": null}, "class_name": "VarianceScaling"}, "name": "hg_1_rf1_connect_convBlock_conv_1x1_x1", "strides": [1, 1], "filters": 64, "bias_initializer": {"config": {}, "class_name": "Zeros"}, "activation": "relu", "data_format": "channels_last", "kernel_size": [1, 1], "kernel_constraint": null, "dilation_rate": [1, 1], "bias_constraint": null, "kernel_regularizer": null, "bias_regularizer": null}, "class_name": "Conv2D"}, {"inbound_nodes": [[["hg_1_rf1_connect_convBlock_conv_1x1_x1", 0, 0, {}]]], "name": "batch_normalization_93", "config": {"gamma_regularizer": null, "trainable": true, "moving_variance_initializer": {"config": {}, "class_name": "Ones"}, "name": "batch_normalization_93", "center": true, "beta_regularizer": null, "beta_constraint": null, "epsilon": 0.001, "gamma_constraint": null, "axis": -1, "momentum": 0.99, "beta_initializer": {"config": {}, "class_name": "Zeros"}, "gamma_initializer": {"config": {}, "class_name": "Ones"}, "scale": true, "moving_mean_initializer": {"config": {}, "class_name": "Zeros"}}, "class_name": "BatchNormalization"}, {"inbound_nodes": [[["batch_normalization_93", 0, 0, {}]]], "name": "hg_1_rf1_connect_convBlock_conv_3x3_x2", "config": {"padding": "same", "use_bias": true, "trainable": true, "activity_regularizer": null, "kernel_initializer": {"config": {"mode": "fan_avg", "scale": 1.0, "distribution": "uniform", "seed": null}, "class_name": "VarianceScaling"}, "name": "hg_1_rf1_connect_convBlock_conv_3x3_x2", "strides": [1, 1], "filters": 64, "bias_initializer": {"config": {}, "class_name": "Zeros"}, "activation": "relu", "data_format": "channels_last", "kernel_size": [3, 3], "kernel_constraint": null, "dilation_rate": [1, 1], "bias_constraint": null, "kernel_regularizer": null, "bias_regularizer": null}, "class_name": "Conv2D"}, {"inbound_nodes": [[["hg_1_rf1_connect_convBlock_conv_3x3_x2", 0, 0, {}]]], "name": "batch_normalization_94", "config": {"gamma_regularizer": null, "trainable": true, "moving_variance_initializer": {"config": {}, "class_name": "Ones"}, "name": "batch_normalization_94", "center": true, "beta_regularizer": null, "beta_constraint": null, "epsilon": 0.001, "gamma_constraint": null, "axis": -1, "momentum": 0.99, "beta_initializer": {"config": {}, "class_name": "Zeros"}, "gamma_initializer": {"config": {}, "class_name": "Ones"}, "scale": true, "moving_mean_initializer": {"config": {}, "class_name": "Zeros"}}, "class_name": "BatchNormalization"}, {"inbound_nodes": [[["batch_normalization_94", 0, 0, {}]]], "name": "hg_1_rf1_connect_convBlock_conv_1x1_x3", "config": {"padding": "same", "use_bias": true, "trainable": true, "activity_regularizer": null, "kernel_initializer": {"config": {"mode": "fan_avg", "scale": 1.0, "distribution": "uniform", "seed": null}, "class_name": "VarianceScaling"}, "name": "hg_1_rf1_connect_convBlock_conv_1x1_x3", "strides": [1, 1], "filters": 128, "bias_initializer": {"config": {}, "class_name": "Zeros"}, "activation": "relu", "data_format": "channels_last", "kernel_size": [1, 1], "kernel_constraint": null, "dilation_rate": [1, 1], "bias_constraint": null, "kernel_regularizer": null, "bias_regularizer": null}, "class_name": "Conv2D"}, {"inbound_nodes": [[["hg_1_rf1_connect_convBlock_conv_1x1_x3", 0, 0, {}]]], "name": "batch_normalization_95", "config": {"gamma_regularizer": null, "trainable": true, "moving_variance_initializer": {"config": {}, "class_name": "Ones"}, "name": "batch_normalization_95", "center": true, "beta_regularizer": null, "beta_constraint": null, "epsilon": 0.001, "gamma_constraint": null, "axis": -1, "momentum": 0.99, "beta_initializer": {"config": {}, "class_name": "Zeros"}, "gamma_initializer": {"config": {}, "class_name": "Ones"}, "scale": true, "moving_mean_initializer": {"config": {}, "class_name": "Zeros"}}, "class_name": "BatchNormalization"}, {"inbound_nodes": [[["batch_normalization_95", 0, 0, {}], ["add_39", 0, 0, {}]]], "name": "add_40", "config": {"trainable": true, "name": "add_40"}, "class_name": "Add"}, {"inbound_nodes": [[["add_40", 0, 0, {}]]], "name": "head_1_conv_1x1_x1", "config": {"padding": "same", "use_bias": true, "trainable": true, "activity_regularizer": null, "kernel_initializer": {"config": {"mode": "fan_avg", "scale": 1.0, "distribution": "uniform", "seed": null}, "class_name": "VarianceScaling"}, "name": "head_1_conv_1x1_x1", "strides": [1, 1], "filters": 128, "bias_initializer": {"config": {}, "class_name": "Zeros"}, "activation": "relu", "data_format": "channels_last", "kernel_size": [1, 1], "kernel_constraint": null, "dilation_rate": [1, 1], "bias_constraint": null, "kernel_regularizer": null, "bias_regularizer": null}, "class_name": "Conv2D"}, {"inbound_nodes": [[["head_1_conv_1x1_x1", 0, 0, {}]]], "name": "batch_normalization_96", "config": {"gamma_regularizer": null, "trainable": true, "moving_variance_initializer": {"config": {}, "class_name": "Ones"}, "name": "batch_normalization_96", "center": true, "beta_regularizer": null, "beta_constraint": null, "epsilon": 0.001, "gamma_constraint": null, "axis": -1, "momentum": 0.99, "beta_initializer": {"config": {}, "class_name": "Zeros"}, "gamma_initializer": {"config": {}, "class_name": "Ones"}, "scale": true, "moving_mean_initializer": {"config": {}, "class_name": "Zeros"}}, "class_name": "BatchNormalization"}, {"inbound_nodes": [[["batch_normalization_96", 0, 0, {}]]], "name": "head_1_conv_1x1_parts", "config": {"padding": "same", "use_bias": true, "trainable": true, "activity_regularizer": null, "kernel_initializer": {"config": {"mode": "fan_avg", "scale": 1.0, "distribution": "uniform", "seed": null}, "class_name": "VarianceScaling"}, "name": "head_1_conv_1x1_parts", "strides": [1, 1], "filters": 16, "bias_initializer": {"config": {}, "class_name": "Zeros"}, "activation": "linear", "data_format": "channels_last", "kernel_size": [1, 1], "kernel_constraint": null, "dilation_rate": [1, 1], "bias_constraint": null, "kernel_regularizer": null, "bias_regularizer": null}, "class_name": "Conv2D"}], "name": "model_1", "output_layers": [["head_0_conv_1x1_parts", 0, 0], ["head_1_conv_1x1_parts", 0, 0]], "input_layers": [["input_1", 0, 0]]}, "class_name": "Model"}, "training_config": {"optimizer_config": {"config": {"rho": 0.8999999761581421, "decay": 0.0, "lr": 0.0005000000237487257, "epsilon": 1e-07}, "class_name": "RMSprop"}, "loss": "mean_squared_error", "loss_weights": null, "sample_weight_mode": null, "metrics": ["accuracy"]}}, "weightsManifest": [{"paths": ["group1-shard1of2", "group1-shard2of2"], "weights": [{"name": "batch_normalization_1/gamma", "shape": [64], "dtype": "float32"}, {"name": "batch_normalization_1/beta", "shape": [64], "dtype": "float32"}, {"name": "batch_normalization_1/moving_mean", "shape": [64], "dtype": "float32"}, {"name": "batch_normalization_1/moving_variance", "shape": [64], "dtype": "float32"}, {"name": "batch_normalization_10/gamma", "shape": [128], "dtype": "float32"}, {"name": "batch_normalization_10/beta", "shape": [128], "dtype": "float32"}, {"name": "batch_normalization_10/moving_mean", "shape": [128], "dtype": "float32"}, {"name": "batch_normalization_10/moving_variance", "shape": [128], "dtype": "float32"}, {"name": "batch_normalization_11/gamma", "shape": [64], "dtype": "float32"}, {"name": "batch_normalization_11/beta", "shape": [64], "dtype": "float32"}, {"name": "batch_normalization_11/moving_mean", "shape": [64], "dtype": "float32"}, {"name": "batch_normalization_11/moving_variance", "shape": [64], "dtype": "float32"}, {"name": "batch_normalization_12/gamma", "shape": [64], "dtype": "float32"}, {"name": "batch_normalization_12/beta", "shape": [64], "dtype": "float32"}, {"name": "batch_normalization_12/moving_mean", "shape": [64], "dtype": "float32"}, {"name": "batch_normalization_12/moving_variance", "shape": [64], "dtype": "float32"}, {"name": "batch_normalization_13/gamma", "shape": [128], "dtype": "float32"}, {"name": "batch_normalization_13/beta", "shape": [128], "dtype": "float32"}, {"name": "batch_normalization_13/moving_mean", "shape": [128], "dtype": "float32"}, {"name": "batch_normalization_13/moving_variance", "shape": [128], "dtype": "float32"}, {"name": "batch_normalization_14/gamma", "shape": [64], "dtype": "float32"}, {"name": "batch_normalization_14/beta", "shape": [64], "dtype": "float32"}, {"name": "batch_normalization_14/moving_mean", "shape": [64], "dtype": "float32"}, {"name": "batch_normalization_14/moving_variance", "shape": [64], "dtype": "float32"}, {"name": "batch_normalization_15/gamma", "shape": [64], "dtype": "float32"}, {"name": "batch_normalization_15/beta", "shape": [64], "dtype": "float32"}, {"name": "batch_normalization_15/moving_mean", "shape": [64], "dtype": "float32"}, {"name": "batch_normalization_15/moving_variance", "shape": [64], "dtype": "float32"}, {"name": "batch_normalization_16/gamma", "shape": [128], "dtype": "float32"}, {"name": "batch_normalization_16/beta", "shape": [128], "dtype": "float32"}, {"name": "batch_normalization_16/moving_mean", "shape": [128], "dtype": "float32"}, {"name": "batch_normalization_16/moving_variance", "shape": [128], "dtype": "float32"}, {"name": "batch_normalization_17/gamma", "shape": [64], "dtype": "float32"}, {"name": "batch_normalization_17/beta", "shape": [64], "dtype": "float32"}, {"name": "batch_normalization_17/moving_mean", "shape": [64], "dtype": "float32"}, {"name": "batch_normalization_17/moving_variance", "shape": [64], "dtype": "float32"}, {"name": "batch_normalization_18/gamma", "shape": [64], "dtype": "float32"}, {"name": "batch_normalization_18/beta", "shape": [64], "dtype": "float32"}, {"name": "batch_normalization_18/moving_mean", "shape": [64], "dtype": "float32"}, {"name": "batch_normalization_18/moving_variance", "shape": [64], "dtype": "float32"}, {"name": "batch_normalization_19/gamma", "shape": [128], "dtype": "float32"}, {"name": "batch_normalization_19/beta", "shape": [128], "dtype": "float32"}, {"name": "batch_normalization_19/moving_mean", "shape": [128], "dtype": "float32"}, {"name": "batch_normalization_19/moving_variance", "shape": [128], "dtype": "float32"}, {"name": "batch_normalization_2/gamma", "shape": [32], "dtype": "float32"}, {"name": "batch_normalization_2/beta", "shape": [32], "dtype": "float32"}, {"name": "batch_normalization_2/moving_mean", "shape": [32], "dtype": "float32"}, {"name": "batch_normalization_2/moving_variance", "shape": [32], "dtype": "float32"}, {"name": "batch_normalization_20/gamma", "shape": [64], "dtype": "float32"}, {"name": "batch_normalization_20/beta", "shape": [64], "dtype": "float32"}, {"name": "batch_normalization_20/moving_mean", "shape": [64], "dtype": "float32"}, {"name": "batch_normalization_20/moving_variance", "shape": [64], "dtype": "float32"}, {"name": "batch_normalization_21/gamma", "shape": [64], "dtype": "float32"}, {"name": "batch_normalization_21/beta", "shape": [64], "dtype": "float32"}, {"name": "batch_normalization_21/moving_mean", "shape": [64], "dtype": "float32"}, {"name": "batch_normalization_21/moving_variance", "shape": [64], "dtype": "float32"}, {"name": "batch_normalization_22/gamma", "shape": [128], "dtype": "float32"}, {"name": "batch_normalization_22/beta", "shape": [128], "dtype": "float32"}, {"name": "batch_normalization_22/moving_mean", "shape": [128], "dtype": "float32"}, {"name": "batch_normalization_22/moving_variance", "shape": [128], "dtype": "float32"}, {"name": "batch_normalization_23/gamma", "shape": [64], "dtype": "float32"}, {"name": "batch_normalization_23/beta", "shape": [64], "dtype": "float32"}, {"name": "batch_normalization_23/moving_mean", "shape": [64], "dtype": "float32"}, {"name": "batch_normalization_23/moving_variance", "shape": [64], "dtype": "float32"}, {"name": "batch_normalization_24/gamma", "shape": [64], "dtype": "float32"}, {"name": "batch_normalization_24/beta", "shape": [64], "dtype": "float32"}, {"name": "batch_normalization_24/moving_mean", "shape": [64], "dtype": "float32"}, {"name": "batch_normalization_24/moving_variance", "shape": [64], "dtype": "float32"}, {"name": "batch_normalization_25/gamma", "shape": [128], "dtype": "float32"}, {"name": "batch_normalization_25/beta", "shape": [128], "dtype": "float32"}, {"name": "batch_normalization_25/moving_mean", "shape": [128], "dtype": "float32"}, {"name": "batch_normalization_25/moving_variance", "shape": [128], "dtype": "float32"}, {"name": "batch_normalization_26/gamma", "shape": [64], "dtype": "float32"}, {"name": "batch_normalization_26/beta", "shape": [64], "dtype": "float32"}, {"name": "batch_normalization_26/moving_mean", "shape": [64], "dtype": "float32"}, {"name": "batch_normalization_26/moving_variance", "shape": [64], "dtype": "float32"}, {"name": "batch_normalization_27/gamma", "shape": [64], "dtype": "float32"}, {"name": "batch_normalization_27/beta", "shape": [64], "dtype": "float32"}, {"name": "batch_normalization_27/moving_mean", "shape": [64], "dtype": "float32"}, {"name": "batch_normalization_27/moving_variance", "shape": [64], "dtype": "float32"}, {"name": "batch_normalization_28/gamma", "shape": [128], "dtype": "float32"}, {"name": "batch_normalization_28/beta", "shape": [128], "dtype": "float32"}, {"name": "batch_normalization_28/moving_mean", "shape": [128], "dtype": "float32"}, {"name": "batch_normalization_28/moving_variance", "shape": [128], "dtype": "float32"}, {"name": "batch_normalization_29/gamma", "shape": [64], "dtype": "float32"}, {"name": "batch_normalization_29/beta", "shape": [64], "dtype": "float32"}, {"name": "batch_normalization_29/moving_mean", "shape": [64], "dtype": "float32"}, {"name": "batch_normalization_29/moving_variance", "shape": [64], "dtype": "float32"}, {"name": "batch_normalization_3/gamma", "shape": [32], "dtype": "float32"}, {"name": "batch_normalization_3/beta", "shape": [32], "dtype": "float32"}, {"name": "batch_normalization_3/moving_mean", "shape": [32], "dtype": "float32"}, {"name": "batch_normalization_3/moving_variance", "shape": [32], "dtype": "float32"}, {"name": "batch_normalization_30/gamma", "shape": [64], "dtype": "float32"}, {"name": "batch_normalization_30/beta", "shape": [64], "dtype": "float32"}, {"name": "batch_normalization_30/moving_mean", "shape": [64], "dtype": "float32"}, {"name": "batch_normalization_30/moving_variance", "shape": [64], "dtype": "float32"}, {"name": "batch_normalization_31/gamma", "shape": [128], "dtype": "float32"}, {"name": "batch_normalization_31/beta", "shape": [128], "dtype": "float32"}, {"name": "batch_normalization_31/moving_mean", "shape": [128], "dtype": "float32"}, {"name": "batch_normalization_31/moving_variance", "shape": [128], "dtype": "float32"}, {"name": "batch_normalization_32/gamma", "shape": [64], "dtype": "float32"}, {"name": "batch_normalization_32/beta", "shape": [64], "dtype": "float32"}, {"name": "batch_normalization_32/moving_mean", "shape": [64], "dtype": "float32"}, {"name": "batch_normalization_32/moving_variance", "shape": [64], "dtype": "float32"}, {"name": "batch_normalization_33/gamma", "shape": [64], "dtype": "float32"}, {"name": "batch_normalization_33/beta", "shape": [64], "dtype": "float32"}, {"name": "batch_normalization_33/moving_mean", "shape": [64], "dtype": "float32"}, {"name": "batch_normalization_33/moving_variance", "shape": [64], "dtype": "float32"}, {"name": "batch_normalization_34/gamma", "shape": [128], "dtype": "float32"}, {"name": "batch_normalization_34/beta", "shape": [128], "dtype": "float32"}, {"name": "batch_normalization_34/moving_mean", "shape": [128], "dtype": "float32"}, {"name": "batch_normalization_34/moving_variance", "shape": [128], "dtype": "float32"}, {"name": "batch_normalization_35/gamma", "shape": [64], "dtype": "float32"}, {"name": "batch_normalization_35/beta", "shape": [64], "dtype": "float32"}, {"name": "batch_normalization_35/moving_mean", "shape": [64], "dtype": "float32"}, {"name": "batch_normalization_35/moving_variance", "shape": [64], "dtype": "float32"}, {"name": "batch_normalization_36/gamma", "shape": [64], "dtype": "float32"}, {"name": "batch_normalization_36/beta", "shape": [64], "dtype": "float32"}, {"name": "batch_normalization_36/moving_mean", "shape": [64], "dtype": "float32"}, {"name": "batch_normalization_36/moving_variance", "shape": [64], "dtype": "float32"}, {"name": "batch_normalization_37/gamma", "shape": [128], "dtype": "float32"}, {"name": "batch_normalization_37/beta", "shape": [128], "dtype": "float32"}, {"name": "batch_normalization_37/moving_mean", "shape": [128], "dtype": "float32"}, {"name": "batch_normalization_37/moving_variance", "shape": [128], "dtype": "float32"}, {"name": "batch_normalization_38/gamma", "shape": [64], "dtype": "float32"}, {"name": "batch_normalization_38/beta", "shape": [64], "dtype": "float32"}, {"name": "batch_normalization_38/moving_mean", "shape": [64], "dtype": "float32"}, {"name": "batch_normalization_38/moving_variance", "shape": [64], "dtype": "float32"}, {"name": "batch_normalization_39/gamma", "shape": [64], "dtype": "float32"}, {"name": "batch_normalization_39/beta", "shape": [64], "dtype": "float32"}, {"name": "batch_normalization_39/moving_mean", "shape": [64], "dtype": "float32"}, {"name": "batch_normalization_39/moving_variance", "shape": [64], "dtype": "float32"}, {"name": "batch_normalization_4/gamma", "shape": [64], "dtype": "float32"}, {"name": "batch_normalization_4/beta", "shape": [64], "dtype": "float32"}, {"name": "batch_normalization_4/moving_mean", "shape": [64], "dtype": "float32"}, {"name": "batch_normalization_4/moving_variance", "shape": [64], "dtype": "float32"}, {"name": "batch_normalization_40/gamma", "shape": [128], "dtype": "float32"}, {"name": "batch_normalization_40/beta", "shape": [128], "dtype": "float32"}, {"name": "batch_normalization_40/moving_mean", "shape": [128], "dtype": "float32"}, {"name": "batch_normalization_40/moving_variance", "shape": [128], "dtype": "float32"}, {"name": "batch_normalization_41/gamma", "shape": [64], "dtype": "float32"}, {"name": "batch_normalization_41/beta", "shape": [64], "dtype": "float32"}, {"name": "batch_normalization_41/moving_mean", "shape": [64], "dtype": "float32"}, {"name": "batch_normalization_41/moving_variance", "shape": [64], "dtype": "float32"}, {"name": "batch_normalization_42/gamma", "shape": [64], "dtype": "float32"}, {"name": "batch_normalization_42/beta", "shape": [64], "dtype": "float32"}, {"name": "batch_normalization_42/moving_mean", "shape": [64], "dtype": "float32"}, {"name": "batch_normalization_42/moving_variance", "shape": [64], "dtype": "float32"}, {"name": "batch_normalization_43/gamma", "shape": [128], "dtype": "float32"}, {"name": "batch_normalization_43/beta", "shape": [128], "dtype": "float32"}, {"name": "batch_normalization_43/moving_mean", "shape": [128], "dtype": "float32"}, {"name": "batch_normalization_43/moving_variance", "shape": [128], "dtype": "float32"}, {"name": "batch_normalization_44/gamma", "shape": [64], "dtype": "float32"}, {"name": "batch_normalization_44/beta", "shape": [64], "dtype": "float32"}, {"name": "batch_normalization_44/moving_mean", "shape": [64], "dtype": "float32"}, {"name": "batch_normalization_44/moving_variance", "shape": [64], "dtype": "float32"}, {"name": "batch_normalization_45/gamma", "shape": [64], "dtype": "float32"}, {"name": "batch_normalization_45/beta", "shape": [64], "dtype": "float32"}, {"name": "batch_normalization_45/moving_mean", "shape": [64], "dtype": "float32"}, {"name": "batch_normalization_45/moving_variance", "shape": [64], "dtype": "float32"}, {"name": "batch_normalization_46/gamma", "shape": [128], "dtype": "float32"}, {"name": "batch_normalization_46/beta", "shape": [128], "dtype": "float32"}, {"name": "batch_normalization_46/moving_mean", "shape": [128], "dtype": "float32"}, {"name": "batch_normalization_46/moving_variance", "shape": [128], "dtype": "float32"}, {"name": "batch_normalization_47/gamma", "shape": [64], "dtype": "float32"}, {"name": "batch_normalization_47/beta", "shape": [64], "dtype": "float32"}, {"name": "batch_normalization_47/moving_mean", "shape": [64], "dtype": "float32"}, {"name": "batch_normalization_47/moving_variance", "shape": [64], "dtype": "float32"}, {"name": "batch_normalization_48/gamma", "shape": [64], "dtype": "float32"}, {"name": "batch_normalization_48/beta", "shape": [64], "dtype": "float32"}, {"name": "batch_normalization_48/moving_mean", "shape": [64], "dtype": "float32"}, {"name": "batch_normalization_48/moving_variance", "shape": [64], "dtype": "float32"}, {"name": "batch_normalization_49/gamma", "shape": [128], "dtype": "float32"}, {"name": "batch_normalization_49/beta", "shape": [128], "dtype": "float32"}, {"name": "batch_normalization_49/moving_mean", "shape": [128], "dtype": "float32"}, {"name": "batch_normalization_49/moving_variance", "shape": [128], "dtype": "float32"}, {"name": "batch_normalization_5/gamma", "shape": [32], "dtype": "float32"}, {"name": "batch_normalization_5/beta", "shape": [32], "dtype": "float32"}, {"name": "batch_normalization_5/moving_mean", "shape": [32], "dtype": "float32"}, {"name": "batch_normalization_5/moving_variance", "shape": [32], "dtype": "float32"}, {"name": "batch_normalization_50/gamma", "shape": [64], "dtype": "float32"}, {"name": "batch_normalization_50/beta", "shape": [64], "dtype": "float32"}, {"name": "batch_normalization_50/moving_mean", "shape": [64], "dtype": "float32"}, {"name": "batch_normalization_50/moving_variance", "shape": [64], "dtype": "float32"}, {"name": "batch_normalization_51/gamma", "shape": [64], "dtype": "float32"}, {"name": "batch_normalization_51/beta", "shape": [64], "dtype": "float32"}, {"name": "batch_normalization_51/moving_mean", "shape": [64], "dtype": "float32"}, {"name": "batch_normalization_51/moving_variance", "shape": [64], "dtype": "float32"}, {"name": "batch_normalization_52/gamma", "shape": [128], "dtype": "float32"}, {"name": "batch_normalization_52/beta", "shape": [128], "dtype": "float32"}, {"name": "batch_normalization_52/moving_mean", "shape": [128], "dtype": "float32"}, {"name": "batch_normalization_52/moving_variance", "shape": [128], "dtype": "float32"}, {"name": "batch_normalization_53/gamma", "shape": [128], "dtype": "float32"}, {"name": "batch_normalization_53/beta", "shape": [128], "dtype": "float32"}, {"name": "batch_normalization_53/moving_mean", "shape": [128], "dtype": "float32"}, {"name": "batch_normalization_53/moving_variance", "shape": [128], "dtype": "float32"}, {"name": "batch_normalization_54/gamma", "shape": [64], "dtype": "float32"}, {"name": "batch_normalization_54/beta", "shape": [64], "dtype": "float32"}, {"name": "batch_normalization_54/moving_mean", "shape": [64], "dtype": "float32"}, {"name": "batch_normalization_54/moving_variance", "shape": [64], "dtype": "float32"}, {"name": "batch_normalization_55/gamma", "shape": [64], "dtype": "float32"}, {"name": "batch_normalization_55/beta", "shape": [64], "dtype": "float32"}, {"name": "batch_normalization_55/moving_mean", "shape": [64], "dtype": "float32"}, {"name": "batch_normalization_55/moving_variance", "shape": [64], "dtype": "float32"}, {"name": "batch_normalization_56/gamma", "shape": [128], "dtype": "float32"}, {"name": "batch_normalization_56/beta", "shape": [128], "dtype": "float32"}, {"name": "batch_normalization_56/moving_mean", "shape": [128], "dtype": "float32"}, {"name": "batch_normalization_56/moving_variance", "shape": [128], "dtype": "float32"}, {"name": "batch_normalization_57/gamma", "shape": [64], "dtype": "float32"}, {"name": "batch_normalization_57/beta", "shape": [64], "dtype": "float32"}, {"name": "batch_normalization_57/moving_mean", "shape": [64], "dtype": "float32"}, {"name": "batch_normalization_57/moving_variance", "shape": [64], "dtype": "float32"}, {"name": "batch_normalization_58/gamma", "shape": [64], "dtype": "float32"}, {"name": "batch_normalization_58/beta", "shape": [64], "dtype": "float32"}, {"name": "batch_normalization_58/moving_mean", "shape": [64], "dtype": "float32"}, {"name": "batch_normalization_58/moving_variance", "shape": [64], "dtype": "float32"}, {"name": "batch_normalization_59/gamma", "shape": [128], "dtype": "float32"}, {"name": "batch_normalization_59/beta", "shape": [128], "dtype": "float32"}, {"name": "batch_normalization_59/moving_mean", "shape": [128], "dtype": "float32"}, {"name": "batch_normalization_59/moving_variance", "shape": [128], "dtype": "float32"}, {"name": "batch_normalization_6/gamma", "shape": [32], "dtype": "float32"}, {"name": "batch_normalization_6/beta", "shape": [32], "dtype": "float32"}, {"name": "batch_normalization_6/moving_mean", "shape": [32], "dtype": "float32"}, {"name": "batch_normalization_6/moving_variance", "shape": [32], "dtype": "float32"}, {"name": "batch_normalization_60/gamma", "shape": [64], "dtype": "float32"}, {"name": "batch_normalization_60/beta", "shape": [64], "dtype": "float32"}, {"name": "batch_normalization_60/moving_mean", "shape": [64], "dtype": "float32"}, {"name": "batch_normalization_60/moving_variance", "shape": [64], "dtype": "float32"}, {"name": "batch_normalization_61/gamma", "shape": [64], "dtype": "float32"}, {"name": "batch_normalization_61/beta", "shape": [64], "dtype": "float32"}, {"name": "batch_normalization_61/moving_mean", "shape": [64], "dtype": "float32"}, {"name": "batch_normalization_61/moving_variance", "shape": [64], "dtype": "float32"}, {"name": "batch_normalization_62/gamma", "shape": [128], "dtype": "float32"}, {"name": "batch_normalization_62/beta", "shape": [128], "dtype": "float32"}, {"name": "batch_normalization_62/moving_mean", "shape": [128], "dtype": "float32"}, {"name": "batch_normalization_62/moving_variance", "shape": [128], "dtype": "float32"}, {"name": "batch_normalization_63/gamma", "shape": [64], "dtype": "float32"}, {"name": "batch_normalization_63/beta", "shape": [64], "dtype": "float32"}, {"name": "batch_normalization_63/moving_mean", "shape": [64], "dtype": "float32"}, {"name": "batch_normalization_63/moving_variance", "shape": [64], "dtype": "float32"}, {"name": "batch_normalization_64/gamma", "shape": [64], "dtype": "float32"}, {"name": "batch_normalization_64/beta", "shape": [64], "dtype": "float32"}, {"name": "batch_normalization_64/moving_mean", "shape": [64], "dtype": "float32"}, {"name": "batch_normalization_64/moving_variance", "shape": [64], "dtype": "float32"}, {"name": "batch_normalization_65/gamma", "shape": [128], "dtype": "float32"}, {"name": "batch_normalization_65/beta", "shape": [128], "dtype": "float32"}, {"name": "batch_normalization_65/moving_mean", "shape": [128], "dtype": "float32"}, {"name": "batch_normalization_65/moving_variance", "shape": [128], "dtype": "float32"}, {"name": "batch_normalization_66/gamma", "shape": [64], "dtype": "float32"}, {"name": "batch_normalization_66/beta", "shape": [64], "dtype": "float32"}, {"name": "batch_normalization_66/moving_mean", "shape": [64], "dtype": "float32"}, {"name": "batch_normalization_66/moving_variance", "shape": [64], "dtype": "float32"}, {"name": "batch_normalization_67/gamma", "shape": [64], "dtype": "float32"}, {"name": "batch_normalization_67/beta", "shape": [64], "dtype": "float32"}, {"name": "batch_normalization_67/moving_mean", "shape": [64], "dtype": "float32"}, {"name": "batch_normalization_67/moving_variance", "shape": [64], "dtype": "float32"}, {"name": "batch_normalization_68/gamma", "shape": [128], "dtype": "float32"}, {"name": "batch_normalization_68/beta", "shape": [128], "dtype": "float32"}, {"name": "batch_normalization_68/moving_mean", "shape": [128], "dtype": "float32"}, {"name": "batch_normalization_68/moving_variance", "shape": [128], "dtype": "float32"}, {"name": "batch_normalization_69/gamma", "shape": [64], "dtype": "float32"}, {"name": "batch_normalization_69/beta", "shape": [64], "dtype": "float32"}, {"name": "batch_normalization_69/moving_mean", "shape": [64], "dtype": "float32"}, {"name": "batch_normalization_69/moving_variance", "shape": [64], "dtype": "float32"}, {"name": "batch_normalization_7/gamma", "shape": [64], "dtype": "float32"}, {"name": "batch_normalization_7/beta", "shape": [64], "dtype": "float32"}, {"name": "batch_normalization_7/moving_mean", "shape": [64], "dtype": "float32"}, {"name": "batch_normalization_7/moving_variance", "shape": [64], "dtype": "float32"}, {"name": "batch_normalization_70/gamma", "shape": [64], "dtype": "float32"}, {"name": "batch_normalization_70/beta", "shape": [64], "dtype": "float32"}, {"name": "batch_normalization_70/moving_mean", "shape": [64], "dtype": "float32"}, {"name": "batch_normalization_70/moving_variance", "shape": [64], "dtype": "float32"}, {"name": "batch_normalization_71/gamma", "shape": [128], "dtype": "float32"}, {"name": "batch_normalization_71/beta", "shape": [128], "dtype": "float32"}, {"name": "batch_normalization_71/moving_mean", "shape": [128], "dtype": "float32"}, {"name": "batch_normalization_71/moving_variance", "shape": [128], "dtype": "float32"}, {"name": "batch_normalization_72/gamma", "shape": [64], "dtype": "float32"}, {"name": "batch_normalization_72/beta", "shape": [64], "dtype": "float32"}, {"name": "batch_normalization_72/moving_mean", "shape": [64], "dtype": "float32"}, {"name": "batch_normalization_72/moving_variance", "shape": [64], "dtype": "float32"}, {"name": "batch_normalization_73/gamma", "shape": [64], "dtype": "float32"}, {"name": "batch_normalization_73/beta", "shape": [64], "dtype": "float32"}, {"name": "batch_normalization_73/moving_mean", "shape": [64], "dtype": "float32"}, {"name": "batch_normalization_73/moving_variance", "shape": [64], "dtype": "float32"}, {"name": "batch_normalization_74/gamma", "shape": [128], "dtype": "float32"}, {"name": "batch_normalization_74/beta", "shape": [128], "dtype": "float32"}, {"name": "batch_normalization_74/moving_mean", "shape": [128], "dtype": "float32"}, {"name": "batch_normalization_74/moving_variance", "shape": [128], "dtype": "float32"}, {"name": "batch_normalization_75/gamma", "shape": [64], "dtype": "float32"}, {"name": "batch_normalization_75/beta", "shape": [64], "dtype": "float32"}, {"name": "batch_normalization_75/moving_mean", "shape": [64], "dtype": "float32"}, {"name": "batch_normalization_75/moving_variance", "shape": [64], "dtype": "float32"}, {"name": "batch_normalization_76/gamma", "shape": [64], "dtype": "float32"}, {"name": "batch_normalization_76/beta", "shape": [64], "dtype": "float32"}, {"name": "batch_normalization_76/moving_mean", "shape": [64], "dtype": "float32"}, {"name": "batch_normalization_76/moving_variance", "shape": [64], "dtype": "float32"}, {"name": "batch_normalization_77/gamma", "shape": [128], "dtype": "float32"}, {"name": "batch_normalization_77/beta", "shape": [128], "dtype": "float32"}, {"name": "batch_normalization_77/moving_mean", "shape": [128], "dtype": "float32"}, {"name": "batch_normalization_77/moving_variance", "shape": [128], "dtype": "float32"}, {"name": "batch_normalization_78/gamma", "shape": [64], "dtype": "float32"}, {"name": "batch_normalization_78/beta", "shape": [64], "dtype": "float32"}, {"name": "batch_normalization_78/moving_mean", "shape": [64], "dtype": "float32"}, {"name": "batch_normalization_78/moving_variance", "shape": [64], "dtype": "float32"}, {"name": "batch_normalization_79/gamma", "shape": [64], "dtype": "float32"}, {"name": "batch_normalization_79/beta", "shape": [64], "dtype": "float32"}, {"name": "batch_normalization_79/moving_mean", "shape": [64], "dtype": "float32"}, {"name": "batch_normalization_79/moving_variance", "shape": [64], "dtype": "float32"}, {"name": "batch_normalization_8/gamma", "shape": [64], "dtype": "float32"}, {"name": "batch_normalization_8/beta", "shape": [64], "dtype": "float32"}, {"name": "batch_normalization_8/moving_mean", "shape": [64], "dtype": "float32"}, {"name": "batch_normalization_8/moving_variance", "shape": [64], "dtype": "float32"}, {"name": "batch_normalization_80/gamma", "shape": [128], "dtype": "float32"}, {"name": "batch_normalization_80/beta", "shape": [128], "dtype": "float32"}, {"name": "batch_normalization_80/moving_mean", "shape": [128], "dtype": "float32"}, {"name": "batch_normalization_80/moving_variance", "shape": [128], "dtype": "float32"}, {"name": "batch_normalization_81/gamma", "shape": [64], "dtype": "float32"}, {"name": "batch_normalization_81/beta", "shape": [64], "dtype": "float32"}, {"name": "batch_normalization_81/moving_mean", "shape": [64], "dtype": "float32"}, {"name": "batch_normalization_81/moving_variance", "shape": [64], "dtype": "float32"}, {"name": "batch_normalization_82/gamma", "shape": [64], "dtype": "float32"}, {"name": "batch_normalization_82/beta", "shape": [64], "dtype": "float32"}, {"name": "batch_normalization_82/moving_mean", "shape": [64], "dtype": "float32"}, {"name": "batch_normalization_82/moving_variance", "shape": [64], "dtype": "float32"}, {"name": "batch_normalization_83/gamma", "shape": [128], "dtype": "float32"}, {"name": "batch_normalization_83/beta", "shape": [128], "dtype": "float32"}, {"name": "batch_normalization_83/moving_mean", "shape": [128], "dtype": "float32"}, {"name": "batch_normalization_83/moving_variance", "shape": [128], "dtype": "float32"}, {"name": "batch_normalization_84/gamma", "shape": [64], "dtype": "float32"}, {"name": "batch_normalization_84/beta", "shape": [64], "dtype": "float32"}, {"name": "batch_normalization_84/moving_mean", "shape": [64], "dtype": "float32"}, {"name": "batch_normalization_84/moving_variance", "shape": [64], "dtype": "float32"}, {"name": "batch_normalization_85/gamma", "shape": [64], "dtype": "float32"}, {"name": "batch_normalization_85/beta", "shape": [64], "dtype": "float32"}, {"name": "batch_normalization_85/moving_mean", "shape": [64], "dtype": "float32"}, {"name": "batch_normalization_85/moving_variance", "shape": [64], "dtype": "float32"}, {"name": "batch_normalization_86/gamma", "shape": [128], "dtype": "float32"}, {"name": "batch_normalization_86/beta", "shape": [128], "dtype": "float32"}, {"name": "batch_normalization_86/moving_mean", "shape": [128], "dtype": "float32"}, {"name": "batch_normalization_86/moving_variance", "shape": [128], "dtype": "float32"}, {"name": "batch_normalization_87/gamma", "shape": [64], "dtype": "float32"}, {"name": "batch_normalization_87/beta", "shape": [64], "dtype": "float32"}, {"name": "batch_normalization_87/moving_mean", "shape": [64], "dtype": "float32"}, {"name": "batch_normalization_87/moving_variance", "shape": [64], "dtype": "float32"}, {"name": "batch_normalization_88/gamma", "shape": [64], "dtype": "float32"}, {"name": "batch_normalization_88/beta", "shape": [64], "dtype": "float32"}, {"name": "batch_normalization_88/moving_mean", "shape": [64], "dtype": "float32"}, {"name": "batch_normalization_88/moving_variance", "shape": [64], "dtype": "float32"}, {"name": "batch_normalization_89/gamma", "shape": [128], "dtype": "float32"}, {"name": "batch_normalization_89/beta", "shape": [128], "dtype": "float32"}, {"name": "batch_normalization_89/moving_mean", "shape": [128], "dtype": "float32"}, {"name": "batch_normalization_89/moving_variance", "shape": [128], "dtype": "float32"}, {"name": "batch_normalization_9/gamma", "shape": [64], "dtype": "float32"}, {"name": "batch_normalization_9/beta", "shape": [64], "dtype": "float32"}, {"name": "batch_normalization_9/moving_mean", "shape": [64], "dtype": "float32"}, {"name": "batch_normalization_9/moving_variance", "shape": [64], "dtype": "float32"}, {"name": "batch_normalization_90/gamma", "shape": [64], "dtype": "float32"}, {"name": "batch_normalization_90/beta", "shape": [64], "dtype": "float32"}, {"name": "batch_normalization_90/moving_mean", "shape": [64], "dtype": "float32"}, {"name": "batch_normalization_90/moving_variance", "shape": [64], "dtype": "float32"}, {"name": "batch_normalization_91/gamma", "shape": [64], "dtype": "float32"}, {"name": "batch_normalization_91/beta", "shape": [64], "dtype": "float32"}, {"name": "batch_normalization_91/moving_mean", "shape": [64], "dtype": "float32"}, {"name": "batch_normalization_91/moving_variance", "shape": [64], "dtype": "float32"}, {"name": "batch_normalization_92/gamma", "shape": [128], "dtype": "float32"}, {"name": "batch_normalization_92/beta", "shape": [128], "dtype": "float32"}, {"name": "batch_normalization_92/moving_mean", "shape": [128], "dtype": "float32"}, {"name": "batch_normalization_92/moving_variance", "shape": [128], "dtype": "float32"}, {"name": "batch_normalization_93/gamma", "shape": [64], "dtype": "float32"}, {"name": "batch_normalization_93/beta", "shape": [64], "dtype": "float32"}, {"name": "batch_normalization_93/moving_mean", "shape": [64], "dtype": "float32"}, {"name": "batch_normalization_93/moving_variance", "shape": [64], "dtype": "float32"}, {"name": "batch_normalization_94/gamma", "shape": [64], "dtype": "float32"}, {"name": "batch_normalization_94/beta", "shape": [64], "dtype": "float32"}, {"name": "batch_normalization_94/moving_mean", "shape": [64], "dtype": "float32"}, {"name": "batch_normalization_94/moving_variance", "shape": [64], "dtype": "float32"}, {"name": "batch_normalization_95/gamma", "shape": [128], "dtype": "float32"}, {"name": "batch_normalization_95/beta", "shape": [128], "dtype": "float32"}, {"name": "batch_normalization_95/moving_mean", "shape": [128], "dtype": "float32"}, {"name": "batch_normalization_95/moving_variance", "shape": [128], "dtype": "float32"}, {"name": "batch_normalization_96/gamma", "shape": [128], "dtype": "float32"}, {"name": "batch_normalization_96/beta", "shape": [128], "dtype": "float32"}, {"name": "batch_normalization_96/moving_mean", "shape": [128], "dtype": "float32"}, {"name": "batch_normalization_96/moving_variance", "shape": [128], "dtype": "float32"}, {"name": "front_conv_7x7_x1/kernel", "shape": [7, 7, 3, 64], "dtype": "float32"}, {"name": "front_conv_7x7_x1/bias", "shape": [64], "dtype": "float32"}, {"name": "front_residual_x1convBlock_conv_1x1_x1/kernel", "shape": [1, 1, 64, 32], "dtype": "float32"}, {"name": "front_residual_x1convBlock_conv_1x1_x1/bias", "shape": [32], "dtype": "float32"}, {"name": "front_residual_x1convBlock_conv_1x1_x3/kernel", "shape": [1, 1, 32, 64], "dtype": "float32"}, {"name": "front_residual_x1convBlock_conv_1x1_x3/bias", "shape": [64], "dtype": "float32"}, {"name": "front_residual_x1convBlock_conv_3x3_x2/kernel", "shape": [3, 3, 32, 32], "dtype": "float32"}, {"name": "front_residual_x1convBlock_conv_3x3_x2/bias", "shape": [32], "dtype": "float32"}, {"name": "front_residual_x2convBlock_conv_1x1_x1/kernel", "shape": [1, 1, 64, 32], "dtype": "float32"}, {"name": "front_residual_x2convBlock_conv_1x1_x1/bias", "shape": [32], "dtype": "float32"}, {"name": "front_residual_x2convBlock_conv_1x1_x3/kernel", "shape": [1, 1, 32, 64], "dtype": "float32"}, {"name": "front_residual_x2convBlock_conv_1x1_x3/bias", "shape": [64], "dtype": "float32"}, {"name": "front_residual_x2convBlock_conv_3x3_x2/kernel", "shape": [3, 3, 32, 32], "dtype": "float32"}, {"name": "front_residual_x2convBlock_conv_3x3_x2/bias", "shape": [32], "dtype": "float32"}, {"name": "front_residual_x3convBlock_conv_1x1_x1/kernel", "shape": [1, 1, 64, 64], "dtype": "float32"}, {"name": "front_residual_x3convBlock_conv_1x1_x1/bias", "shape": [64], "dtype": "float32"}, {"name": "front_residual_x3convBlock_conv_1x1_x3/kernel", "shape": [1, 1, 64, 128], "dtype": "float32"}, {"name": "front_residual_x3convBlock_conv_1x1_x3/bias", "shape": [128], "dtype": "float32"}, {"name": "front_residual_x3convBlock_conv_3x3_x2/kernel", "shape": [3, 3, 64, 64], "dtype": "float32"}, {"name": "front_residual_x3convBlock_conv_3x3_x2/bias", "shape": [64], "dtype": "float32"}, {"name": "front_residual_x3skipLayer_skip_conv/kernel", "shape": [1, 1, 64, 128], "dtype": "float32"}, {"name": "front_residual_x3skipLayer_skip_conv/bias", "shape": [128], "dtype": "float32"}, {"name": "head_0_conv_1x1_parts/kernel", "shape": [1, 1, 128, 16], "dtype": "float32"}, {"name": "head_0_conv_1x1_parts/bias", "shape": [16], "dtype": "float32"}, {"name": "head_0_conv_1x1_x1/kernel", "shape": [1, 1, 128, 128], "dtype": "float32"}, {"name": "head_0_conv_1x1_x1/bias", "shape": [128], "dtype": "float32"}, {"name": "head_0_conv_1x1_x2/kernel", "shape": [1, 1, 128, 128], "dtype": "float32"}, {"name": "head_0_conv_1x1_x2/bias", "shape": [128], "dtype": "float32"}, {"name": "head_0_conv_1x1_x3/kernel", "shape": [1, 1, 16, 128], "dtype": "float32"}, {"name": "head_0_conv_1x1_x3/bias", "shape": [128], "dtype": "float32"}, {"name": "head_1_conv_1x1_parts/kernel", "shape": [1, 1, 128, 16], "dtype": "float32"}, {"name": "head_1_conv_1x1_parts/bias", "shape": [16], "dtype": "float32"}, {"name": "head_1_conv_1x1_x1/kernel", "shape": [1, 1, 128, 128], "dtype": "float32"}, {"name": "head_1_conv_1x1_x1/bias", "shape": [128], "dtype": "float32"}, {"name": "hg_0_l1convBlock_conv_1x1_x1/kernel", "shape": [1, 1, 128, 64], "dtype": "float32"}, {"name": "hg_0_l1convBlock_conv_1x1_x1/bias", "shape": [64], "dtype": "float32"}, {"name": "hg_0_l1convBlock_conv_1x1_x3/kernel", "shape": [1, 1, 64, 128], "dtype": "float32"}, {"name": "hg_0_l1convBlock_conv_1x1_x3/bias", "shape": [128], "dtype": "float32"}, {"name": "hg_0_l1convBlock_conv_3x3_x2/kernel", "shape": [3, 3, 64, 64], "dtype": "float32"}, {"name": "hg_0_l1convBlock_conv_3x3_x2/bias", "shape": [64], "dtype": "float32"}, {"name": "hg_0_l2convBlock_conv_1x1_x1/kernel", "shape": [1, 1, 128, 64], "dtype": "float32"}, {"name": "hg_0_l2convBlock_conv_1x1_x1/bias", "shape": [64], "dtype": "float32"}, {"name": "hg_0_l2convBlock_conv_1x1_x3/kernel", "shape": [1, 1, 64, 128], "dtype": "float32"}, {"name": "hg_0_l2convBlock_conv_1x1_x3/bias", "shape": [128], "dtype": "float32"}, {"name": "hg_0_l2convBlock_conv_3x3_x2/kernel", "shape": [3, 3, 64, 64], "dtype": "float32"}, {"name": "hg_0_l2convBlock_conv_3x3_x2/bias", "shape": [64], "dtype": "float32"}, {"name": "hg_0_l4convBlock_conv_1x1_x1/kernel", "shape": [1, 1, 128, 64], "dtype": "float32"}, {"name": "hg_0_l4convBlock_conv_1x1_x1/bias", "shape": [64], "dtype": "float32"}, {"name": "hg_0_l4convBlock_conv_1x1_x3/kernel", "shape": [1, 1, 64, 128], "dtype": "float32"}, {"name": "hg_0_l4convBlock_conv_1x1_x3/bias", "shape": [128], "dtype": "float32"}, {"name": "hg_0_l4convBlock_conv_3x3_x2/kernel", "shape": [3, 3, 64, 64], "dtype": "float32"}, {"name": "hg_0_l4convBlock_conv_3x3_x2/bias", "shape": [64], "dtype": "float32"}, {"name": "hg_0_l8convBlock_conv_1x1_x1/kernel", "shape": [1, 1, 128, 64], "dtype": "float32"}, {"name": "hg_0_l8convBlock_conv_1x1_x1/bias", "shape": [64], "dtype": "float32"}, {"name": "hg_0_l8convBlock_conv_1x1_x3/kernel", "shape": [1, 1, 64, 128], "dtype": "float32"}, {"name": "hg_0_l8convBlock_conv_1x1_x3/bias", "shape": [128], "dtype": "float32"}, {"name": "hg_0_l8convBlock_conv_3x3_x2/kernel", "shape": [3, 3, 64, 64], "dtype": "float32"}, {"name": "hg_0_l8convBlock_conv_3x3_x2/bias", "shape": [64], "dtype": "float32"}, {"name": "hg_0_lf8convBlock_conv_1x1_x1/kernel", "shape": [1, 1, 128, 64], "dtype": "float32"}, {"name": "hg_0_lf8convBlock_conv_1x1_x1/bias", "shape": [64], "dtype": "float32"}, {"name": "hg_0_lf8convBlock_conv_1x1_x3/kernel", "shape": [1, 1, 64, 128], "dtype": "float32"}, {"name": "hg_0_lf8convBlock_conv_1x1_x3/bias", "shape": [128], "dtype": "float32"}, {"name": "hg_0_lf8convBlock_conv_3x3_x2/kernel", "shape": [3, 3, 64, 64], "dtype": "float32"}, {"name": "hg_0_lf8convBlock_conv_3x3_x2/bias", "shape": [64], "dtype": "float32"}, {"name": "hg_0_rf1_connect_convBlock_conv_1x1_x1/kernel", "shape": [1, 1, 128, 64], "dtype": "float32"}, {"name": "hg_0_rf1_connect_convBlock_conv_1x1_x1/bias", "shape": [64], "dtype": "float32"}, {"name": "hg_0_rf1_connect_convBlock_conv_1x1_x3/kernel", "shape": [1, 1, 64, 128], "dtype": "float32"}, {"name": "hg_0_rf1_connect_convBlock_conv_1x1_x3/bias", "shape": [128], "dtype": "float32"}, {"name": "hg_0_rf1_connect_convBlock_conv_3x3_x2/kernel", "shape": [3, 3, 64, 64], "dtype": "float32"}, {"name": "hg_0_rf1_connect_convBlock_conv_3x3_x2/bias", "shape": [64], "dtype": "float32"}, {"name": "hg_0_rf1_connect_left_resi_convBlock_conv_1x1_x1/kernel", "shape": [1, 1, 128, 64], "dtype": "float32"}, {"name": "hg_0_rf1_connect_left_resi_convBlock_conv_1x1_x1/bias", "shape": [64], "dtype": "float32"}, {"name": "hg_0_rf1_connect_left_resi_convBlock_conv_1x1_x3/kernel", "shape": [1, 1, 64, 128], "dtype": "float32"}, {"name": "hg_0_rf1_connect_left_resi_convBlock_conv_1x1_x3/bias", "shape": [128], "dtype": "float32"}, {"name": "hg_0_rf1_connect_left_resi_convBlock_conv_3x3_x2/kernel", "shape": [3, 3, 64, 64], "dtype": "float32"}, {"name": "hg_0_rf1_connect_left_resi_convBlock_conv_3x3_x2/bias", "shape": [64], "dtype": "float32"}, {"name": "hg_0_rf2_connect_convBlock_conv_1x1_x1/kernel", "shape": [1, 1, 128, 64], "dtype": "float32"}, {"name": "hg_0_rf2_connect_convBlock_conv_1x1_x1/bias", "shape": [64], "dtype": "float32"}, {"name": "hg_0_rf2_connect_convBlock_conv_1x1_x3/kernel", "shape": [1, 1, 64, 128], "dtype": "float32"}, {"name": "hg_0_rf2_connect_convBlock_conv_1x1_x3/bias", "shape": [128], "dtype": "float32"}, {"name": "hg_0_rf2_connect_convBlock_conv_3x3_x2/kernel", "shape": [3, 3, 64, 64], "dtype": "float32"}, {"name": "hg_0_rf2_connect_convBlock_conv_3x3_x2/bias", "shape": [64], "dtype": "float32"}, {"name": "hg_0_rf2_connect_left_resi_convBlock_conv_1x1_x1/kernel", "shape": [1, 1, 128, 64], "dtype": "float32"}, {"name": "hg_0_rf2_connect_left_resi_convBlock_conv_1x1_x1/bias", "shape": [64], "dtype": "float32"}, {"name": "hg_0_rf2_connect_left_resi_convBlock_conv_1x1_x3/kernel", "shape": [1, 1, 64, 128], "dtype": "float32"}, {"name": "hg_0_rf2_connect_left_resi_convBlock_conv_1x1_x3/bias", "shape": [128], "dtype": "float32"}, {"name": "hg_0_rf2_connect_left_resi_convBlock_conv_3x3_x2/kernel", "shape": [3, 3, 64, 64], "dtype": "float32"}, {"name": "hg_0_rf2_connect_left_resi_convBlock_conv_3x3_x2/bias", "shape": [64], "dtype": "float32"}, {"name": "hg_0_rf4_connect_convBlock_conv_1x1_x1/kernel", "shape": [1, 1, 128, 64], "dtype": "float32"}, {"name": "hg_0_rf4_connect_convBlock_conv_1x1_x1/bias", "shape": [64], "dtype": "float32"}, {"name": "hg_0_rf4_connect_convBlock_conv_1x1_x3/kernel", "shape": [1, 1, 64, 128], "dtype": "float32"}, {"name": "hg_0_rf4_connect_convBlock_conv_1x1_x3/bias", "shape": [128], "dtype": "float32"}, {"name": "hg_0_rf4_connect_convBlock_conv_3x3_x2/kernel", "shape": [3, 3, 64, 64], "dtype": "float32"}, {"name": "hg_0_rf4_connect_convBlock_conv_3x3_x2/bias", "shape": [64], "dtype": "float32"}, {"name": "hg_0_rf4_connect_left_resi_convBlock_conv_1x1_x1/kernel", "shape": [1, 1, 128, 64], "dtype": "float32"}, {"name": "hg_0_rf4_connect_left_resi_convBlock_conv_1x1_x1/bias", "shape": [64], "dtype": "float32"}, {"name": "hg_0_rf4_connect_left_resi_convBlock_conv_1x1_x3/kernel", "shape": [1, 1, 64, 128], "dtype": "float32"}, {"name": "hg_0_rf4_connect_left_resi_convBlock_conv_1x1_x3/bias", "shape": [128], "dtype": "float32"}, {"name": "hg_0_rf4_connect_left_resi_convBlock_conv_3x3_x2/kernel", "shape": [3, 3, 64, 64], "dtype": "float32"}, {"name": "hg_0_rf4_connect_left_resi_convBlock_conv_3x3_x2/bias", "shape": [64], "dtype": "float32"}, {"name": "hg_0lf8_resi_x1_convBlock_conv_1x1_x1/kernel", "shape": [1, 1, 128, 64], "dtype": "float32"}, {"name": "hg_0lf8_resi_x1_convBlock_conv_1x1_x1/bias", "shape": [64], "dtype": "float32"}, {"name": "hg_0lf8_resi_x1_convBlock_conv_1x1_x3/kernel", "shape": [1, 1, 64, 128], "dtype": "float32"}, {"name": "hg_0lf8_resi_x1_convBlock_conv_1x1_x3/bias", "shape": [128], "dtype": "float32"}, {"name": "hg_0lf8_resi_x1_convBlock_conv_3x3_x2/kernel", "shape": [3, 3, 64, 64], "dtype": "float32"}, {"name": "hg_0lf8_resi_x1_convBlock_conv_3x3_x2/bias", "shape": [64], "dtype": "float32"}, {"name": "hg_0lf8_resi_x2_convBlock_conv_1x1_x1/kernel", "shape": [1, 1, 128, 64], "dtype": "float32"}, {"name": "hg_0lf8_resi_x2_convBlock_conv_1x1_x1/bias", "shape": [64], "dtype": "float32"}, {"name": "hg_0lf8_resi_x2_convBlock_conv_1x1_x3/kernel", "shape": [1, 1, 64, 128], "dtype": "float32"}, {"name": "hg_0lf8_resi_x2_convBlock_conv_1x1_x3/bias", "shape": [128], "dtype": "float32"}, {"name": "hg_0lf8_resi_x2_convBlock_conv_3x3_x2/kernel", "shape": [3, 3, 64, 64], "dtype": "float32"}, {"name": "hg_0lf8_resi_x2_convBlock_conv_3x3_x2/bias", "shape": [64], "dtype": "float32"}, {"name": "hg_0lf8_resi_x3_convBlock_conv_1x1_x1/kernel", "shape": [1, 1, 128, 64], "dtype": "float32"}, {"name": "hg_0lf8_resi_x3_convBlock_conv_1x1_x1/bias", "shape": [64], "dtype": "float32"}, {"name": "hg_0lf8_resi_x3_convBlock_conv_1x1_x3/kernel", "shape": [1, 1, 64, 128], "dtype": "float32"}, {"name": "hg_0lf8_resi_x3_convBlock_conv_1x1_x3/bias", "shape": [128], "dtype": "float32"}, {"name": "hg_0lf8_resi_x3_convBlock_conv_3x3_x2/kernel", "shape": [3, 3, 64, 64], "dtype": "float32"}, {"name": "hg_0lf8_resi_x3_convBlock_conv_3x3_x2/bias", "shape": [64], "dtype": "float32"}, {"name": "hg_1_l1convBlock_conv_1x1_x1/kernel", "shape": [1, 1, 128, 64], "dtype": "float32"}, {"name": "hg_1_l1convBlock_conv_1x1_x1/bias", "shape": [64], "dtype": "float32"}, {"name": "hg_1_l1convBlock_conv_1x1_x3/kernel", "shape": [1, 1, 64, 128], "dtype": "float32"}, {"name": "hg_1_l1convBlock_conv_1x1_x3/bias", "shape": [128], "dtype": "float32"}, {"name": "hg_1_l1convBlock_conv_3x3_x2/kernel", "shape": [3, 3, 64, 64], "dtype": "float32"}, {"name": "hg_1_l1convBlock_conv_3x3_x2/bias", "shape": [64], "dtype": "float32"}, {"name": "hg_1_l2convBlock_conv_1x1_x1/kernel", "shape": [1, 1, 128, 64], "dtype": "float32"}, {"name": "hg_1_l2convBlock_conv_1x1_x1/bias", "shape": [64], "dtype": "float32"}, {"name": "hg_1_l2convBlock_conv_1x1_x3/kernel", "shape": [1, 1, 64, 128], "dtype": "float32"}, {"name": "hg_1_l2convBlock_conv_1x1_x3/bias", "shape": [128], "dtype": "float32"}, {"name": "hg_1_l2convBlock_conv_3x3_x2/kernel", "shape": [3, 3, 64, 64], "dtype": "float32"}, {"name": "hg_1_l2convBlock_conv_3x3_x2/bias", "shape": [64], "dtype": "float32"}, {"name": "hg_1_l4convBlock_conv_1x1_x1/kernel", "shape": [1, 1, 128, 64], "dtype": "float32"}, {"name": "hg_1_l4convBlock_conv_1x1_x1/bias", "shape": [64], "dtype": "float32"}, {"name": "hg_1_l4convBlock_conv_1x1_x3/kernel", "shape": [1, 1, 64, 128], "dtype": "float32"}, {"name": "hg_1_l4convBlock_conv_1x1_x3/bias", "shape": [128], "dtype": "float32"}, {"name": "hg_1_l4convBlock_conv_3x3_x2/kernel", "shape": [3, 3, 64, 64], "dtype": "float32"}, {"name": "hg_1_l4convBlock_conv_3x3_x2/bias", "shape": [64], "dtype": "float32"}, {"name": "hg_1_l8convBlock_conv_1x1_x1/kernel", "shape": [1, 1, 128, 64], "dtype": "float32"}, {"name": "hg_1_l8convBlock_conv_1x1_x1/bias", "shape": [64], "dtype": "float32"}, {"name": "hg_1_l8convBlock_conv_1x1_x3/kernel", "shape": [1, 1, 64, 128], "dtype": "float32"}, {"name": "hg_1_l8convBlock_conv_1x1_x3/bias", "shape": [128], "dtype": "float32"}, {"name": "hg_1_l8convBlock_conv_3x3_x2/kernel", "shape": [3, 3, 64, 64], "dtype": "float32"}, {"name": "hg_1_l8convBlock_conv_3x3_x2/bias", "shape": [64], "dtype": "float32"}, {"name": "hg_1_lf8convBlock_conv_1x1_x1/kernel", "shape": [1, 1, 128, 64], "dtype": "float32"}, {"name": "hg_1_lf8convBlock_conv_1x1_x1/bias", "shape": [64], "dtype": "float32"}, {"name": "hg_1_lf8convBlock_conv_1x1_x3/kernel", "shape": [1, 1, 64, 128], "dtype": "float32"}, {"name": "hg_1_lf8convBlock_conv_1x1_x3/bias", "shape": [128], "dtype": "float32"}, {"name": "hg_1_lf8convBlock_conv_3x3_x2/kernel", "shape": [3, 3, 64, 64], "dtype": "float32"}, {"name": "hg_1_lf8convBlock_conv_3x3_x2/bias", "shape": [64], "dtype": "float32"}, {"name": "hg_1_rf1_connect_convBlock_conv_1x1_x1/kernel", "shape": [1, 1, 128, 64], "dtype": "float32"}, {"name": "hg_1_rf1_connect_convBlock_conv_1x1_x1/bias", "shape": [64], "dtype": "float32"}, {"name": "hg_1_rf1_connect_convBlock_conv_1x1_x3/kernel", "shape": [1, 1, 64, 128], "dtype": "float32"}, {"name": "hg_1_rf1_connect_convBlock_conv_1x1_x3/bias", "shape": [128], "dtype": "float32"}, {"name": "hg_1_rf1_connect_convBlock_conv_3x3_x2/kernel", "shape": [3, 3, 64, 64], "dtype": "float32"}, {"name": "hg_1_rf1_connect_convBlock_conv_3x3_x2/bias", "shape": [64], "dtype": "float32"}, {"name": "hg_1_rf1_connect_left_resi_convBlock_conv_1x1_x1/kernel", "shape": [1, 1, 128, 64], "dtype": "float32"}, {"name": "hg_1_rf1_connect_left_resi_convBlock_conv_1x1_x1/bias", "shape": [64], "dtype": "float32"}, {"name": "hg_1_rf1_connect_left_resi_convBlock_conv_1x1_x3/kernel", "shape": [1, 1, 64, 128], "dtype": "float32"}, {"name": "hg_1_rf1_connect_left_resi_convBlock_conv_1x1_x3/bias", "shape": [128], "dtype": "float32"}, {"name": "hg_1_rf1_connect_left_resi_convBlock_conv_3x3_x2/kernel", "shape": [3, 3, 64, 64], "dtype": "float32"}, {"name": "hg_1_rf1_connect_left_resi_convBlock_conv_3x3_x2/bias", "shape": [64], "dtype": "float32"}, {"name": "hg_1_rf2_connect_convBlock_conv_1x1_x1/kernel", "shape": [1, 1, 128, 64], "dtype": "float32"}, {"name": "hg_1_rf2_connect_convBlock_conv_1x1_x1/bias", "shape": [64], "dtype": "float32"}, {"name": "hg_1_rf2_connect_convBlock_conv_1x1_x3/kernel", "shape": [1, 1, 64, 128], "dtype": "float32"}, {"name": "hg_1_rf2_connect_convBlock_conv_1x1_x3/bias", "shape": [128], "dtype": "float32"}, {"name": "hg_1_rf2_connect_convBlock_conv_3x3_x2/kernel", "shape": [3, 3, 64, 64], "dtype": "float32"}, {"name": "hg_1_rf2_connect_convBlock_conv_3x3_x2/bias", "shape": [64], "dtype": "float32"}, {"name": "hg_1_rf2_connect_left_resi_convBlock_conv_1x1_x1/kernel", "shape": [1, 1, 128, 64], "dtype": "float32"}, {"name": "hg_1_rf2_connect_left_resi_convBlock_conv_1x1_x1/bias", "shape": [64], "dtype": "float32"}, {"name": "hg_1_rf2_connect_left_resi_convBlock_conv_1x1_x3/kernel", "shape": [1, 1, 64, 128], "dtype": "float32"}, {"name": "hg_1_rf2_connect_left_resi_convBlock_conv_1x1_x3/bias", "shape": [128], "dtype": "float32"}, {"name": "hg_1_rf2_connect_left_resi_convBlock_conv_3x3_x2/kernel", "shape": [3, 3, 64, 64], "dtype": "float32"}, {"name": "hg_1_rf2_connect_left_resi_convBlock_conv_3x3_x2/bias", "shape": [64], "dtype": "float32"}, {"name": "hg_1_rf4_connect_convBlock_conv_1x1_x1/kernel", "shape": [1, 1, 128, 64], "dtype": "float32"}, {"name": "hg_1_rf4_connect_convBlock_conv_1x1_x1/bias", "shape": [64], "dtype": "float32"}, {"name": "hg_1_rf4_connect_convBlock_conv_1x1_x3/kernel", "shape": [1, 1, 64, 128], "dtype": "float32"}, {"name": "hg_1_rf4_connect_convBlock_conv_1x1_x3/bias", "shape": [128], "dtype": "float32"}, {"name": "hg_1_rf4_connect_convBlock_conv_3x3_x2/kernel", "shape": [3, 3, 64, 64], "dtype": "float32"}, {"name": "hg_1_rf4_connect_convBlock_conv_3x3_x2/bias", "shape": [64], "dtype": "float32"}, {"name": "hg_1_rf4_connect_left_resi_convBlock_conv_1x1_x1/kernel", "shape": [1, 1, 128, 64], "dtype": "float32"}, {"name": "hg_1_rf4_connect_left_resi_convBlock_conv_1x1_x1/bias", "shape": [64], "dtype": "float32"}, {"name": "hg_1_rf4_connect_left_resi_convBlock_conv_1x1_x3/kernel", "shape": [1, 1, 64, 128], "dtype": "float32"}, {"name": "hg_1_rf4_connect_left_resi_convBlock_conv_1x1_x3/bias", "shape": [128], "dtype": "float32"}, {"name": "hg_1_rf4_connect_left_resi_convBlock_conv_3x3_x2/kernel", "shape": [3, 3, 64, 64], "dtype": "float32"}, {"name": "hg_1_rf4_connect_left_resi_convBlock_conv_3x3_x2/bias", "shape": [64], "dtype": "float32"}, {"name": "hg_1lf8_resi_x1_convBlock_conv_1x1_x1/kernel", "shape": [1, 1, 128, 64], "dtype": "float32"}, {"name": "hg_1lf8_resi_x1_convBlock_conv_1x1_x1/bias", "shape": [64], "dtype": "float32"}, {"name": "hg_1lf8_resi_x1_convBlock_conv_1x1_x3/kernel", "shape": [1, 1, 64, 128], "dtype": "float32"}, {"name": "hg_1lf8_resi_x1_convBlock_conv_1x1_x3/bias", "shape": [128], "dtype": "float32"}, {"name": "hg_1lf8_resi_x1_convBlock_conv_3x3_x2/kernel", "shape": [3, 3, 64, 64], "dtype": "float32"}, {"name": "hg_1lf8_resi_x1_convBlock_conv_3x3_x2/bias", "shape": [64], "dtype": "float32"}, {"name": "hg_1lf8_resi_x2_convBlock_conv_1x1_x1/kernel", "shape": [1, 1, 128, 64], "dtype": "float32"}, {"name": "hg_1lf8_resi_x2_convBlock_conv_1x1_x1/bias", "shape": [64], "dtype": "float32"}, {"name": "hg_1lf8_resi_x2_convBlock_conv_1x1_x3/kernel", "shape": [1, 1, 64, 128], "dtype": "float32"}, {"name": "hg_1lf8_resi_x2_convBlock_conv_1x1_x3/bias", "shape": [128], "dtype": "float32"}, {"name": "hg_1lf8_resi_x2_convBlock_conv_3x3_x2/kernel", "shape": [3, 3, 64, 64], "dtype": "float32"}, {"name": "hg_1lf8_resi_x2_convBlock_conv_3x3_x2/bias", "shape": [64], "dtype": "float32"}, {"name": "hg_1lf8_resi_x3_convBlock_conv_1x1_x1/kernel", "shape": [1, 1, 128, 64], "dtype": "float32"}, {"name": "hg_1lf8_resi_x3_convBlock_conv_1x1_x1/bias", "shape": [64], "dtype": "float32"}, {"name": "hg_1lf8_resi_x3_convBlock_conv_1x1_x3/kernel", "shape": [1, 1, 64, 128], "dtype": "float32"}, {"name": "hg_1lf8_resi_x3_convBlock_conv_1x1_x3/bias", "shape": [128], "dtype": "float32"}, {"name": "hg_1lf8_resi_x3_convBlock_conv_3x3_x2/kernel", "shape": [3, 3, 64, 64], "dtype": "float32"}, {"name": "hg_1lf8_resi_x3_convBlock_conv_3x3_x2/bias", "shape": [64], "dtype": "float32"}]}]}