{
  "modelTopology": {
    "keras_version": "2.1.6",
    "backend": "tensorflow",
    "model_config": {
      "class_name": "Model",
      "config": {
        "input_layers": [
          [
            "input_2",
            0,
            0
          ]
        ],
        "layers": [
          {
            "class_name": "InputLayer",
            "inbound_nodes": [],
            "config": {
              "batch_input_shape": [
                null,
                256,
                256,
                3
              ],
              "sparse": false,
              "dtype": "float32",
              "name": "input_2"
            },
            "name": "input_2"
          },
          {
            "class_name": "Conv2D",
            "inbound_nodes": [
              [
                [
                  "input_2",
                  0,
                  0,
                  {}
                ]
              ]
            ],
            "config": {
              "filters": 64,
              "data_format": "channels_last",
              "kernel_size": [
                7,
                7
              ],
              "use_bias": true,
              "padding": "same",
              "kernel_regularizer": null,
              "activity_regularizer": null,
              "trainable": true,
              "dilation_rate": [
                1,
                1
              ],
              "kernel_constraint": null,
              "bias_initializer": {
                "class_name": "Zeros",
                "config": {}
              },
              "kernel_initializer": {
                "class_name": "VarianceScaling",
                "config": {
                  "scale": 1.0,
                  "mode": "fan_avg",
                  "seed": null,
                  "distribution": "uniform"
                }
              },
              "bias_constraint": null,
              "activation": "relu",
              "strides": [
                2,
                2
              ],
              "name": "front_conv_7x7_x1",
              "bias_regularizer": null
            },
            "name": "front_conv_7x7_x1"
          },
          {
            "class_name": "BatchNormalization",
            "inbound_nodes": [
              [
                [
                  "front_conv_7x7_x1",
                  0,
                  0,
                  {}
                ]
              ]
            ],
            "config": {
              "scale": true,
              "moving_mean_initializer": {
                "class_name": "Zeros",
                "config": {}
              },
              "axis": -1,
              "center": true,
              "beta_constraint": null,
              "momentum": 0.99,
              "beta_regularizer": null,
              "gamma_constraint": null,
              "trainable": true,
              "gamma_initializer": {
                "class_name": "Ones",
                "config": {}
              },
              "moving_variance_initializer": {
                "class_name": "Ones",
                "config": {}
              },
              "beta_initializer": {
                "class_name": "Zeros",
                "config": {}
              },
              "gamma_regularizer": null,
              "epsilon": 0.001,
              "name": "batch_normalization_97"
            },
            "name": "batch_normalization_97"
          },
          {
            "class_name": "Conv2D",
            "inbound_nodes": [
              [
                [
                  "batch_normalization_97",
                  0,
                  0,
                  {}
                ]
              ]
            ],
            "config": {
              "filters": 64,
              "data_format": "channels_last",
              "kernel_size": [
                1,
                1
              ],
              "use_bias": true,
              "padding": "same",
              "kernel_regularizer": null,
              "activity_regularizer": null,
              "trainable": true,
              "dilation_rate": [
                1,
                1
              ],
              "kernel_constraint": null,
              "bias_initializer": {
                "class_name": "Zeros",
                "config": {}
              },
              "kernel_initializer": {
                "class_name": "VarianceScaling",
                "config": {
                  "scale": 1.0,
                  "mode": "fan_avg",
                  "seed": null,
                  "distribution": "uniform"
                }
              },
              "bias_constraint": null,
              "activation": "relu",
              "strides": [
                1,
                1
              ],
              "name": "front_residual_x1convBlock_conv_1x1_x1",
              "bias_regularizer": null
            },
            "name": "front_residual_x1convBlock_conv_1x1_x1"
          },
          {
            "class_name": "BatchNormalization",
            "inbound_nodes": [
              [
                [
                  "front_residual_x1convBlock_conv_1x1_x1",
                  0,
                  0,
                  {}
                ]
              ]
            ],
            "config": {
              "scale": true,
              "moving_mean_initializer": {
                "class_name": "Zeros",
                "config": {}
              },
              "axis": -1,
              "center": true,
              "beta_constraint": null,
              "momentum": 0.99,
              "beta_regularizer": null,
              "gamma_constraint": null,
              "trainable": true,
              "gamma_initializer": {
                "class_name": "Ones",
                "config": {}
              },
              "moving_variance_initializer": {
                "class_name": "Ones",
                "config": {}
              },
              "beta_initializer": {
                "class_name": "Zeros",
                "config": {}
              },
              "gamma_regularizer": null,
              "epsilon": 0.001,
              "name": "batch_normalization_98"
            },
            "name": "batch_normalization_98"
          },
          {
            "class_name": "Conv2D",
            "inbound_nodes": [
              [
                [
                  "batch_normalization_98",
                  0,
                  0,
                  {}
                ]
              ]
            ],
            "config": {
              "filters": 64,
              "data_format": "channels_last",
              "kernel_size": [
                3,
                3
              ],
              "use_bias": true,
              "padding": "same",
              "kernel_regularizer": null,
              "activity_regularizer": null,
              "trainable": true,
              "dilation_rate": [
                1,
                1
              ],
              "kernel_constraint": null,
              "bias_initializer": {
                "class_name": "Zeros",
                "config": {}
              },
              "kernel_initializer": {
                "class_name": "VarianceScaling",
                "config": {
                  "scale": 1.0,
                  "mode": "fan_avg",
                  "seed": null,
                  "distribution": "uniform"
                }
              },
              "bias_constraint": null,
              "activation": "relu",
              "strides": [
                1,
                1
              ],
              "name": "front_residual_x1convBlock_conv_3x3_x2",
              "bias_regularizer": null
            },
            "name": "front_residual_x1convBlock_conv_3x3_x2"
          },
          {
            "class_name": "BatchNormalization",
            "inbound_nodes": [
              [
                [
                  "front_residual_x1convBlock_conv_3x3_x2",
                  0,
                  0,
                  {}
                ]
              ]
            ],
            "config": {
              "scale": true,
              "moving_mean_initializer": {
                "class_name": "Zeros",
                "config": {}
              },
              "axis": -1,
              "center": true,
              "beta_constraint": null,
              "momentum": 0.99,
              "beta_regularizer": null,
              "gamma_constraint": null,
              "trainable": true,
              "gamma_initializer": {
                "class_name": "Ones",
                "config": {}
              },
              "moving_variance_initializer": {
                "class_name": "Ones",
                "config": {}
              },
              "beta_initializer": {
                "class_name": "Zeros",
                "config": {}
              },
              "gamma_regularizer": null,
              "epsilon": 0.001,
              "name": "batch_normalization_99"
            },
            "name": "batch_normalization_99"
          },
          {
            "class_name": "Conv2D",
            "inbound_nodes": [
              [
                [
                  "batch_normalization_99",
                  0,
                  0,
                  {}
                ]
              ]
            ],
            "config": {
              "filters": 128,
              "data_format": "channels_last",
              "kernel_size": [
                1,
                1
              ],
              "use_bias": true,
              "padding": "same",
              "kernel_regularizer": null,
              "activity_regularizer": null,
              "trainable": true,
              "dilation_rate": [
                1,
                1
              ],
              "kernel_constraint": null,
              "bias_initializer": {
                "class_name": "Zeros",
                "config": {}
              },
              "kernel_initializer": {
                "class_name": "VarianceScaling",
                "config": {
                  "scale": 1.0,
                  "mode": "fan_avg",
                  "seed": null,
                  "distribution": "uniform"
                }
              },
              "bias_constraint": null,
              "activation": "relu",
              "strides": [
                1,
                1
              ],
              "name": "front_residual_x1convBlock_conv_1x1_x3",
              "bias_regularizer": null
            },
            "name": "front_residual_x1convBlock_conv_1x1_x3"
          },
          {
            "class_name": "BatchNormalization",
            "inbound_nodes": [
              [
                [
                  "front_residual_x1convBlock_conv_1x1_x3",
                  0,
                  0,
                  {}
                ]
              ]
            ],
            "config": {
              "scale": true,
              "moving_mean_initializer": {
                "class_name": "Zeros",
                "config": {}
              },
              "axis": -1,
              "center": true,
              "beta_constraint": null,
              "momentum": 0.99,
              "beta_regularizer": null,
              "gamma_constraint": null,
              "trainable": true,
              "gamma_initializer": {
                "class_name": "Ones",
                "config": {}
              },
              "moving_variance_initializer": {
                "class_name": "Ones",
                "config": {}
              },
              "beta_initializer": {
                "class_name": "Zeros",
                "config": {}
              },
              "gamma_regularizer": null,
              "epsilon": 0.001,
              "name": "batch_normalization_100"
            },
            "name": "batch_normalization_100"
          },
          {
            "class_name": "Conv2D",
            "inbound_nodes": [
              [
                [
                  "batch_normalization_97",
                  0,
                  0,
                  {}
                ]
              ]
            ],
            "config": {
              "filters": 128,
              "data_format": "channels_last",
              "kernel_size": [
                1,
                1
              ],
              "use_bias": true,
              "padding": "same",
              "kernel_regularizer": null,
              "activity_regularizer": null,
              "trainable": true,
              "dilation_rate": [
                1,
                1
              ],
              "kernel_constraint": null,
              "bias_initializer": {
                "class_name": "Zeros",
                "config": {}
              },
              "kernel_initializer": {
                "class_name": "VarianceScaling",
                "config": {
                  "scale": 1.0,
                  "mode": "fan_avg",
                  "seed": null,
                  "distribution": "uniform"
                }
              },
              "bias_constraint": null,
              "activation": "relu",
              "strides": [
                1,
                1
              ],
              "name": "front_residual_x1skipLayer_skip_conv",
              "bias_regularizer": null
            },
            "name": "front_residual_x1skipLayer_skip_conv"
          },
          {
            "class_name": "Add",
            "inbound_nodes": [
              [
                [
                  "batch_normalization_100",
                  0,
                  0,
                  {}
                ],
                [
                  "front_residual_x1skipLayer_skip_conv",
                  0,
                  0,
                  {}
                ]
              ]
            ],
            "config": {
              "trainable": true,
              "name": "add_42"
            },
            "name": "add_42"
          },
          {
            "class_name": "MaxPooling2D",
            "inbound_nodes": [
              [
                [
                  "add_42",
                  0,
                  0,
                  {}
                ]
              ]
            ],
            "config": {
              "trainable": true,
              "data_format": "channels_last",
              "pool_size": [
                2,
                2
              ],
              "padding": "valid",
              "strides": [
                2,
                2
              ],
              "name": "max_pooling2d_8"
            },
            "name": "max_pooling2d_8"
          },
          {
            "class_name": "Conv2D",
            "inbound_nodes": [
              [
                [
                  "max_pooling2d_8",
                  0,
                  0,
                  {}
                ]
              ]
            ],
            "config": {
              "filters": 64,
              "data_format": "channels_last",
              "kernel_size": [
                1,
                1
              ],
              "use_bias": true,
              "padding": "same",
              "kernel_regularizer": null,
              "activity_regularizer": null,
              "trainable": true,
              "dilation_rate": [
                1,
                1
              ],
              "kernel_constraint": null,
              "bias_initializer": {
                "class_name": "Zeros",
                "config": {}
              },
              "kernel_initializer": {
                "class_name": "VarianceScaling",
                "config": {
                  "scale": 1.0,
                  "mode": "fan_avg",
                  "seed": null,
                  "distribution": "uniform"
                }
              },
              "bias_constraint": null,
              "activation": "relu",
              "strides": [
                1,
                1
              ],
              "name": "front_residual_x2convBlock_conv_1x1_x1",
              "bias_regularizer": null
            },
            "name": "front_residual_x2convBlock_conv_1x1_x1"
          },
          {
            "class_name": "BatchNormalization",
            "inbound_nodes": [
              [
                [
                  "front_residual_x2convBlock_conv_1x1_x1",
                  0,
                  0,
                  {}
                ]
              ]
            ],
            "config": {
              "scale": true,
              "moving_mean_initializer": {
                "class_name": "Zeros",
                "config": {}
              },
              "axis": -1,
              "center": true,
              "beta_constraint": null,
              "momentum": 0.99,
              "beta_regularizer": null,
              "gamma_constraint": null,
              "trainable": true,
              "gamma_initializer": {
                "class_name": "Ones",
                "config": {}
              },
              "moving_variance_initializer": {
                "class_name": "Ones",
                "config": {}
              },
              "beta_initializer": {
                "class_name": "Zeros",
                "config": {}
              },
              "gamma_regularizer": null,
              "epsilon": 0.001,
              "name": "batch_normalization_101"
            },
            "name": "batch_normalization_101"
          },
          {
            "class_name": "Conv2D",
            "inbound_nodes": [
              [
                [
                  "batch_normalization_101",
                  0,
                  0,
                  {}
                ]
              ]
            ],
            "config": {
              "filters": 64,
              "data_format": "channels_last",
              "kernel_size": [
                3,
                3
              ],
              "use_bias": true,
              "padding": "same",
              "kernel_regularizer": null,
              "activity_regularizer": null,
              "trainable": true,
              "dilation_rate": [
                1,
                1
              ],
              "kernel_constraint": null,
              "bias_initializer": {
                "class_name": "Zeros",
                "config": {}
              },
              "kernel_initializer": {
                "class_name": "VarianceScaling",
                "config": {
                  "scale": 1.0,
                  "mode": "fan_avg",
                  "seed": null,
                  "distribution": "uniform"
                }
              },
              "bias_constraint": null,
              "activation": "relu",
              "strides": [
                1,
                1
              ],
              "name": "front_residual_x2convBlock_conv_3x3_x2",
              "bias_regularizer": null
            },
            "name": "front_residual_x2convBlock_conv_3x3_x2"
          },
          {
            "class_name": "BatchNormalization",
            "inbound_nodes": [
              [
                [
                  "front_residual_x2convBlock_conv_3x3_x2",
                  0,
                  0,
                  {}
                ]
              ]
            ],
            "config": {
              "scale": true,
              "moving_mean_initializer": {
                "class_name": "Zeros",
                "config": {}
              },
              "axis": -1,
              "center": true,
              "beta_constraint": null,
              "momentum": 0.99,
              "beta_regularizer": null,
              "gamma_constraint": null,
              "trainable": true,
              "gamma_initializer": {
                "class_name": "Ones",
                "config": {}
              },
              "moving_variance_initializer": {
                "class_name": "Ones",
                "config": {}
              },
              "beta_initializer": {
                "class_name": "Zeros",
                "config": {}
              },
              "gamma_regularizer": null,
              "epsilon": 0.001,
              "name": "batch_normalization_102"
            },
            "name": "batch_normalization_102"
          },
          {
            "class_name": "Conv2D",
            "inbound_nodes": [
              [
                [
                  "batch_normalization_102",
                  0,
                  0,
                  {}
                ]
              ]
            ],
            "config": {
              "filters": 128,
              "data_format": "channels_last",
              "kernel_size": [
                1,
                1
              ],
              "use_bias": true,
              "padding": "same",
              "kernel_regularizer": null,
              "activity_regularizer": null,
              "trainable": true,
              "dilation_rate": [
                1,
                1
              ],
              "kernel_constraint": null,
              "bias_initializer": {
                "class_name": "Zeros",
                "config": {}
              },
              "kernel_initializer": {
                "class_name": "VarianceScaling",
                "config": {
                  "scale": 1.0,
                  "mode": "fan_avg",
                  "seed": null,
                  "distribution": "uniform"
                }
              },
              "bias_constraint": null,
              "activation": "relu",
              "strides": [
                1,
                1
              ],
              "name": "front_residual_x2convBlock_conv_1x1_x3",
              "bias_regularizer": null
            },
            "name": "front_residual_x2convBlock_conv_1x1_x3"
          },
          {
            "class_name": "BatchNormalization",
            "inbound_nodes": [
              [
                [
                  "front_residual_x2convBlock_conv_1x1_x3",
                  0,
                  0,
                  {}
                ]
              ]
            ],
            "config": {
              "scale": true,
              "moving_mean_initializer": {
                "class_name": "Zeros",
                "config": {}
              },
              "axis": -1,
              "center": true,
              "beta_constraint": null,
              "momentum": 0.99,
              "beta_regularizer": null,
              "gamma_constraint": null,
              "trainable": true,
              "gamma_initializer": {
                "class_name": "Ones",
                "config": {}
              },
              "moving_variance_initializer": {
                "class_name": "Ones",
                "config": {}
              },
              "beta_initializer": {
                "class_name": "Zeros",
                "config": {}
              },
              "gamma_regularizer": null,
              "epsilon": 0.001,
              "name": "batch_normalization_103"
            },
            "name": "batch_normalization_103"
          },
          {
            "class_name": "Add",
            "inbound_nodes": [
              [
                [
                  "batch_normalization_103",
                  0,
                  0,
                  {}
                ],
                [
                  "max_pooling2d_8",
                  0,
                  0,
                  {}
                ]
              ]
            ],
            "config": {
              "trainable": true,
              "name": "add_43"
            },
            "name": "add_43"
          },
          {
            "class_name": "Conv2D",
            "inbound_nodes": [
              [
                [
                  "add_43",
                  0,
                  0,
                  {}
                ]
              ]
            ],
            "config": {
              "filters": 128,
              "data_format": "channels_last",
              "kernel_size": [
                1,
                1
              ],
              "use_bias": true,
              "padding": "same",
              "kernel_regularizer": null,
              "activity_regularizer": null,
              "trainable": true,
              "dilation_rate": [
                1,
                1
              ],
              "kernel_constraint": null,
              "bias_initializer": {
                "class_name": "Zeros",
                "config": {}
              },
              "kernel_initializer": {
                "class_name": "VarianceScaling",
                "config": {
                  "scale": 1.0,
                  "mode": "fan_avg",
                  "seed": null,
                  "distribution": "uniform"
                }
              },
              "bias_constraint": null,
              "activation": "relu",
              "strides": [
                1,
                1
              ],
              "name": "front_residual_x3convBlock_conv_1x1_x1",
              "bias_regularizer": null
            },
            "name": "front_residual_x3convBlock_conv_1x1_x1"
          },
          {
            "class_name": "BatchNormalization",
            "inbound_nodes": [
              [
                [
                  "front_residual_x3convBlock_conv_1x1_x1",
                  0,
                  0,
                  {}
                ]
              ]
            ],
            "config": {
              "scale": true,
              "moving_mean_initializer": {
                "class_name": "Zeros",
                "config": {}
              },
              "axis": -1,
              "center": true,
              "beta_constraint": null,
              "momentum": 0.99,
              "beta_regularizer": null,
              "gamma_constraint": null,
              "trainable": true,
              "gamma_initializer": {
                "class_name": "Ones",
                "config": {}
              },
              "moving_variance_initializer": {
                "class_name": "Ones",
                "config": {}
              },
              "beta_initializer": {
                "class_name": "Zeros",
                "config": {}
              },
              "gamma_regularizer": null,
              "epsilon": 0.001,
              "name": "batch_normalization_104"
            },
            "name": "batch_normalization_104"
          },
          {
            "class_name": "Conv2D",
            "inbound_nodes": [
              [
                [
                  "batch_normalization_104",
                  0,
                  0,
                  {}
                ]
              ]
            ],
            "config": {
              "filters": 128,
              "data_format": "channels_last",
              "kernel_size": [
                3,
                3
              ],
              "use_bias": true,
              "padding": "same",
              "kernel_regularizer": null,
              "activity_regularizer": null,
              "trainable": true,
              "dilation_rate": [
                1,
                1
              ],
              "kernel_constraint": null,
              "bias_initializer": {
                "class_name": "Zeros",
                "config": {}
              },
              "kernel_initializer": {
                "class_name": "VarianceScaling",
                "config": {
                  "scale": 1.0,
                  "mode": "fan_avg",
                  "seed": null,
                  "distribution": "uniform"
                }
              },
              "bias_constraint": null,
              "activation": "relu",
              "strides": [
                1,
                1
              ],
              "name": "front_residual_x3convBlock_conv_3x3_x2",
              "bias_regularizer": null
            },
            "name": "front_residual_x3convBlock_conv_3x3_x2"
          },
          {
            "class_name": "BatchNormalization",
            "inbound_nodes": [
              [
                [
                  "front_residual_x3convBlock_conv_3x3_x2",
                  0,
                  0,
                  {}
                ]
              ]
            ],
            "config": {
              "scale": true,
              "moving_mean_initializer": {
                "class_name": "Zeros",
                "config": {}
              },
              "axis": -1,
              "center": true,
              "beta_constraint": null,
              "momentum": 0.99,
              "beta_regularizer": null,
              "gamma_constraint": null,
              "trainable": true,
              "gamma_initializer": {
                "class_name": "Ones",
                "config": {}
              },
              "moving_variance_initializer": {
                "class_name": "Ones",
                "config": {}
              },
              "beta_initializer": {
                "class_name": "Zeros",
                "config": {}
              },
              "gamma_regularizer": null,
              "epsilon": 0.001,
              "name": "batch_normalization_105"
            },
            "name": "batch_normalization_105"
          },
          {
            "class_name": "Conv2D",
            "inbound_nodes": [
              [
                [
                  "batch_normalization_105",
                  0,
                  0,
                  {}
                ]
              ]
            ],
            "config": {
              "filters": 256,
              "data_format": "channels_last",
              "kernel_size": [
                1,
                1
              ],
              "use_bias": true,
              "padding": "same",
              "kernel_regularizer": null,
              "activity_regularizer": null,
              "trainable": true,
              "dilation_rate": [
                1,
                1
              ],
              "kernel_constraint": null,
              "bias_initializer": {
                "class_name": "Zeros",
                "config": {}
              },
              "kernel_initializer": {
                "class_name": "VarianceScaling",
                "config": {
                  "scale": 1.0,
                  "mode": "fan_avg",
                  "seed": null,
                  "distribution": "uniform"
                }
              },
              "bias_constraint": null,
              "activation": "relu",
              "strides": [
                1,
                1
              ],
              "name": "front_residual_x3convBlock_conv_1x1_x3",
              "bias_regularizer": null
            },
            "name": "front_residual_x3convBlock_conv_1x1_x3"
          },
          {
            "class_name": "BatchNormalization",
            "inbound_nodes": [
              [
                [
                  "front_residual_x3convBlock_conv_1x1_x3",
                  0,
                  0,
                  {}
                ]
              ]
            ],
            "config": {
              "scale": true,
              "moving_mean_initializer": {
                "class_name": "Zeros",
                "config": {}
              },
              "axis": -1,
              "center": true,
              "beta_constraint": null,
              "momentum": 0.99,
              "beta_regularizer": null,
              "gamma_constraint": null,
              "trainable": true,
              "gamma_initializer": {
                "class_name": "Ones",
                "config": {}
              },
              "moving_variance_initializer": {
                "class_name": "Ones",
                "config": {}
              },
              "beta_initializer": {
                "class_name": "Zeros",
                "config": {}
              },
              "gamma_regularizer": null,
              "epsilon": 0.001,
              "name": "batch_normalization_106"
            },
            "name": "batch_normalization_106"
          },
          {
            "class_name": "Conv2D",
            "inbound_nodes": [
              [
                [
                  "add_43",
                  0,
                  0,
                  {}
                ]
              ]
            ],
            "config": {
              "filters": 256,
              "data_format": "channels_last",
              "kernel_size": [
                1,
                1
              ],
              "use_bias": true,
              "padding": "same",
              "kernel_regularizer": null,
              "activity_regularizer": null,
              "trainable": true,
              "dilation_rate": [
                1,
                1
              ],
              "kernel_constraint": null,
              "bias_initializer": {
                "class_name": "Zeros",
                "config": {}
              },
              "kernel_initializer": {
                "class_name": "VarianceScaling",
                "config": {
                  "scale": 1.0,
                  "mode": "fan_avg",
                  "seed": null,
                  "distribution": "uniform"
                }
              },
              "bias_constraint": null,
              "activation": "relu",
              "strides": [
                1,
                1
              ],
              "name": "front_residual_x3skipLayer_skip_conv",
              "bias_regularizer": null
            },
            "name": "front_residual_x3skipLayer_skip_conv"
          },
          {
            "class_name": "Add",
            "inbound_nodes": [
              [
                [
                  "batch_normalization_106",
                  0,
                  0,
                  {}
                ],
                [
                  "front_residual_x3skipLayer_skip_conv",
                  0,
                  0,
                  {}
                ]
              ]
            ],
            "config": {
              "trainable": true,
              "name": "add_44"
            },
            "name": "add_44"
          },
          {
            "class_name": "Conv2D",
            "inbound_nodes": [
              [
                [
                  "add_44",
                  0,
                  0,
                  {}
                ]
              ]
            ],
            "config": {
              "filters": 128,
              "data_format": "channels_last",
              "kernel_size": [
                1,
                1
              ],
              "use_bias": true,
              "padding": "same",
              "kernel_regularizer": null,
              "activity_regularizer": null,
              "trainable": true,
              "dilation_rate": [
                1,
                1
              ],
              "kernel_constraint": null,
              "bias_initializer": {
                "class_name": "Zeros",
                "config": {}
              },
              "kernel_initializer": {
                "class_name": "VarianceScaling",
                "config": {
                  "scale": 1.0,
                  "mode": "fan_avg",
                  "seed": null,
                  "distribution": "uniform"
                }
              },
              "bias_constraint": null,
              "activation": "relu",
              "strides": [
                1,
                1
              ],
              "name": "hg_0_l1convBlock_conv_1x1_x1",
              "bias_regularizer": null
            },
            "name": "hg_0_l1convBlock_conv_1x1_x1"
          },
          {
            "class_name": "BatchNormalization",
            "inbound_nodes": [
              [
                [
                  "hg_0_l1convBlock_conv_1x1_x1",
                  0,
                  0,
                  {}
                ]
              ]
            ],
            "config": {
              "scale": true,
              "moving_mean_initializer": {
                "class_name": "Zeros",
                "config": {}
              },
              "axis": -1,
              "center": true,
              "beta_constraint": null,
              "momentum": 0.99,
              "beta_regularizer": null,
              "gamma_constraint": null,
              "trainable": true,
              "gamma_initializer": {
                "class_name": "Ones",
                "config": {}
              },
              "moving_variance_initializer": {
                "class_name": "Ones",
                "config": {}
              },
              "beta_initializer": {
                "class_name": "Zeros",
                "config": {}
              },
              "gamma_regularizer": null,
              "epsilon": 0.001,
              "name": "batch_normalization_107"
            },
            "name": "batch_normalization_107"
          },
          {
            "class_name": "Conv2D",
            "inbound_nodes": [
              [
                [
                  "batch_normalization_107",
                  0,
                  0,
                  {}
                ]
              ]
            ],
            "config": {
              "filters": 128,
              "data_format": "channels_last",
              "kernel_size": [
                3,
                3
              ],
              "use_bias": true,
              "padding": "same",
              "kernel_regularizer": null,
              "activity_regularizer": null,
              "trainable": true,
              "dilation_rate": [
                1,
                1
              ],
              "kernel_constraint": null,
              "bias_initializer": {
                "class_name": "Zeros",
                "config": {}
              },
              "kernel_initializer": {
                "class_name": "VarianceScaling",
                "config": {
                  "scale": 1.0,
                  "mode": "fan_avg",
                  "seed": null,
                  "distribution": "uniform"
                }
              },
              "bias_constraint": null,
              "activation": "relu",
              "strides": [
                1,
                1
              ],
              "name": "hg_0_l1convBlock_conv_3x3_x2",
              "bias_regularizer": null
            },
            "name": "hg_0_l1convBlock_conv_3x3_x2"
          },
          {
            "class_name": "BatchNormalization",
            "inbound_nodes": [
              [
                [
                  "hg_0_l1convBlock_conv_3x3_x2",
                  0,
                  0,
                  {}
                ]
              ]
            ],
            "config": {
              "scale": true,
              "moving_mean_initializer": {
                "class_name": "Zeros",
                "config": {}
              },
              "axis": -1,
              "center": true,
              "beta_constraint": null,
              "momentum": 0.99,
              "beta_regularizer": null,
              "gamma_constraint": null,
              "trainable": true,
              "gamma_initializer": {
                "class_name": "Ones",
                "config": {}
              },
              "moving_variance_initializer": {
                "class_name": "Ones",
                "config": {}
              },
              "beta_initializer": {
                "class_name": "Zeros",
                "config": {}
              },
              "gamma_regularizer": null,
              "epsilon": 0.001,
              "name": "batch_normalization_108"
            },
            "name": "batch_normalization_108"
          },
          {
            "class_name": "Conv2D",
            "inbound_nodes": [
              [
                [
                  "batch_normalization_108",
                  0,
                  0,
                  {}
                ]
              ]
            ],
            "config": {
              "filters": 256,
              "data_format": "channels_last",
              "kernel_size": [
                1,
                1
              ],
              "use_bias": true,
              "padding": "same",
              "kernel_regularizer": null,
              "activity_regularizer": null,
              "trainable": true,
              "dilation_rate": [
                1,
                1
              ],
              "kernel_constraint": null,
              "bias_initializer": {
                "class_name": "Zeros",
                "config": {}
              },
              "kernel_initializer": {
                "class_name": "VarianceScaling",
                "config": {
                  "scale": 1.0,
                  "mode": "fan_avg",
                  "seed": null,
                  "distribution": "uniform"
                }
              },
              "bias_constraint": null,
              "activation": "relu",
              "strides": [
                1,
                1
              ],
              "name": "hg_0_l1convBlock_conv_1x1_x3",
              "bias_regularizer": null
            },
            "name": "hg_0_l1convBlock_conv_1x1_x3"
          },
          {
            "class_name": "BatchNormalization",
            "inbound_nodes": [
              [
                [
                  "hg_0_l1convBlock_conv_1x1_x3",
                  0,
                  0,
                  {}
                ]
              ]
            ],
            "config": {
              "scale": true,
              "moving_mean_initializer": {
                "class_name": "Zeros",
                "config": {}
              },
              "axis": -1,
              "center": true,
              "beta_constraint": null,
              "momentum": 0.99,
              "beta_regularizer": null,
              "gamma_constraint": null,
              "trainable": true,
              "gamma_initializer": {
                "class_name": "Ones",
                "config": {}
              },
              "moving_variance_initializer": {
                "class_name": "Ones",
                "config": {}
              },
              "beta_initializer": {
                "class_name": "Zeros",
                "config": {}
              },
              "gamma_regularizer": null,
              "epsilon": 0.001,
              "name": "batch_normalization_109"
            },
            "name": "batch_normalization_109"
          },
          {
            "class_name": "Add",
            "inbound_nodes": [
              [
                [
                  "batch_normalization_109",
                  0,
                  0,
                  {}
                ],
                [
                  "add_44",
                  0,
                  0,
                  {}
                ]
              ]
            ],
            "config": {
              "trainable": true,
              "name": "add_45"
            },
            "name": "add_45"
          },
          {
            "class_name": "MaxPooling2D",
            "inbound_nodes": [
              [
                [
                  "add_45",
                  0,
                  0,
                  {}
                ]
              ]
            ],
            "config": {
              "trainable": true,
              "data_format": "channels_last",
              "pool_size": [
                2,
                2
              ],
              "padding": "valid",
              "strides": [
                2,
                2
              ],
              "name": "max_pooling2d_9"
            },
            "name": "max_pooling2d_9"
          },
          {
            "class_name": "Conv2D",
            "inbound_nodes": [
              [
                [
                  "max_pooling2d_9",
                  0,
                  0,
                  {}
                ]
              ]
            ],
            "config": {
              "filters": 128,
              "data_format": "channels_last",
              "kernel_size": [
                1,
                1
              ],
              "use_bias": true,
              "padding": "same",
              "kernel_regularizer": null,
              "activity_regularizer": null,
              "trainable": true,
              "dilation_rate": [
                1,
                1
              ],
              "kernel_constraint": null,
              "bias_initializer": {
                "class_name": "Zeros",
                "config": {}
              },
              "kernel_initializer": {
                "class_name": "VarianceScaling",
                "config": {
                  "scale": 1.0,
                  "mode": "fan_avg",
                  "seed": null,
                  "distribution": "uniform"
                }
              },
              "bias_constraint": null,
              "activation": "relu",
              "strides": [
                1,
                1
              ],
              "name": "hg_0_l2convBlock_conv_1x1_x1",
              "bias_regularizer": null
            },
            "name": "hg_0_l2convBlock_conv_1x1_x1"
          },
          {
            "class_name": "BatchNormalization",
            "inbound_nodes": [
              [
                [
                  "hg_0_l2convBlock_conv_1x1_x1",
                  0,
                  0,
                  {}
                ]
              ]
            ],
            "config": {
              "scale": true,
              "moving_mean_initializer": {
                "class_name": "Zeros",
                "config": {}
              },
              "axis": -1,
              "center": true,
              "beta_constraint": null,
              "momentum": 0.99,
              "beta_regularizer": null,
              "gamma_constraint": null,
              "trainable": true,
              "gamma_initializer": {
                "class_name": "Ones",
                "config": {}
              },
              "moving_variance_initializer": {
                "class_name": "Ones",
                "config": {}
              },
              "beta_initializer": {
                "class_name": "Zeros",
                "config": {}
              },
              "gamma_regularizer": null,
              "epsilon": 0.001,
              "name": "batch_normalization_110"
            },
            "name": "batch_normalization_110"
          },
          {
            "class_name": "Conv2D",
            "inbound_nodes": [
              [
                [
                  "batch_normalization_110",
                  0,
                  0,
                  {}
                ]
              ]
            ],
            "config": {
              "filters": 128,
              "data_format": "channels_last",
              "kernel_size": [
                3,
                3
              ],
              "use_bias": true,
              "padding": "same",
              "kernel_regularizer": null,
              "activity_regularizer": null,
              "trainable": true,
              "dilation_rate": [
                1,
                1
              ],
              "kernel_constraint": null,
              "bias_initializer": {
                "class_name": "Zeros",
                "config": {}
              },
              "kernel_initializer": {
                "class_name": "VarianceScaling",
                "config": {
                  "scale": 1.0,
                  "mode": "fan_avg",
                  "seed": null,
                  "distribution": "uniform"
                }
              },
              "bias_constraint": null,
              "activation": "relu",
              "strides": [
                1,
                1
              ],
              "name": "hg_0_l2convBlock_conv_3x3_x2",
              "bias_regularizer": null
            },
            "name": "hg_0_l2convBlock_conv_3x3_x2"
          },
          {
            "class_name": "BatchNormalization",
            "inbound_nodes": [
              [
                [
                  "hg_0_l2convBlock_conv_3x3_x2",
                  0,
                  0,
                  {}
                ]
              ]
            ],
            "config": {
              "scale": true,
              "moving_mean_initializer": {
                "class_name": "Zeros",
                "config": {}
              },
              "axis": -1,
              "center": true,
              "beta_constraint": null,
              "momentum": 0.99,
              "beta_regularizer": null,
              "gamma_constraint": null,
              "trainable": true,
              "gamma_initializer": {
                "class_name": "Ones",
                "config": {}
              },
              "moving_variance_initializer": {
                "class_name": "Ones",
                "config": {}
              },
              "beta_initializer": {
                "class_name": "Zeros",
                "config": {}
              },
              "gamma_regularizer": null,
              "epsilon": 0.001,
              "name": "batch_normalization_111"
            },
            "name": "batch_normalization_111"
          },
          {
            "class_name": "Conv2D",
            "inbound_nodes": [
              [
                [
                  "batch_normalization_111",
                  0,
                  0,
                  {}
                ]
              ]
            ],
            "config": {
              "filters": 256,
              "data_format": "channels_last",
              "kernel_size": [
                1,
                1
              ],
              "use_bias": true,
              "padding": "same",
              "kernel_regularizer": null,
              "activity_regularizer": null,
              "trainable": true,
              "dilation_rate": [
                1,
                1
              ],
              "kernel_constraint": null,
              "bias_initializer": {
                "class_name": "Zeros",
                "config": {}
              },
              "kernel_initializer": {
                "class_name": "VarianceScaling",
                "config": {
                  "scale": 1.0,
                  "mode": "fan_avg",
                  "seed": null,
                  "distribution": "uniform"
                }
              },
              "bias_constraint": null,
              "activation": "relu",
              "strides": [
                1,
                1
              ],
              "name": "hg_0_l2convBlock_conv_1x1_x3",
              "bias_regularizer": null
            },
            "name": "hg_0_l2convBlock_conv_1x1_x3"
          },
          {
            "class_name": "BatchNormalization",
            "inbound_nodes": [
              [
                [
                  "hg_0_l2convBlock_conv_1x1_x3",
                  0,
                  0,
                  {}
                ]
              ]
            ],
            "config": {
              "scale": true,
              "moving_mean_initializer": {
                "class_name": "Zeros",
                "config": {}
              },
              "axis": -1,
              "center": true,
              "beta_constraint": null,
              "momentum": 0.99,
              "beta_regularizer": null,
              "gamma_constraint": null,
              "trainable": true,
              "gamma_initializer": {
                "class_name": "Ones",
                "config": {}
              },
              "moving_variance_initializer": {
                "class_name": "Ones",
                "config": {}
              },
              "beta_initializer": {
                "class_name": "Zeros",
                "config": {}
              },
              "gamma_regularizer": null,
              "epsilon": 0.001,
              "name": "batch_normalization_112"
            },
            "name": "batch_normalization_112"
          },
          {
            "class_name": "Add",
            "inbound_nodes": [
              [
                [
                  "batch_normalization_112",
                  0,
                  0,
                  {}
                ],
                [
                  "max_pooling2d_9",
                  0,
                  0,
                  {}
                ]
              ]
            ],
            "config": {
              "trainable": true,
              "name": "add_46"
            },
            "name": "add_46"
          },
          {
            "class_name": "MaxPooling2D",
            "inbound_nodes": [
              [
                [
                  "add_46",
                  0,
                  0,
                  {}
                ]
              ]
            ],
            "config": {
              "trainable": true,
              "data_format": "channels_last",
              "pool_size": [
                2,
                2
              ],
              "padding": "valid",
              "strides": [
                2,
                2
              ],
              "name": "max_pooling2d_10"
            },
            "name": "max_pooling2d_10"
          },
          {
            "class_name": "Conv2D",
            "inbound_nodes": [
              [
                [
                  "max_pooling2d_10",
                  0,
                  0,
                  {}
                ]
              ]
            ],
            "config": {
              "filters": 128,
              "data_format": "channels_last",
              "kernel_size": [
                1,
                1
              ],
              "use_bias": true,
              "padding": "same",
              "kernel_regularizer": null,
              "activity_regularizer": null,
              "trainable": true,
              "dilation_rate": [
                1,
                1
              ],
              "kernel_constraint": null,
              "bias_initializer": {
                "class_name": "Zeros",
                "config": {}
              },
              "kernel_initializer": {
                "class_name": "VarianceScaling",
                "config": {
                  "scale": 1.0,
                  "mode": "fan_avg",
                  "seed": null,
                  "distribution": "uniform"
                }
              },
              "bias_constraint": null,
              "activation": "relu",
              "strides": [
                1,
                1
              ],
              "name": "hg_0_l4convBlock_conv_1x1_x1",
              "bias_regularizer": null
            },
            "name": "hg_0_l4convBlock_conv_1x1_x1"
          },
          {
            "class_name": "BatchNormalization",
            "inbound_nodes": [
              [
                [
                  "hg_0_l4convBlock_conv_1x1_x1",
                  0,
                  0,
                  {}
                ]
              ]
            ],
            "config": {
              "scale": true,
              "moving_mean_initializer": {
                "class_name": "Zeros",
                "config": {}
              },
              "axis": -1,
              "center": true,
              "beta_constraint": null,
              "momentum": 0.99,
              "beta_regularizer": null,
              "gamma_constraint": null,
              "trainable": true,
              "gamma_initializer": {
                "class_name": "Ones",
                "config": {}
              },
              "moving_variance_initializer": {
                "class_name": "Ones",
                "config": {}
              },
              "beta_initializer": {
                "class_name": "Zeros",
                "config": {}
              },
              "gamma_regularizer": null,
              "epsilon": 0.001,
              "name": "batch_normalization_113"
            },
            "name": "batch_normalization_113"
          },
          {
            "class_name": "Conv2D",
            "inbound_nodes": [
              [
                [
                  "batch_normalization_113",
                  0,
                  0,
                  {}
                ]
              ]
            ],
            "config": {
              "filters": 128,
              "data_format": "channels_last",
              "kernel_size": [
                3,
                3
              ],
              "use_bias": true,
              "padding": "same",
              "kernel_regularizer": null,
              "activity_regularizer": null,
              "trainable": true,
              "dilation_rate": [
                1,
                1
              ],
              "kernel_constraint": null,
              "bias_initializer": {
                "class_name": "Zeros",
                "config": {}
              },
              "kernel_initializer": {
                "class_name": "VarianceScaling",
                "config": {
                  "scale": 1.0,
                  "mode": "fan_avg",
                  "seed": null,
                  "distribution": "uniform"
                }
              },
              "bias_constraint": null,
              "activation": "relu",
              "strides": [
                1,
                1
              ],
              "name": "hg_0_l4convBlock_conv_3x3_x2",
              "bias_regularizer": null
            },
            "name": "hg_0_l4convBlock_conv_3x3_x2"
          },
          {
            "class_name": "BatchNormalization",
            "inbound_nodes": [
              [
                [
                  "hg_0_l4convBlock_conv_3x3_x2",
                  0,
                  0,
                  {}
                ]
              ]
            ],
            "config": {
              "scale": true,
              "moving_mean_initializer": {
                "class_name": "Zeros",
                "config": {}
              },
              "axis": -1,
              "center": true,
              "beta_constraint": null,
              "momentum": 0.99,
              "beta_regularizer": null,
              "gamma_constraint": null,
              "trainable": true,
              "gamma_initializer": {
                "class_name": "Ones",
                "config": {}
              },
              "moving_variance_initializer": {
                "class_name": "Ones",
                "config": {}
              },
              "beta_initializer": {
                "class_name": "Zeros",
                "config": {}
              },
              "gamma_regularizer": null,
              "epsilon": 0.001,
              "name": "batch_normalization_114"
            },
            "name": "batch_normalization_114"
          },
          {
            "class_name": "Conv2D",
            "inbound_nodes": [
              [
                [
                  "batch_normalization_114",
                  0,
                  0,
                  {}
                ]
              ]
            ],
            "config": {
              "filters": 256,
              "data_format": "channels_last",
              "kernel_size": [
                1,
                1
              ],
              "use_bias": true,
              "padding": "same",
              "kernel_regularizer": null,
              "activity_regularizer": null,
              "trainable": true,
              "dilation_rate": [
                1,
                1
              ],
              "kernel_constraint": null,
              "bias_initializer": {
                "class_name": "Zeros",
                "config": {}
              },
              "kernel_initializer": {
                "class_name": "VarianceScaling",
                "config": {
                  "scale": 1.0,
                  "mode": "fan_avg",
                  "seed": null,
                  "distribution": "uniform"
                }
              },
              "bias_constraint": null,
              "activation": "relu",
              "strides": [
                1,
                1
              ],
              "name": "hg_0_l4convBlock_conv_1x1_x3",
              "bias_regularizer": null
            },
            "name": "hg_0_l4convBlock_conv_1x1_x3"
          },
          {
            "class_name": "BatchNormalization",
            "inbound_nodes": [
              [
                [
                  "hg_0_l4convBlock_conv_1x1_x3",
                  0,
                  0,
                  {}
                ]
              ]
            ],
            "config": {
              "scale": true,
              "moving_mean_initializer": {
                "class_name": "Zeros",
                "config": {}
              },
              "axis": -1,
              "center": true,
              "beta_constraint": null,
              "momentum": 0.99,
              "beta_regularizer": null,
              "gamma_constraint": null,
              "trainable": true,
              "gamma_initializer": {
                "class_name": "Ones",
                "config": {}
              },
              "moving_variance_initializer": {
                "class_name": "Ones",
                "config": {}
              },
              "beta_initializer": {
                "class_name": "Zeros",
                "config": {}
              },
              "gamma_regularizer": null,
              "epsilon": 0.001,
              "name": "batch_normalization_115"
            },
            "name": "batch_normalization_115"
          },
          {
            "class_name": "Add",
            "inbound_nodes": [
              [
                [
                  "batch_normalization_115",
                  0,
                  0,
                  {}
                ],
                [
                  "max_pooling2d_10",
                  0,
                  0,
                  {}
                ]
              ]
            ],
            "config": {
              "trainable": true,
              "name": "add_47"
            },
            "name": "add_47"
          },
          {
            "class_name": "MaxPooling2D",
            "inbound_nodes": [
              [
                [
                  "add_47",
                  0,
                  0,
                  {}
                ]
              ]
            ],
            "config": {
              "trainable": true,
              "data_format": "channels_last",
              "pool_size": [
                2,
                2
              ],
              "padding": "valid",
              "strides": [
                2,
                2
              ],
              "name": "max_pooling2d_11"
            },
            "name": "max_pooling2d_11"
          },
          {
            "class_name": "Conv2D",
            "inbound_nodes": [
              [
                [
                  "max_pooling2d_11",
                  0,
                  0,
                  {}
                ]
              ]
            ],
            "config": {
              "filters": 128,
              "data_format": "channels_last",
              "kernel_size": [
                1,
                1
              ],
              "use_bias": true,
              "padding": "same",
              "kernel_regularizer": null,
              "activity_regularizer": null,
              "trainable": true,
              "dilation_rate": [
                1,
                1
              ],
              "kernel_constraint": null,
              "bias_initializer": {
                "class_name": "Zeros",
                "config": {}
              },
              "kernel_initializer": {
                "class_name": "VarianceScaling",
                "config": {
                  "scale": 1.0,
                  "mode": "fan_avg",
                  "seed": null,
                  "distribution": "uniform"
                }
              },
              "bias_constraint": null,
              "activation": "relu",
              "strides": [
                1,
                1
              ],
              "name": "hg_0_l8convBlock_conv_1x1_x1",
              "bias_regularizer": null
            },
            "name": "hg_0_l8convBlock_conv_1x1_x1"
          },
          {
            "class_name": "BatchNormalization",
            "inbound_nodes": [
              [
                [
                  "hg_0_l8convBlock_conv_1x1_x1",
                  0,
                  0,
                  {}
                ]
              ]
            ],
            "config": {
              "scale": true,
              "moving_mean_initializer": {
                "class_name": "Zeros",
                "config": {}
              },
              "axis": -1,
              "center": true,
              "beta_constraint": null,
              "momentum": 0.99,
              "beta_regularizer": null,
              "gamma_constraint": null,
              "trainable": true,
              "gamma_initializer": {
                "class_name": "Ones",
                "config": {}
              },
              "moving_variance_initializer": {
                "class_name": "Ones",
                "config": {}
              },
              "beta_initializer": {
                "class_name": "Zeros",
                "config": {}
              },
              "gamma_regularizer": null,
              "epsilon": 0.001,
              "name": "batch_normalization_116"
            },
            "name": "batch_normalization_116"
          },
          {
            "class_name": "Conv2D",
            "inbound_nodes": [
              [
                [
                  "batch_normalization_116",
                  0,
                  0,
                  {}
                ]
              ]
            ],
            "config": {
              "filters": 128,
              "data_format": "channels_last",
              "kernel_size": [
                3,
                3
              ],
              "use_bias": true,
              "padding": "same",
              "kernel_regularizer": null,
              "activity_regularizer": null,
              "trainable": true,
              "dilation_rate": [
                1,
                1
              ],
              "kernel_constraint": null,
              "bias_initializer": {
                "class_name": "Zeros",
                "config": {}
              },
              "kernel_initializer": {
                "class_name": "VarianceScaling",
                "config": {
                  "scale": 1.0,
                  "mode": "fan_avg",
                  "seed": null,
                  "distribution": "uniform"
                }
              },
              "bias_constraint": null,
              "activation": "relu",
              "strides": [
                1,
                1
              ],
              "name": "hg_0_l8convBlock_conv_3x3_x2",
              "bias_regularizer": null
            },
            "name": "hg_0_l8convBlock_conv_3x3_x2"
          },
          {
            "class_name": "BatchNormalization",
            "inbound_nodes": [
              [
                [
                  "hg_0_l8convBlock_conv_3x3_x2",
                  0,
                  0,
                  {}
                ]
              ]
            ],
            "config": {
              "scale": true,
              "moving_mean_initializer": {
                "class_name": "Zeros",
                "config": {}
              },
              "axis": -1,
              "center": true,
              "beta_constraint": null,
              "momentum": 0.99,
              "beta_regularizer": null,
              "gamma_constraint": null,
              "trainable": true,
              "gamma_initializer": {
                "class_name": "Ones",
                "config": {}
              },
              "moving_variance_initializer": {
                "class_name": "Ones",
                "config": {}
              },
              "beta_initializer": {
                "class_name": "Zeros",
                "config": {}
              },
              "gamma_regularizer": null,
              "epsilon": 0.001,
              "name": "batch_normalization_117"
            },
            "name": "batch_normalization_117"
          },
          {
            "class_name": "Conv2D",
            "inbound_nodes": [
              [
                [
                  "batch_normalization_117",
                  0,
                  0,
                  {}
                ]
              ]
            ],
            "config": {
              "filters": 256,
              "data_format": "channels_last",
              "kernel_size": [
                1,
                1
              ],
              "use_bias": true,
              "padding": "same",
              "kernel_regularizer": null,
              "activity_regularizer": null,
              "trainable": true,
              "dilation_rate": [
                1,
                1
              ],
              "kernel_constraint": null,
              "bias_initializer": {
                "class_name": "Zeros",
                "config": {}
              },
              "kernel_initializer": {
                "class_name": "VarianceScaling",
                "config": {
                  "scale": 1.0,
                  "mode": "fan_avg",
                  "seed": null,
                  "distribution": "uniform"
                }
              },
              "bias_constraint": null,
              "activation": "relu",
              "strides": [
                1,
                1
              ],
              "name": "hg_0_l8convBlock_conv_1x1_x3",
              "bias_regularizer": null
            },
            "name": "hg_0_l8convBlock_conv_1x1_x3"
          },
          {
            "class_name": "BatchNormalization",
            "inbound_nodes": [
              [
                [
                  "hg_0_l8convBlock_conv_1x1_x3",
                  0,
                  0,
                  {}
                ]
              ]
            ],
            "config": {
              "scale": true,
              "moving_mean_initializer": {
                "class_name": "Zeros",
                "config": {}
              },
              "axis": -1,
              "center": true,
              "beta_constraint": null,
              "momentum": 0.99,
              "beta_regularizer": null,
              "gamma_constraint": null,
              "trainable": true,
              "gamma_initializer": {
                "class_name": "Ones",
                "config": {}
              },
              "moving_variance_initializer": {
                "class_name": "Ones",
                "config": {}
              },
              "beta_initializer": {
                "class_name": "Zeros",
                "config": {}
              },
              "gamma_regularizer": null,
              "epsilon": 0.001,
              "name": "batch_normalization_118"
            },
            "name": "batch_normalization_118"
          },
          {
            "class_name": "Add",
            "inbound_nodes": [
              [
                [
                  "batch_normalization_118",
                  0,
                  0,
                  {}
                ],
                [
                  "max_pooling2d_11",
                  0,
                  0,
                  {}
                ]
              ]
            ],
            "config": {
              "trainable": true,
              "name": "add_48"
            },
            "name": "add_48"
          },
          {
            "class_name": "Conv2D",
            "inbound_nodes": [
              [
                [
                  "add_48",
                  0,
                  0,
                  {}
                ]
              ]
            ],
            "config": {
              "filters": 128,
              "data_format": "channels_last",
              "kernel_size": [
                1,
                1
              ],
              "use_bias": true,
              "padding": "same",
              "kernel_regularizer": null,
              "activity_regularizer": null,
              "trainable": true,
              "dilation_rate": [
                1,
                1
              ],
              "kernel_constraint": null,
              "bias_initializer": {
                "class_name": "Zeros",
                "config": {}
              },
              "kernel_initializer": {
                "class_name": "VarianceScaling",
                "config": {
                  "scale": 1.0,
                  "mode": "fan_avg",
                  "seed": null,
                  "distribution": "uniform"
                }
              },
              "bias_constraint": null,
              "activation": "relu",
              "strides": [
                1,
                1
              ],
              "name": "hg_0lf8_resi_x1_convBlock_conv_1x1_x1",
              "bias_regularizer": null
            },
            "name": "hg_0lf8_resi_x1_convBlock_conv_1x1_x1"
          },
          {
            "class_name": "BatchNormalization",
            "inbound_nodes": [
              [
                [
                  "hg_0lf8_resi_x1_convBlock_conv_1x1_x1",
                  0,
                  0,
                  {}
                ]
              ]
            ],
            "config": {
              "scale": true,
              "moving_mean_initializer": {
                "class_name": "Zeros",
                "config": {}
              },
              "axis": -1,
              "center": true,
              "beta_constraint": null,
              "momentum": 0.99,
              "beta_regularizer": null,
              "gamma_constraint": null,
              "trainable": true,
              "gamma_initializer": {
                "class_name": "Ones",
                "config": {}
              },
              "moving_variance_initializer": {
                "class_name": "Ones",
                "config": {}
              },
              "beta_initializer": {
                "class_name": "Zeros",
                "config": {}
              },
              "gamma_regularizer": null,
              "epsilon": 0.001,
              "name": "batch_normalization_122"
            },
            "name": "batch_normalization_122"
          },
          {
            "class_name": "Conv2D",
            "inbound_nodes": [
              [
                [
                  "batch_normalization_122",
                  0,
                  0,
                  {}
                ]
              ]
            ],
            "config": {
              "filters": 128,
              "data_format": "channels_last",
              "kernel_size": [
                3,
                3
              ],
              "use_bias": true,
              "padding": "same",
              "kernel_regularizer": null,
              "activity_regularizer": null,
              "trainable": true,
              "dilation_rate": [
                1,
                1
              ],
              "kernel_constraint": null,
              "bias_initializer": {
                "class_name": "Zeros",
                "config": {}
              },
              "kernel_initializer": {
                "class_name": "VarianceScaling",
                "config": {
                  "scale": 1.0,
                  "mode": "fan_avg",
                  "seed": null,
                  "distribution": "uniform"
                }
              },
              "bias_constraint": null,
              "activation": "relu",
              "strides": [
                1,
                1
              ],
              "name": "hg_0lf8_resi_x1_convBlock_conv_3x3_x2",
              "bias_regularizer": null
            },
            "name": "hg_0lf8_resi_x1_convBlock_conv_3x3_x2"
          },
          {
            "class_name": "BatchNormalization",
            "inbound_nodes": [
              [
                [
                  "hg_0lf8_resi_x1_convBlock_conv_3x3_x2",
                  0,
                  0,
                  {}
                ]
              ]
            ],
            "config": {
              "scale": true,
              "moving_mean_initializer": {
                "class_name": "Zeros",
                "config": {}
              },
              "axis": -1,
              "center": true,
              "beta_constraint": null,
              "momentum": 0.99,
              "beta_regularizer": null,
              "gamma_constraint": null,
              "trainable": true,
              "gamma_initializer": {
                "class_name": "Ones",
                "config": {}
              },
              "moving_variance_initializer": {
                "class_name": "Ones",
                "config": {}
              },
              "beta_initializer": {
                "class_name": "Zeros",
                "config": {}
              },
              "gamma_regularizer": null,
              "epsilon": 0.001,
              "name": "batch_normalization_123"
            },
            "name": "batch_normalization_123"
          },
          {
            "class_name": "Conv2D",
            "inbound_nodes": [
              [
                [
                  "batch_normalization_123",
                  0,
                  0,
                  {}
                ]
              ]
            ],
            "config": {
              "filters": 256,
              "data_format": "channels_last",
              "kernel_size": [
                1,
                1
              ],
              "use_bias": true,
              "padding": "same",
              "kernel_regularizer": null,
              "activity_regularizer": null,
              "trainable": true,
              "dilation_rate": [
                1,
                1
              ],
              "kernel_constraint": null,
              "bias_initializer": {
                "class_name": "Zeros",
                "config": {}
              },
              "kernel_initializer": {
                "class_name": "VarianceScaling",
                "config": {
                  "scale": 1.0,
                  "mode": "fan_avg",
                  "seed": null,
                  "distribution": "uniform"
                }
              },
              "bias_constraint": null,
              "activation": "relu",
              "strides": [
                1,
                1
              ],
              "name": "hg_0lf8_resi_x1_convBlock_conv_1x1_x3",
              "bias_regularizer": null
            },
            "name": "hg_0lf8_resi_x1_convBlock_conv_1x1_x3"
          },
          {
            "class_name": "BatchNormalization",
            "inbound_nodes": [
              [
                [
                  "hg_0lf8_resi_x1_convBlock_conv_1x1_x3",
                  0,
                  0,
                  {}
                ]
              ]
            ],
            "config": {
              "scale": true,
              "moving_mean_initializer": {
                "class_name": "Zeros",
                "config": {}
              },
              "axis": -1,
              "center": true,
              "beta_constraint": null,
              "momentum": 0.99,
              "beta_regularizer": null,
              "gamma_constraint": null,
              "trainable": true,
              "gamma_initializer": {
                "class_name": "Ones",
                "config": {}
              },
              "moving_variance_initializer": {
                "class_name": "Ones",
                "config": {}
              },
              "beta_initializer": {
                "class_name": "Zeros",
                "config": {}
              },
              "gamma_regularizer": null,
              "epsilon": 0.001,
              "name": "batch_normalization_124"
            },
            "name": "batch_normalization_124"
          },
          {
            "class_name": "Add",
            "inbound_nodes": [
              [
                [
                  "batch_normalization_124",
                  0,
                  0,
                  {}
                ],
                [
                  "add_48",
                  0,
                  0,
                  {}
                ]
              ]
            ],
            "config": {
              "trainable": true,
              "name": "add_50"
            },
            "name": "add_50"
          },
          {
            "class_name": "Conv2D",
            "inbound_nodes": [
              [
                [
                  "add_50",
                  0,
                  0,
                  {}
                ]
              ]
            ],
            "config": {
              "filters": 128,
              "data_format": "channels_last",
              "kernel_size": [
                1,
                1
              ],
              "use_bias": true,
              "padding": "same",
              "kernel_regularizer": null,
              "activity_regularizer": null,
              "trainable": true,
              "dilation_rate": [
                1,
                1
              ],
              "kernel_constraint": null,
              "bias_initializer": {
                "class_name": "Zeros",
                "config": {}
              },
              "kernel_initializer": {
                "class_name": "VarianceScaling",
                "config": {
                  "scale": 1.0,
                  "mode": "fan_avg",
                  "seed": null,
                  "distribution": "uniform"
                }
              },
              "bias_constraint": null,
              "activation": "relu",
              "strides": [
                1,
                1
              ],
              "name": "hg_0lf8_resi_x2_convBlock_conv_1x1_x1",
              "bias_regularizer": null
            },
            "name": "hg_0lf8_resi_x2_convBlock_conv_1x1_x1"
          },
          {
            "class_name": "BatchNormalization",
            "inbound_nodes": [
              [
                [
                  "hg_0lf8_resi_x2_convBlock_conv_1x1_x1",
                  0,
                  0,
                  {}
                ]
              ]
            ],
            "config": {
              "scale": true,
              "moving_mean_initializer": {
                "class_name": "Zeros",
                "config": {}
              },
              "axis": -1,
              "center": true,
              "beta_constraint": null,
              "momentum": 0.99,
              "beta_regularizer": null,
              "gamma_constraint": null,
              "trainable": true,
              "gamma_initializer": {
                "class_name": "Ones",
                "config": {}
              },
              "moving_variance_initializer": {
                "class_name": "Ones",
                "config": {}
              },
              "beta_initializer": {
                "class_name": "Zeros",
                "config": {}
              },
              "gamma_regularizer": null,
              "epsilon": 0.001,
              "name": "batch_normalization_125"
            },
            "name": "batch_normalization_125"
          },
          {
            "class_name": "Conv2D",
            "inbound_nodes": [
              [
                [
                  "batch_normalization_125",
                  0,
                  0,
                  {}
                ]
              ]
            ],
            "config": {
              "filters": 128,
              "data_format": "channels_last",
              "kernel_size": [
                3,
                3
              ],
              "use_bias": true,
              "padding": "same",
              "kernel_regularizer": null,
              "activity_regularizer": null,
              "trainable": true,
              "dilation_rate": [
                1,
                1
              ],
              "kernel_constraint": null,
              "bias_initializer": {
                "class_name": "Zeros",
                "config": {}
              },
              "kernel_initializer": {
                "class_name": "VarianceScaling",
                "config": {
                  "scale": 1.0,
                  "mode": "fan_avg",
                  "seed": null,
                  "distribution": "uniform"
                }
              },
              "bias_constraint": null,
              "activation": "relu",
              "strides": [
                1,
                1
              ],
              "name": "hg_0lf8_resi_x2_convBlock_conv_3x3_x2",
              "bias_regularizer": null
            },
            "name": "hg_0lf8_resi_x2_convBlock_conv_3x3_x2"
          },
          {
            "class_name": "BatchNormalization",
            "inbound_nodes": [
              [
                [
                  "hg_0lf8_resi_x2_convBlock_conv_3x3_x2",
                  0,
                  0,
                  {}
                ]
              ]
            ],
            "config": {
              "scale": true,
              "moving_mean_initializer": {
                "class_name": "Zeros",
                "config": {}
              },
              "axis": -1,
              "center": true,
              "beta_constraint": null,
              "momentum": 0.99,
              "beta_regularizer": null,
              "gamma_constraint": null,
              "trainable": true,
              "gamma_initializer": {
                "class_name": "Ones",
                "config": {}
              },
              "moving_variance_initializer": {
                "class_name": "Ones",
                "config": {}
              },
              "beta_initializer": {
                "class_name": "Zeros",
                "config": {}
              },
              "gamma_regularizer": null,
              "epsilon": 0.001,
              "name": "batch_normalization_126"
            },
            "name": "batch_normalization_126"
          },
          {
            "class_name": "Conv2D",
            "inbound_nodes": [
              [
                [
                  "batch_normalization_126",
                  0,
                  0,
                  {}
                ]
              ]
            ],
            "config": {
              "filters": 256,
              "data_format": "channels_last",
              "kernel_size": [
                1,
                1
              ],
              "use_bias": true,
              "padding": "same",
              "kernel_regularizer": null,
              "activity_regularizer": null,
              "trainable": true,
              "dilation_rate": [
                1,
                1
              ],
              "kernel_constraint": null,
              "bias_initializer": {
                "class_name": "Zeros",
                "config": {}
              },
              "kernel_initializer": {
                "class_name": "VarianceScaling",
                "config": {
                  "scale": 1.0,
                  "mode": "fan_avg",
                  "seed": null,
                  "distribution": "uniform"
                }
              },
              "bias_constraint": null,
              "activation": "relu",
              "strides": [
                1,
                1
              ],
              "name": "hg_0lf8_resi_x2_convBlock_conv_1x1_x3",
              "bias_regularizer": null
            },
            "name": "hg_0lf8_resi_x2_convBlock_conv_1x1_x3"
          },
          {
            "class_name": "BatchNormalization",
            "inbound_nodes": [
              [
                [
                  "hg_0lf8_resi_x2_convBlock_conv_1x1_x3",
                  0,
                  0,
                  {}
                ]
              ]
            ],
            "config": {
              "scale": true,
              "moving_mean_initializer": {
                "class_name": "Zeros",
                "config": {}
              },
              "axis": -1,
              "center": true,
              "beta_constraint": null,
              "momentum": 0.99,
              "beta_regularizer": null,
              "gamma_constraint": null,
              "trainable": true,
              "gamma_initializer": {
                "class_name": "Ones",
                "config": {}
              },
              "moving_variance_initializer": {
                "class_name": "Ones",
                "config": {}
              },
              "beta_initializer": {
                "class_name": "Zeros",
                "config": {}
              },
              "gamma_regularizer": null,
              "epsilon": 0.001,
              "name": "batch_normalization_127"
            },
            "name": "batch_normalization_127"
          },
          {
            "class_name": "Add",
            "inbound_nodes": [
              [
                [
                  "batch_normalization_127",
                  0,
                  0,
                  {}
                ],
                [
                  "add_50",
                  0,
                  0,
                  {}
                ]
              ]
            ],
            "config": {
              "trainable": true,
              "name": "add_51"
            },
            "name": "add_51"
          },
          {
            "class_name": "Conv2D",
            "inbound_nodes": [
              [
                [
                  "add_51",
                  0,
                  0,
                  {}
                ]
              ]
            ],
            "config": {
              "filters": 128,
              "data_format": "channels_last",
              "kernel_size": [
                1,
                1
              ],
              "use_bias": true,
              "padding": "same",
              "kernel_regularizer": null,
              "activity_regularizer": null,
              "trainable": true,
              "dilation_rate": [
                1,
                1
              ],
              "kernel_constraint": null,
              "bias_initializer": {
                "class_name": "Zeros",
                "config": {}
              },
              "kernel_initializer": {
                "class_name": "VarianceScaling",
                "config": {
                  "scale": 1.0,
                  "mode": "fan_avg",
                  "seed": null,
                  "distribution": "uniform"
                }
              },
              "bias_constraint": null,
              "activation": "relu",
              "strides": [
                1,
                1
              ],
              "name": "hg_0lf8_resi_x3_convBlock_conv_1x1_x1",
              "bias_regularizer": null
            },
            "name": "hg_0lf8_resi_x3_convBlock_conv_1x1_x1"
          },
          {
            "class_name": "Conv2D",
            "inbound_nodes": [
              [
                [
                  "add_48",
                  0,
                  0,
                  {}
                ]
              ]
            ],
            "config": {
              "filters": 128,
              "data_format": "channels_last",
              "kernel_size": [
                1,
                1
              ],
              "use_bias": true,
              "padding": "same",
              "kernel_regularizer": null,
              "activity_regularizer": null,
              "trainable": true,
              "dilation_rate": [
                1,
                1
              ],
              "kernel_constraint": null,
              "bias_initializer": {
                "class_name": "Zeros",
                "config": {}
              },
              "kernel_initializer": {
                "class_name": "VarianceScaling",
                "config": {
                  "scale": 1.0,
                  "mode": "fan_avg",
                  "seed": null,
                  "distribution": "uniform"
                }
              },
              "bias_constraint": null,
              "activation": "relu",
              "strides": [
                1,
                1
              ],
              "name": "hg_0_lf8convBlock_conv_1x1_x1",
              "bias_regularizer": null
            },
            "name": "hg_0_lf8convBlock_conv_1x1_x1"
          },
          {
            "class_name": "BatchNormalization",
            "inbound_nodes": [
              [
                [
                  "hg_0lf8_resi_x3_convBlock_conv_1x1_x1",
                  0,
                  0,
                  {}
                ]
              ]
            ],
            "config": {
              "scale": true,
              "moving_mean_initializer": {
                "class_name": "Zeros",
                "config": {}
              },
              "axis": -1,
              "center": true,
              "beta_constraint": null,
              "momentum": 0.99,
              "beta_regularizer": null,
              "gamma_constraint": null,
              "trainable": true,
              "gamma_initializer": {
                "class_name": "Ones",
                "config": {}
              },
              "moving_variance_initializer": {
                "class_name": "Ones",
                "config": {}
              },
              "beta_initializer": {
                "class_name": "Zeros",
                "config": {}
              },
              "gamma_regularizer": null,
              "epsilon": 0.001,
              "name": "batch_normalization_128"
            },
            "name": "batch_normalization_128"
          },
          {
            "class_name": "BatchNormalization",
            "inbound_nodes": [
              [
                [
                  "hg_0_lf8convBlock_conv_1x1_x1",
                  0,
                  0,
                  {}
                ]
              ]
            ],
            "config": {
              "scale": true,
              "moving_mean_initializer": {
                "class_name": "Zeros",
                "config": {}
              },
              "axis": -1,
              "center": true,
              "beta_constraint": null,
              "momentum": 0.99,
              "beta_regularizer": null,
              "gamma_constraint": null,
              "trainable": true,
              "gamma_initializer": {
                "class_name": "Ones",
                "config": {}
              },
              "moving_variance_initializer": {
                "class_name": "Ones",
                "config": {}
              },
              "beta_initializer": {
                "class_name": "Zeros",
                "config": {}
              },
              "gamma_regularizer": null,
              "epsilon": 0.001,
              "name": "batch_normalization_119"
            },
            "name": "batch_normalization_119"
          },
          {
            "class_name": "Conv2D",
            "inbound_nodes": [
              [
                [
                  "add_47",
                  0,
                  0,
                  {}
                ]
              ]
            ],
            "config": {
              "filters": 128,
              "data_format": "channels_last",
              "kernel_size": [
                1,
                1
              ],
              "use_bias": true,
              "padding": "same",
              "kernel_regularizer": null,
              "activity_regularizer": null,
              "trainable": true,
              "dilation_rate": [
                1,
                1
              ],
              "kernel_constraint": null,
              "bias_initializer": {
                "class_name": "Zeros",
                "config": {}
              },
              "kernel_initializer": {
                "class_name": "VarianceScaling",
                "config": {
                  "scale": 1.0,
                  "mode": "fan_avg",
                  "seed": null,
                  "distribution": "uniform"
                }
              },
              "bias_constraint": null,
              "activation": "relu",
              "strides": [
                1,
                1
              ],
              "name": "hg_0_rf4_connect_left_resi_convBlock_conv_1x1_x1",
              "bias_regularizer": null
            },
            "name": "hg_0_rf4_connect_left_resi_convBlock_conv_1x1_x1"
          },
          {
            "class_name": "Conv2D",
            "inbound_nodes": [
              [
                [
                  "batch_normalization_128",
                  0,
                  0,
                  {}
                ]
              ]
            ],
            "config": {
              "filters": 128,
              "data_format": "channels_last",
              "kernel_size": [
                3,
                3
              ],
              "use_bias": true,
              "padding": "same",
              "kernel_regularizer": null,
              "activity_regularizer": null,
              "trainable": true,
              "dilation_rate": [
                1,
                1
              ],
              "kernel_constraint": null,
              "bias_initializer": {
                "class_name": "Zeros",
                "config": {}
              },
              "kernel_initializer": {
                "class_name": "VarianceScaling",
                "config": {
                  "scale": 1.0,
                  "mode": "fan_avg",
                  "seed": null,
                  "distribution": "uniform"
                }
              },
              "bias_constraint": null,
              "activation": "relu",
              "strides": [
                1,
                1
              ],
              "name": "hg_0lf8_resi_x3_convBlock_conv_3x3_x2",
              "bias_regularizer": null
            },
            "name": "hg_0lf8_resi_x3_convBlock_conv_3x3_x2"
          },
          {
            "class_name": "Conv2D",
            "inbound_nodes": [
              [
                [
                  "batch_normalization_119",
                  0,
                  0,
                  {}
                ]
              ]
            ],
            "config": {
              "filters": 128,
              "data_format": "channels_last",
              "kernel_size": [
                3,
                3
              ],
              "use_bias": true,
              "padding": "same",
              "kernel_regularizer": null,
              "activity_regularizer": null,
              "trainable": true,
              "dilation_rate": [
                1,
                1
              ],
              "kernel_constraint": null,
              "bias_initializer": {
                "class_name": "Zeros",
                "config": {}
              },
              "kernel_initializer": {
                "class_name": "VarianceScaling",
                "config": {
                  "scale": 1.0,
                  "mode": "fan_avg",
                  "seed": null,
                  "distribution": "uniform"
                }
              },
              "bias_constraint": null,
              "activation": "relu",
              "strides": [
                1,
                1
              ],
              "name": "hg_0_lf8convBlock_conv_3x3_x2",
              "bias_regularizer": null
            },
            "name": "hg_0_lf8convBlock_conv_3x3_x2"
          },
          {
            "class_name": "BatchNormalization",
            "inbound_nodes": [
              [
                [
                  "hg_0_rf4_connect_left_resi_convBlock_conv_1x1_x1",
                  0,
                  0,
                  {}
                ]
              ]
            ],
            "config": {
              "scale": true,
              "moving_mean_initializer": {
                "class_name": "Zeros",
                "config": {}
              },
              "axis": -1,
              "center": true,
              "beta_constraint": null,
              "momentum": 0.99,
              "beta_regularizer": null,
              "gamma_constraint": null,
              "trainable": true,
              "gamma_initializer": {
                "class_name": "Ones",
                "config": {}
              },
              "moving_variance_initializer": {
                "class_name": "Ones",
                "config": {}
              },
              "beta_initializer": {
                "class_name": "Zeros",
                "config": {}
              },
              "gamma_regularizer": null,
              "epsilon": 0.001,
              "name": "batch_normalization_131"
            },
            "name": "batch_normalization_131"
          },
          {
            "class_name": "BatchNormalization",
            "inbound_nodes": [
              [
                [
                  "hg_0lf8_resi_x3_convBlock_conv_3x3_x2",
                  0,
                  0,
                  {}
                ]
              ]
            ],
            "config": {
              "scale": true,
              "moving_mean_initializer": {
                "class_name": "Zeros",
                "config": {}
              },
              "axis": -1,
              "center": true,
              "beta_constraint": null,
              "momentum": 0.99,
              "beta_regularizer": null,
              "gamma_constraint": null,
              "trainable": true,
              "gamma_initializer": {
                "class_name": "Ones",
                "config": {}
              },
              "moving_variance_initializer": {
                "class_name": "Ones",
                "config": {}
              },
              "beta_initializer": {
                "class_name": "Zeros",
                "config": {}
              },
              "gamma_regularizer": null,
              "epsilon": 0.001,
              "name": "batch_normalization_129"
            },
            "name": "batch_normalization_129"
          },
          {
            "class_name": "BatchNormalization",
            "inbound_nodes": [
              [
                [
                  "hg_0_lf8convBlock_conv_3x3_x2",
                  0,
                  0,
                  {}
                ]
              ]
            ],
            "config": {
              "scale": true,
              "moving_mean_initializer": {
                "class_name": "Zeros",
                "config": {}
              },
              "axis": -1,
              "center": true,
              "beta_constraint": null,
              "momentum": 0.99,
              "beta_regularizer": null,
              "gamma_constraint": null,
              "trainable": true,
              "gamma_initializer": {
                "class_name": "Ones",
                "config": {}
              },
              "moving_variance_initializer": {
                "class_name": "Ones",
                "config": {}
              },
              "beta_initializer": {
                "class_name": "Zeros",
                "config": {}
              },
              "gamma_regularizer": null,
              "epsilon": 0.001,
              "name": "batch_normalization_120"
            },
            "name": "batch_normalization_120"
          },
          {
            "class_name": "Conv2D",
            "inbound_nodes": [
              [
                [
                  "batch_normalization_131",
                  0,
                  0,
                  {}
                ]
              ]
            ],
            "config": {
              "filters": 128,
              "data_format": "channels_last",
              "kernel_size": [
                3,
                3
              ],
              "use_bias": true,
              "padding": "same",
              "kernel_regularizer": null,
              "activity_regularizer": null,
              "trainable": true,
              "dilation_rate": [
                1,
                1
              ],
              "kernel_constraint": null,
              "bias_initializer": {
                "class_name": "Zeros",
                "config": {}
              },
              "kernel_initializer": {
                "class_name": "VarianceScaling",
                "config": {
                  "scale": 1.0,
                  "mode": "fan_avg",
                  "seed": null,
                  "distribution": "uniform"
                }
              },
              "bias_constraint": null,
              "activation": "relu",
              "strides": [
                1,
                1
              ],
              "name": "hg_0_rf4_connect_left_resi_convBlock_conv_3x3_x2",
              "bias_regularizer": null
            },
            "name": "hg_0_rf4_connect_left_resi_convBlock_conv_3x3_x2"
          },
          {
            "class_name": "Conv2D",
            "inbound_nodes": [
              [
                [
                  "batch_normalization_129",
                  0,
                  0,
                  {}
                ]
              ]
            ],
            "config": {
              "filters": 256,
              "data_format": "channels_last",
              "kernel_size": [
                1,
                1
              ],
              "use_bias": true,
              "padding": "same",
              "kernel_regularizer": null,
              "activity_regularizer": null,
              "trainable": true,
              "dilation_rate": [
                1,
                1
              ],
              "kernel_constraint": null,
              "bias_initializer": {
                "class_name": "Zeros",
                "config": {}
              },
              "kernel_initializer": {
                "class_name": "VarianceScaling",
                "config": {
                  "scale": 1.0,
                  "mode": "fan_avg",
                  "seed": null,
                  "distribution": "uniform"
                }
              },
              "bias_constraint": null,
              "activation": "relu",
              "strides": [
                1,
                1
              ],
              "name": "hg_0lf8_resi_x3_convBlock_conv_1x1_x3",
              "bias_regularizer": null
            },
            "name": "hg_0lf8_resi_x3_convBlock_conv_1x1_x3"
          },
          {
            "class_name": "Conv2D",
            "inbound_nodes": [
              [
                [
                  "batch_normalization_120",
                  0,
                  0,
                  {}
                ]
              ]
            ],
            "config": {
              "filters": 256,
              "data_format": "channels_last",
              "kernel_size": [
                1,
                1
              ],
              "use_bias": true,
              "padding": "same",
              "kernel_regularizer": null,
              "activity_regularizer": null,
              "trainable": true,
              "dilation_rate": [
                1,
                1
              ],
              "kernel_constraint": null,
              "bias_initializer": {
                "class_name": "Zeros",
                "config": {}
              },
              "kernel_initializer": {
                "class_name": "VarianceScaling",
                "config": {
                  "scale": 1.0,
                  "mode": "fan_avg",
                  "seed": null,
                  "distribution": "uniform"
                }
              },
              "bias_constraint": null,
              "activation": "relu",
              "strides": [
                1,
                1
              ],
              "name": "hg_0_lf8convBlock_conv_1x1_x3",
              "bias_regularizer": null
            },
            "name": "hg_0_lf8convBlock_conv_1x1_x3"
          },
          {
            "class_name": "BatchNormalization",
            "inbound_nodes": [
              [
                [
                  "hg_0_rf4_connect_left_resi_convBlock_conv_3x3_x2",
                  0,
                  0,
                  {}
                ]
              ]
            ],
            "config": {
              "scale": true,
              "moving_mean_initializer": {
                "class_name": "Zeros",
                "config": {}
              },
              "axis": -1,
              "center": true,
              "beta_constraint": null,
              "momentum": 0.99,
              "beta_regularizer": null,
              "gamma_constraint": null,
              "trainable": true,
              "gamma_initializer": {
                "class_name": "Ones",
                "config": {}
              },
              "moving_variance_initializer": {
                "class_name": "Ones",
                "config": {}
              },
              "beta_initializer": {
                "class_name": "Zeros",
                "config": {}
              },
              "gamma_regularizer": null,
              "epsilon": 0.001,
              "name": "batch_normalization_132"
            },
            "name": "batch_normalization_132"
          },
          {
            "class_name": "BatchNormalization",
            "inbound_nodes": [
              [
                [
                  "hg_0lf8_resi_x3_convBlock_conv_1x1_x3",
                  0,
                  0,
                  {}
                ]
              ]
            ],
            "config": {
              "scale": true,
              "moving_mean_initializer": {
                "class_name": "Zeros",
                "config": {}
              },
              "axis": -1,
              "center": true,
              "beta_constraint": null,
              "momentum": 0.99,
              "beta_regularizer": null,
              "gamma_constraint": null,
              "trainable": true,
              "gamma_initializer": {
                "class_name": "Ones",
                "config": {}
              },
              "moving_variance_initializer": {
                "class_name": "Ones",
                "config": {}
              },
              "beta_initializer": {
                "class_name": "Zeros",
                "config": {}
              },
              "gamma_regularizer": null,
              "epsilon": 0.001,
              "name": "batch_normalization_130"
            },
            "name": "batch_normalization_130"
          },
          {
            "class_name": "BatchNormalization",
            "inbound_nodes": [
              [
                [
                  "hg_0_lf8convBlock_conv_1x1_x3",
                  0,
                  0,
                  {}
                ]
              ]
            ],
            "config": {
              "scale": true,
              "moving_mean_initializer": {
                "class_name": "Zeros",
                "config": {}
              },
              "axis": -1,
              "center": true,
              "beta_constraint": null,
              "momentum": 0.99,
              "beta_regularizer": null,
              "gamma_constraint": null,
              "trainable": true,
              "gamma_initializer": {
                "class_name": "Ones",
                "config": {}
              },
              "moving_variance_initializer": {
                "class_name": "Ones",
                "config": {}
              },
              "beta_initializer": {
                "class_name": "Zeros",
                "config": {}
              },
              "gamma_regularizer": null,
              "epsilon": 0.001,
              "name": "batch_normalization_121"
            },
            "name": "batch_normalization_121"
          },
          {
            "class_name": "Conv2D",
            "inbound_nodes": [
              [
                [
                  "batch_normalization_132",
                  0,
                  0,
                  {}
                ]
              ]
            ],
            "config": {
              "filters": 256,
              "data_format": "channels_last",
              "kernel_size": [
                1,
                1
              ],
              "use_bias": true,
              "padding": "same",
              "kernel_regularizer": null,
              "activity_regularizer": null,
              "trainable": true,
              "dilation_rate": [
                1,
                1
              ],
              "kernel_constraint": null,
              "bias_initializer": {
                "class_name": "Zeros",
                "config": {}
              },
              "kernel_initializer": {
                "class_name": "VarianceScaling",
                "config": {
                  "scale": 1.0,
                  "mode": "fan_avg",
                  "seed": null,
                  "distribution": "uniform"
                }
              },
              "bias_constraint": null,
              "activation": "relu",
              "strides": [
                1,
                1
              ],
              "name": "hg_0_rf4_connect_left_resi_convBlock_conv_1x1_x3",
              "bias_regularizer": null
            },
            "name": "hg_0_rf4_connect_left_resi_convBlock_conv_1x1_x3"
          },
          {
            "class_name": "Add",
            "inbound_nodes": [
              [
                [
                  "batch_normalization_130",
                  0,
                  0,
                  {}
                ],
                [
                  "add_51",
                  0,
                  0,
                  {}
                ]
              ]
            ],
            "config": {
              "trainable": true,
              "name": "add_52"
            },
            "name": "add_52"
          },
          {
            "class_name": "Add",
            "inbound_nodes": [
              [
                [
                  "batch_normalization_121",
                  0,
                  0,
                  {}
                ],
                [
                  "add_48",
                  0,
                  0,
                  {}
                ]
              ]
            ],
            "config": {
              "trainable": true,
              "name": "add_49"
            },
            "name": "add_49"
          },
          {
            "class_name": "BatchNormalization",
            "inbound_nodes": [
              [
                [
                  "hg_0_rf4_connect_left_resi_convBlock_conv_1x1_x3",
                  0,
                  0,
                  {}
                ]
              ]
            ],
            "config": {
              "scale": true,
              "moving_mean_initializer": {
                "class_name": "Zeros",
                "config": {}
              },
              "axis": -1,
              "center": true,
              "beta_constraint": null,
              "momentum": 0.99,
              "beta_regularizer": null,
              "gamma_constraint": null,
              "trainable": true,
              "gamma_initializer": {
                "class_name": "Ones",
                "config": {}
              },
              "moving_variance_initializer": {
                "class_name": "Ones",
                "config": {}
              },
              "beta_initializer": {
                "class_name": "Zeros",
                "config": {}
              },
              "gamma_regularizer": null,
              "epsilon": 0.001,
              "name": "batch_normalization_133"
            },
            "name": "batch_normalization_133"
          },
          {
            "class_name": "Add",
            "inbound_nodes": [
              [
                [
                  "add_52",
                  0,
                  0,
                  {}
                ],
                [
                  "add_49",
                  0,
                  0,
                  {}
                ]
              ]
            ],
            "config": {
              "trainable": true,
              "name": "add_53"
            },
            "name": "add_53"
          },
          {
            "class_name": "Add",
            "inbound_nodes": [
              [
                [
                  "batch_normalization_133",
                  0,
                  0,
                  {}
                ],
                [
                  "add_47",
                  0,
                  0,
                  {}
                ]
              ]
            ],
            "config": {
              "trainable": true,
              "name": "add_54"
            },
            "name": "add_54"
          },
          {
            "class_name": "UpSampling2D",
            "inbound_nodes": [
              [
                [
                  "add_53",
                  0,
                  0,
                  {}
                ]
              ]
            ],
            "config": {
              "trainable": true,
              "data_format": "channels_last",
              "size": [
                2,
                2
              ],
              "name": "up_sampling2d_7"
            },
            "name": "up_sampling2d_7"
          },
          {
            "class_name": "Add",
            "inbound_nodes": [
              [
                [
                  "add_54",
                  0,
                  0,
                  {}
                ],
                [
                  "up_sampling2d_7",
                  0,
                  0,
                  {}
                ]
              ]
            ],
            "config": {
              "trainable": true,
              "name": "add_55"
            },
            "name": "add_55"
          },
          {
            "class_name": "Conv2D",
            "inbound_nodes": [
              [
                [
                  "add_55",
                  0,
                  0,
                  {}
                ]
              ]
            ],
            "config": {
              "filters": 128,
              "data_format": "channels_last",
              "kernel_size": [
                1,
                1
              ],
              "use_bias": true,
              "padding": "same",
              "kernel_regularizer": null,
              "activity_regularizer": null,
              "trainable": true,
              "dilation_rate": [
                1,
                1
              ],
              "kernel_constraint": null,
              "bias_initializer": {
                "class_name": "Zeros",
                "config": {}
              },
              "kernel_initializer": {
                "class_name": "VarianceScaling",
                "config": {
                  "scale": 1.0,
                  "mode": "fan_avg",
                  "seed": null,
                  "distribution": "uniform"
                }
              },
              "bias_constraint": null,
              "activation": "relu",
              "strides": [
                1,
                1
              ],
              "name": "hg_0_rf4_connect_convBlock_conv_1x1_x1",
              "bias_regularizer": null
            },
            "name": "hg_0_rf4_connect_convBlock_conv_1x1_x1"
          },
          {
            "class_name": "Conv2D",
            "inbound_nodes": [
              [
                [
                  "add_46",
                  0,
                  0,
                  {}
                ]
              ]
            ],
            "config": {
              "filters": 128,
              "data_format": "channels_last",
              "kernel_size": [
                1,
                1
              ],
              "use_bias": true,
              "padding": "same",
              "kernel_regularizer": null,
              "activity_regularizer": null,
              "trainable": true,
              "dilation_rate": [
                1,
                1
              ],
              "kernel_constraint": null,
              "bias_initializer": {
                "class_name": "Zeros",
                "config": {}
              },
              "kernel_initializer": {
                "class_name": "VarianceScaling",
                "config": {
                  "scale": 1.0,
                  "mode": "fan_avg",
                  "seed": null,
                  "distribution": "uniform"
                }
              },
              "bias_constraint": null,
              "activation": "relu",
              "strides": [
                1,
                1
              ],
              "name": "hg_0_rf2_connect_left_resi_convBlock_conv_1x1_x1",
              "bias_regularizer": null
            },
            "name": "hg_0_rf2_connect_left_resi_convBlock_conv_1x1_x1"
          },
          {
            "class_name": "BatchNormalization",
            "inbound_nodes": [
              [
                [
                  "hg_0_rf4_connect_convBlock_conv_1x1_x1",
                  0,
                  0,
                  {}
                ]
              ]
            ],
            "config": {
              "scale": true,
              "moving_mean_initializer": {
                "class_name": "Zeros",
                "config": {}
              },
              "axis": -1,
              "center": true,
              "beta_constraint": null,
              "momentum": 0.99,
              "beta_regularizer": null,
              "gamma_constraint": null,
              "trainable": true,
              "gamma_initializer": {
                "class_name": "Ones",
                "config": {}
              },
              "moving_variance_initializer": {
                "class_name": "Ones",
                "config": {}
              },
              "beta_initializer": {
                "class_name": "Zeros",
                "config": {}
              },
              "gamma_regularizer": null,
              "epsilon": 0.001,
              "name": "batch_normalization_134"
            },
            "name": "batch_normalization_134"
          },
          {
            "class_name": "BatchNormalization",
            "inbound_nodes": [
              [
                [
                  "hg_0_rf2_connect_left_resi_convBlock_conv_1x1_x1",
                  0,
                  0,
                  {}
                ]
              ]
            ],
            "config": {
              "scale": true,
              "moving_mean_initializer": {
                "class_name": "Zeros",
                "config": {}
              },
              "axis": -1,
              "center": true,
              "beta_constraint": null,
              "momentum": 0.99,
              "beta_regularizer": null,
              "gamma_constraint": null,
              "trainable": true,
              "gamma_initializer": {
                "class_name": "Ones",
                "config": {}
              },
              "moving_variance_initializer": {
                "class_name": "Ones",
                "config": {}
              },
              "beta_initializer": {
                "class_name": "Zeros",
                "config": {}
              },
              "gamma_regularizer": null,
              "epsilon": 0.001,
              "name": "batch_normalization_137"
            },
            "name": "batch_normalization_137"
          },
          {
            "class_name": "Conv2D",
            "inbound_nodes": [
              [
                [
                  "batch_normalization_134",
                  0,
                  0,
                  {}
                ]
              ]
            ],
            "config": {
              "filters": 128,
              "data_format": "channels_last",
              "kernel_size": [
                3,
                3
              ],
              "use_bias": true,
              "padding": "same",
              "kernel_regularizer": null,
              "activity_regularizer": null,
              "trainable": true,
              "dilation_rate": [
                1,
                1
              ],
              "kernel_constraint": null,
              "bias_initializer": {
                "class_name": "Zeros",
                "config": {}
              },
              "kernel_initializer": {
                "class_name": "VarianceScaling",
                "config": {
                  "scale": 1.0,
                  "mode": "fan_avg",
                  "seed": null,
                  "distribution": "uniform"
                }
              },
              "bias_constraint": null,
              "activation": "relu",
              "strides": [
                1,
                1
              ],
              "name": "hg_0_rf4_connect_convBlock_conv_3x3_x2",
              "bias_regularizer": null
            },
            "name": "hg_0_rf4_connect_convBlock_conv_3x3_x2"
          },
          {
            "class_name": "Conv2D",
            "inbound_nodes": [
              [
                [
                  "batch_normalization_137",
                  0,
                  0,
                  {}
                ]
              ]
            ],
            "config": {
              "filters": 128,
              "data_format": "channels_last",
              "kernel_size": [
                3,
                3
              ],
              "use_bias": true,
              "padding": "same",
              "kernel_regularizer": null,
              "activity_regularizer": null,
              "trainable": true,
              "dilation_rate": [
                1,
                1
              ],
              "kernel_constraint": null,
              "bias_initializer": {
                "class_name": "Zeros",
                "config": {}
              },
              "kernel_initializer": {
                "class_name": "VarianceScaling",
                "config": {
                  "scale": 1.0,
                  "mode": "fan_avg",
                  "seed": null,
                  "distribution": "uniform"
                }
              },
              "bias_constraint": null,
              "activation": "relu",
              "strides": [
                1,
                1
              ],
              "name": "hg_0_rf2_connect_left_resi_convBlock_conv_3x3_x2",
              "bias_regularizer": null
            },
            "name": "hg_0_rf2_connect_left_resi_convBlock_conv_3x3_x2"
          },
          {
            "class_name": "BatchNormalization",
            "inbound_nodes": [
              [
                [
                  "hg_0_rf4_connect_convBlock_conv_3x3_x2",
                  0,
                  0,
                  {}
                ]
              ]
            ],
            "config": {
              "scale": true,
              "moving_mean_initializer": {
                "class_name": "Zeros",
                "config": {}
              },
              "axis": -1,
              "center": true,
              "beta_constraint": null,
              "momentum": 0.99,
              "beta_regularizer": null,
              "gamma_constraint": null,
              "trainable": true,
              "gamma_initializer": {
                "class_name": "Ones",
                "config": {}
              },
              "moving_variance_initializer": {
                "class_name": "Ones",
                "config": {}
              },
              "beta_initializer": {
                "class_name": "Zeros",
                "config": {}
              },
              "gamma_regularizer": null,
              "epsilon": 0.001,
              "name": "batch_normalization_135"
            },
            "name": "batch_normalization_135"
          },
          {
            "class_name": "BatchNormalization",
            "inbound_nodes": [
              [
                [
                  "hg_0_rf2_connect_left_resi_convBlock_conv_3x3_x2",
                  0,
                  0,
                  {}
                ]
              ]
            ],
            "config": {
              "scale": true,
              "moving_mean_initializer": {
                "class_name": "Zeros",
                "config": {}
              },
              "axis": -1,
              "center": true,
              "beta_constraint": null,
              "momentum": 0.99,
              "beta_regularizer": null,
              "gamma_constraint": null,
              "trainable": true,
              "gamma_initializer": {
                "class_name": "Ones",
                "config": {}
              },
              "moving_variance_initializer": {
                "class_name": "Ones",
                "config": {}
              },
              "beta_initializer": {
                "class_name": "Zeros",
                "config": {}
              },
              "gamma_regularizer": null,
              "epsilon": 0.001,
              "name": "batch_normalization_138"
            },
            "name": "batch_normalization_138"
          },
          {
            "class_name": "Conv2D",
            "inbound_nodes": [
              [
                [
                  "batch_normalization_135",
                  0,
                  0,
                  {}
                ]
              ]
            ],
            "config": {
              "filters": 256,
              "data_format": "channels_last",
              "kernel_size": [
                1,
                1
              ],
              "use_bias": true,
              "padding": "same",
              "kernel_regularizer": null,
              "activity_regularizer": null,
              "trainable": true,
              "dilation_rate": [
                1,
                1
              ],
              "kernel_constraint": null,
              "bias_initializer": {
                "class_name": "Zeros",
                "config": {}
              },
              "kernel_initializer": {
                "class_name": "VarianceScaling",
                "config": {
                  "scale": 1.0,
                  "mode": "fan_avg",
                  "seed": null,
                  "distribution": "uniform"
                }
              },
              "bias_constraint": null,
              "activation": "relu",
              "strides": [
                1,
                1
              ],
              "name": "hg_0_rf4_connect_convBlock_conv_1x1_x3",
              "bias_regularizer": null
            },
            "name": "hg_0_rf4_connect_convBlock_conv_1x1_x3"
          },
          {
            "class_name": "Conv2D",
            "inbound_nodes": [
              [
                [
                  "batch_normalization_138",
                  0,
                  0,
                  {}
                ]
              ]
            ],
            "config": {
              "filters": 256,
              "data_format": "channels_last",
              "kernel_size": [
                1,
                1
              ],
              "use_bias": true,
              "padding": "same",
              "kernel_regularizer": null,
              "activity_regularizer": null,
              "trainable": true,
              "dilation_rate": [
                1,
                1
              ],
              "kernel_constraint": null,
              "bias_initializer": {
                "class_name": "Zeros",
                "config": {}
              },
              "kernel_initializer": {
                "class_name": "VarianceScaling",
                "config": {
                  "scale": 1.0,
                  "mode": "fan_avg",
                  "seed": null,
                  "distribution": "uniform"
                }
              },
              "bias_constraint": null,
              "activation": "relu",
              "strides": [
                1,
                1
              ],
              "name": "hg_0_rf2_connect_left_resi_convBlock_conv_1x1_x3",
              "bias_regularizer": null
            },
            "name": "hg_0_rf2_connect_left_resi_convBlock_conv_1x1_x3"
          },
          {
            "class_name": "BatchNormalization",
            "inbound_nodes": [
              [
                [
                  "hg_0_rf4_connect_convBlock_conv_1x1_x3",
                  0,
                  0,
                  {}
                ]
              ]
            ],
            "config": {
              "scale": true,
              "moving_mean_initializer": {
                "class_name": "Zeros",
                "config": {}
              },
              "axis": -1,
              "center": true,
              "beta_constraint": null,
              "momentum": 0.99,
              "beta_regularizer": null,
              "gamma_constraint": null,
              "trainable": true,
              "gamma_initializer": {
                "class_name": "Ones",
                "config": {}
              },
              "moving_variance_initializer": {
                "class_name": "Ones",
                "config": {}
              },
              "beta_initializer": {
                "class_name": "Zeros",
                "config": {}
              },
              "gamma_regularizer": null,
              "epsilon": 0.001,
              "name": "batch_normalization_136"
            },
            "name": "batch_normalization_136"
          },
          {
            "class_name": "BatchNormalization",
            "inbound_nodes": [
              [
                [
                  "hg_0_rf2_connect_left_resi_convBlock_conv_1x1_x3",
                  0,
                  0,
                  {}
                ]
              ]
            ],
            "config": {
              "scale": true,
              "moving_mean_initializer": {
                "class_name": "Zeros",
                "config": {}
              },
              "axis": -1,
              "center": true,
              "beta_constraint": null,
              "momentum": 0.99,
              "beta_regularizer": null,
              "gamma_constraint": null,
              "trainable": true,
              "gamma_initializer": {
                "class_name": "Ones",
                "config": {}
              },
              "moving_variance_initializer": {
                "class_name": "Ones",
                "config": {}
              },
              "beta_initializer": {
                "class_name": "Zeros",
                "config": {}
              },
              "gamma_regularizer": null,
              "epsilon": 0.001,
              "name": "batch_normalization_139"
            },
            "name": "batch_normalization_139"
          },
          {
            "class_name": "Add",
            "inbound_nodes": [
              [
                [
                  "batch_normalization_136",
                  0,
                  0,
                  {}
                ],
                [
                  "add_55",
                  0,
                  0,
                  {}
                ]
              ]
            ],
            "config": {
              "trainable": true,
              "name": "add_56"
            },
            "name": "add_56"
          },
          {
            "class_name": "Add",
            "inbound_nodes": [
              [
                [
                  "batch_normalization_139",
                  0,
                  0,
                  {}
                ],
                [
                  "add_46",
                  0,
                  0,
                  {}
                ]
              ]
            ],
            "config": {
              "trainable": true,
              "name": "add_57"
            },
            "name": "add_57"
          },
          {
            "class_name": "UpSampling2D",
            "inbound_nodes": [
              [
                [
                  "add_56",
                  0,
                  0,
                  {}
                ]
              ]
            ],
            "config": {
              "trainable": true,
              "data_format": "channels_last",
              "size": [
                2,
                2
              ],
              "name": "up_sampling2d_8"
            },
            "name": "up_sampling2d_8"
          },
          {
            "class_name": "Add",
            "inbound_nodes": [
              [
                [
                  "add_57",
                  0,
                  0,
                  {}
                ],
                [
                  "up_sampling2d_8",
                  0,
                  0,
                  {}
                ]
              ]
            ],
            "config": {
              "trainable": true,
              "name": "add_58"
            },
            "name": "add_58"
          },
          {
            "class_name": "Conv2D",
            "inbound_nodes": [
              [
                [
                  "add_58",
                  0,
                  0,
                  {}
                ]
              ]
            ],
            "config": {
              "filters": 128,
              "data_format": "channels_last",
              "kernel_size": [
                1,
                1
              ],
              "use_bias": true,
              "padding": "same",
              "kernel_regularizer": null,
              "activity_regularizer": null,
              "trainable": true,
              "dilation_rate": [
                1,
                1
              ],
              "kernel_constraint": null,
              "bias_initializer": {
                "class_name": "Zeros",
                "config": {}
              },
              "kernel_initializer": {
                "class_name": "VarianceScaling",
                "config": {
                  "scale": 1.0,
                  "mode": "fan_avg",
                  "seed": null,
                  "distribution": "uniform"
                }
              },
              "bias_constraint": null,
              "activation": "relu",
              "strides": [
                1,
                1
              ],
              "name": "hg_0_rf2_connect_convBlock_conv_1x1_x1",
              "bias_regularizer": null
            },
            "name": "hg_0_rf2_connect_convBlock_conv_1x1_x1"
          },
          {
            "class_name": "Conv2D",
            "inbound_nodes": [
              [
                [
                  "add_45",
                  0,
                  0,
                  {}
                ]
              ]
            ],
            "config": {
              "filters": 128,
              "data_format": "channels_last",
              "kernel_size": [
                1,
                1
              ],
              "use_bias": true,
              "padding": "same",
              "kernel_regularizer": null,
              "activity_regularizer": null,
              "trainable": true,
              "dilation_rate": [
                1,
                1
              ],
              "kernel_constraint": null,
              "bias_initializer": {
                "class_name": "Zeros",
                "config": {}
              },
              "kernel_initializer": {
                "class_name": "VarianceScaling",
                "config": {
                  "scale": 1.0,
                  "mode": "fan_avg",
                  "seed": null,
                  "distribution": "uniform"
                }
              },
              "bias_constraint": null,
              "activation": "relu",
              "strides": [
                1,
                1
              ],
              "name": "hg_0_rf1_connect_left_resi_convBlock_conv_1x1_x1",
              "bias_regularizer": null
            },
            "name": "hg_0_rf1_connect_left_resi_convBlock_conv_1x1_x1"
          },
          {
            "class_name": "BatchNormalization",
            "inbound_nodes": [
              [
                [
                  "hg_0_rf2_connect_convBlock_conv_1x1_x1",
                  0,
                  0,
                  {}
                ]
              ]
            ],
            "config": {
              "scale": true,
              "moving_mean_initializer": {
                "class_name": "Zeros",
                "config": {}
              },
              "axis": -1,
              "center": true,
              "beta_constraint": null,
              "momentum": 0.99,
              "beta_regularizer": null,
              "gamma_constraint": null,
              "trainable": true,
              "gamma_initializer": {
                "class_name": "Ones",
                "config": {}
              },
              "moving_variance_initializer": {
                "class_name": "Ones",
                "config": {}
              },
              "beta_initializer": {
                "class_name": "Zeros",
                "config": {}
              },
              "gamma_regularizer": null,
              "epsilon": 0.001,
              "name": "batch_normalization_140"
            },
            "name": "batch_normalization_140"
          },
          {
            "class_name": "BatchNormalization",
            "inbound_nodes": [
              [
                [
                  "hg_0_rf1_connect_left_resi_convBlock_conv_1x1_x1",
                  0,
                  0,
                  {}
                ]
              ]
            ],
            "config": {
              "scale": true,
              "moving_mean_initializer": {
                "class_name": "Zeros",
                "config": {}
              },
              "axis": -1,
              "center": true,
              "beta_constraint": null,
              "momentum": 0.99,
              "beta_regularizer": null,
              "gamma_constraint": null,
              "trainable": true,
              "gamma_initializer": {
                "class_name": "Ones",
                "config": {}
              },
              "moving_variance_initializer": {
                "class_name": "Ones",
                "config": {}
              },
              "beta_initializer": {
                "class_name": "Zeros",
                "config": {}
              },
              "gamma_regularizer": null,
              "epsilon": 0.001,
              "name": "batch_normalization_143"
            },
            "name": "batch_normalization_143"
          },
          {
            "class_name": "Conv2D",
            "inbound_nodes": [
              [
                [
                  "batch_normalization_140",
                  0,
                  0,
                  {}
                ]
              ]
            ],
            "config": {
              "filters": 128,
              "data_format": "channels_last",
              "kernel_size": [
                3,
                3
              ],
              "use_bias": true,
              "padding": "same",
              "kernel_regularizer": null,
              "activity_regularizer": null,
              "trainable": true,
              "dilation_rate": [
                1,
                1
              ],
              "kernel_constraint": null,
              "bias_initializer": {
                "class_name": "Zeros",
                "config": {}
              },
              "kernel_initializer": {
                "class_name": "VarianceScaling",
                "config": {
                  "scale": 1.0,
                  "mode": "fan_avg",
                  "seed": null,
                  "distribution": "uniform"
                }
              },
              "bias_constraint": null,
              "activation": "relu",
              "strides": [
                1,
                1
              ],
              "name": "hg_0_rf2_connect_convBlock_conv_3x3_x2",
              "bias_regularizer": null
            },
            "name": "hg_0_rf2_connect_convBlock_conv_3x3_x2"
          },
          {
            "class_name": "Conv2D",
            "inbound_nodes": [
              [
                [
                  "batch_normalization_143",
                  0,
                  0,
                  {}
                ]
              ]
            ],
            "config": {
              "filters": 128,
              "data_format": "channels_last",
              "kernel_size": [
                3,
                3
…
          "name": "batch_normalization_180/beta",
          "shape": [
            128
          ],
          "dtype": "float32"
        },
        {
          "name": "batch_normalization_180/moving_mean",
          "shape": [
            128
          ],
          "dtype": "float32"
        },
        {
          "name": "batch_normalization_180/moving_variance",
          "shape": [
            128
          ],
          "dtype": "float32"
        },
        {
          "name": "batch_normalization_181/gamma",
          "shape": [
            128
          ],
          "dtype": "float32"
        },
        {
          "name": "batch_normalization_181/beta",
          "shape": [
            128
          ],
          "dtype": "float32"
        },
        {
          "name": "batch_normalization_181/moving_mean",
          "shape": [
            128
          ],
          "dtype": "float32"
        },
        {
          "name": "batch_normalization_181/moving_variance",
          "shape": [
            128
          ],
          "dtype": "float32"
        },
        {
          "name": "batch_normalization_182/gamma",
          "shape": [
            256
          ],
          "dtype": "float32"
        },
        {
          "name": "batch_normalization_182/beta",
          "shape": [
            256
          ],
          "dtype": "float32"
        },
        {
          "name": "batch_normalization_182/moving_mean",
          "shape": [
            256
          ],
          "dtype": "float32"
        },
        {
          "name": "batch_normalization_182/moving_variance",
          "shape": [
            256
          ],
          "dtype": "float32"
        },
        {
          "name": "batch_normalization_183/gamma",
          "shape": [
            128
          ],
          "dtype": "float32"
        },
        {
          "name": "batch_normalization_183/beta",
          "shape": [
            128
          ],
          "dtype": "float32"
        },
        {
          "name": "batch_normalization_183/moving_mean",
          "shape": [
            128
          ],
          "dtype": "float32"
        },
        {
          "name": "batch_normalization_183/moving_variance",
          "shape": [
            128
          ],
          "dtype": "float32"
        },
        {
          "name": "batch_normalization_184/gamma",
          "shape": [
            128
          ],
          "dtype": "float32"
        },
        {
          "name": "batch_normalization_184/beta",
          "shape": [
            128
          ],
          "dtype": "float32"
        },
        {
          "name": "batch_normalization_184/moving_mean",
          "shape": [
            128
          ],
          "dtype": "float32"
        },
        {
          "name": "batch_normalization_184/moving_variance",
          "shape": [
            128
          ],
          "dtype": "float32"
        },
        {
          "name": "batch_normalization_185/gamma",
          "shape": [
            256
          ],
          "dtype": "float32"
        },
        {
          "name": "batch_normalization_185/beta",
          "shape": [
            256
          ],
          "dtype": "float32"
        },
        {
          "name": "batch_normalization_185/moving_mean",
          "shape": [
            256
          ],
          "dtype": "float32"
        },
        {
          "name": "batch_normalization_185/moving_variance",
          "shape": [
            256
          ],
          "dtype": "float32"
        },
        {
          "name": "batch_normalization_186/gamma",
          "shape": [
            128
          ],
          "dtype": "float32"
        },
        {
          "name": "batch_normalization_186/beta",
          "shape": [
            128
          ],
          "dtype": "float32"
        },
        {
          "name": "batch_normalization_186/moving_mean",
          "shape": [
            128
          ],
          "dtype": "float32"
        },
        {
          "name": "batch_normalization_186/moving_variance",
          "shape": [
            128
          ],
          "dtype": "float32"
        },
        {
          "name": "batch_normalization_187/gamma",
          "shape": [
            128
          ],
          "dtype": "float32"
        },
        {
          "name": "batch_normalization_187/beta",
          "shape": [
            128
          ],
          "dtype": "float32"
        },
        {
          "name": "batch_normalization_187/moving_mean",
          "shape": [
            128
          ],
          "dtype": "float32"
        },
        {
          "name": "batch_normalization_187/moving_variance",
          "shape": [
            128
          ],
          "dtype": "float32"
        },
        {
          "name": "batch_normalization_188/gamma",
          "shape": [
            256
          ],
          "dtype": "float32"
        },
        {
          "name": "batch_normalization_188/beta",
          "shape": [
            256
          ],
          "dtype": "float32"
        },
        {
          "name": "batch_normalization_188/moving_mean",
          "shape": [
            256
          ],
          "dtype": "float32"
        },
        {
          "name": "batch_normalization_188/moving_variance",
          "shape": [
            256
          ],
          "dtype": "float32"
        },
        {
          "name": "batch_normalization_189/gamma",
          "shape": [
            128
          ],
          "dtype": "float32"
        },
        {
          "name": "batch_normalization_189/beta",
          "shape": [
            128
          ],
          "dtype": "float32"
        },
        {
          "name": "batch_normalization_189/moving_mean",
          "shape": [
            128
          ],
          "dtype": "float32"
        },
        {
          "name": "batch_normalization_189/moving_variance",
          "shape": [
            128
          ],
          "dtype": "float32"
        },
        {
          "name": "batch_normalization_190/gamma",
          "shape": [
            128
          ],
          "dtype": "float32"
        },
        {
          "name": "batch_normalization_190/beta",
          "shape": [
            128
          ],
          "dtype": "float32"
        },
        {
          "name": "batch_normalization_190/moving_mean",
          "shape": [
            128
          ],
          "dtype": "float32"
        },
        {
          "name": "batch_normalization_190/moving_variance",
          "shape": [
            128
          ],
          "dtype": "float32"
        },
        {
          "name": "batch_normalization_191/gamma",
          "shape": [
            256
          ],
          "dtype": "float32"
        },
        {
          "name": "batch_normalization_191/beta",
          "shape": [
            256
          ],
          "dtype": "float32"
        },
        {
          "name": "batch_normalization_191/moving_mean",
          "shape": [
            256
          ],
          "dtype": "float32"
        },
        {
          "name": "batch_normalization_191/moving_variance",
          "shape": [
            256
          ],
          "dtype": "float32"
        },
        {
          "name": "batch_normalization_192/gamma",
          "shape": [
            256
          ],
          "dtype": "float32"
        },
        {
          "name": "batch_normalization_192/beta",
          "shape": [
            256
          ],
          "dtype": "float32"
        },
        {
          "name": "batch_normalization_192/moving_mean",
          "shape": [
            256
          ],
          "dtype": "float32"
        },
        {
          "name": "batch_normalization_192/moving_variance",
          "shape": [
            256
          ],
          "dtype": "float32"
        },
        {
          "name": "batch_normalization_97/gamma",
          "shape": [
            64
          ],
          "dtype": "float32"
        },
        {
          "name": "batch_normalization_97/beta",
          "shape": [
            64
          ],
          "dtype": "float32"
        },
        {
          "name": "batch_normalization_97/moving_mean",
          "shape": [
            64
          ],
          "dtype": "float32"
        },
        {
          "name": "batch_normalization_97/moving_variance",
          "shape": [
            64
          ],
          "dtype": "float32"
        },
        {
          "name": "batch_normalization_98/gamma",
          "shape": [
            64
          ],
          "dtype": "float32"
        },
        {
          "name": "batch_normalization_98/beta",
          "shape": [
            64
          ],
          "dtype": "float32"
        },
        {
          "name": "batch_normalization_98/moving_mean",
          "shape": [
            64
          ],
          "dtype": "float32"
        },
        {
          "name": "batch_normalization_98/moving_variance",
          "shape": [
            64
          ],
          "dtype": "float32"
        },
        {
          "name": "batch_normalization_99/gamma",
          "shape": [
            64
          ],
          "dtype": "float32"
        },
        {
          "name": "batch_normalization_99/beta",
          "shape": [
            64
          ],
          "dtype": "float32"
        },
        {
          "name": "batch_normalization_99/moving_mean",
          "shape": [
            64
          ],
          "dtype": "float32"
        },
        {
          "name": "batch_normalization_99/moving_variance",
          "shape": [
            64
          ],
          "dtype": "float32"
        },
        {
          "name": "front_conv_7x7_x1/kernel",
          "shape": [
            7,
            7,
            3,
            64
          ],
          "dtype": "float32"
        },
        {
          "name": "front_conv_7x7_x1/bias",
          "shape": [
            64
          ],
          "dtype": "float32"
        },
        {
          "name": "front_residual_x1convBlock_conv_1x1_x1/kernel",
          "shape": [
            1,
            1,
            64,
            64
          ],
          "dtype": "float32"
        },
        {
          "name": "front_residual_x1convBlock_conv_1x1_x1/bias",
          "shape": [
            64
          ],
          "dtype": "float32"
        },
        {
          "name": "front_residual_x1convBlock_conv_1x1_x3/kernel",
          "shape": [
            1,
            1,
            64,
            128
          ],
          "dtype": "float32"
        },
        {
          "name": "front_residual_x1convBlock_conv_1x1_x3/bias",
          "shape": [
            128
          ],
          "dtype": "float32"
        },
        {
          "name": "front_residual_x1convBlock_conv_3x3_x2/kernel",
          "shape": [
            3,
            3,
            64,
            64
          ],
          "dtype": "float32"
        },
        {
          "name": "front_residual_x1convBlock_conv_3x3_x2/bias",
          "shape": [
            64
          ],
          "dtype": "float32"
        },
        {
          "name": "front_residual_x1skipLayer_skip_conv/kernel",
          "shape": [
            1,
            1,
            64,
            128
          ],
          "dtype": "float32"
        },
        {
          "name": "front_residual_x1skipLayer_skip_conv/bias",
          "shape": [
            128
          ],
          "dtype": "float32"
        },
        {
          "name": "front_residual_x2convBlock_conv_1x1_x1/kernel",
          "shape": [
            1,
            1,
            128,
            64
          ],
          "dtype": "float32"
        },
        {
          "name": "front_residual_x2convBlock_conv_1x1_x1/bias",
          "shape": [
            64
          ],
          "dtype": "float32"
        },
        {
          "name": "front_residual_x2convBlock_conv_1x1_x3/kernel",
          "shape": [
            1,
            1,
            64,
            128
          ],
          "dtype": "float32"
        },
        {
          "name": "front_residual_x2convBlock_conv_1x1_x3/bias",
          "shape": [
            128
          ],
          "dtype": "float32"
        },
        {
          "name": "front_residual_x2convBlock_conv_3x3_x2/kernel",
          "shape": [
            3,
            3,
            64,
            64
          ],
          "dtype": "float32"
        },
        {
          "name": "front_residual_x2convBlock_conv_3x3_x2/bias",
          "shape": [
            64
          ],
          "dtype": "float32"
        },
        {
          "name": "front_residual_x3convBlock_conv_1x1_x1/kernel",
          "shape": [
            1,
            1,
            128,
            128
          ],
          "dtype": "float32"
        },
        {
          "name": "front_residual_x3convBlock_conv_1x1_x1/bias",
          "shape": [
            128
          ],
          "dtype": "float32"
        },
        {
          "name": "front_residual_x3convBlock_conv_1x1_x3/kernel",
          "shape": [
            1,
            1,
            128,
            256
          ],
          "dtype": "float32"
        },
        {
          "name": "front_residual_x3convBlock_conv_1x1_x3/bias",
          "shape": [
            256
          ],
          "dtype": "float32"
        },
        {
          "name": "front_residual_x3convBlock_conv_3x3_x2/kernel",
          "shape": [
            3,
            3,
            128,
            128
          ],
          "dtype": "float32"
        },
        {
          "name": "front_residual_x3convBlock_conv_3x3_x2/bias",
          "shape": [
            128
          ],
          "dtype": "float32"
        },
        {
          "name": "front_residual_x3skipLayer_skip_conv/kernel",
          "shape": [
            1,
            1,
            128,
            256
          ],
          "dtype": "float32"
        },
        {
          "name": "front_residual_x3skipLayer_skip_conv/bias",
          "shape": [
            256
          ],
          "dtype": "float32"
        },
        {
          "name": "head_0_conv_1x1_parts/kernel",
          "shape": [
            1,
            1,
            256,
            16
          ],
          "dtype": "float32"
        },
        {
          "name": "head_0_conv_1x1_parts/bias",
          "shape": [
            16
          ],
          "dtype": "float32"
        },
        {
          "name": "head_0_conv_1x1_x1/kernel",
          "shape": [
            1,
            1,
            256,
            256
          ],
          "dtype": "float32"
        },
        {
          "name": "head_0_conv_1x1_x1/bias",
          "shape": [
            256
          ],
          "dtype": "float32"
        },
        {
          "name": "head_0_conv_1x1_x2/kernel",
          "shape": [
            1,
            1,
            256,
            256
          ],
          "dtype": "float32"
        },
        {
          "name": "head_0_conv_1x1_x2/bias",
          "shape": [
            256
          ],
          "dtype": "float32"
        },
        {
          "name": "head_0_conv_1x1_x3/kernel",
          "shape": [
            1,
            1,
            16,
            256
          ],
          "dtype": "float32"
        },
        {
          "name": "head_0_conv_1x1_x3/bias",
          "shape": [
            256
          ],
          "dtype": "float32"
        },
        {
          "name": "head_1_conv_1x1_parts/kernel",
          "shape": [
            1,
            1,
            256,
            16
          ],
          "dtype": "float32"
        },
        {
          "name": "head_1_conv_1x1_parts/bias",
          "shape": [
            16
          ],
          "dtype": "float32"
        },
        {
          "name": "head_1_conv_1x1_x1/kernel",
          "shape": [
            1,
            1,
            256,
            256
          ],
          "dtype": "float32"
        },
        {
          "name": "head_1_conv_1x1_x1/bias",
          "shape": [
            256
          ],
          "dtype": "float32"
        },
        {
          "name": "hg_0_l1convBlock_conv_1x1_x1/kernel",
          "shape": [
            1,
            1,
            256,
            128
          ],
          "dtype": "float32"
        },
        {
          "name": "hg_0_l1convBlock_conv_1x1_x1/bias",
          "shape": [
            128
          ],
          "dtype": "float32"
        },
        {
          "name": "hg_0_l1convBlock_conv_1x1_x3/kernel",
          "shape": [
            1,
            1,
            128,
            256
          ],
          "dtype": "float32"
        },
        {
          "name": "hg_0_l1convBlock_conv_1x1_x3/bias",
          "shape": [
            256
          ],
          "dtype": "float32"
        },
        {
          "name": "hg_0_l1convBlock_conv_3x3_x2/kernel",
          "shape": [
            3,
            3,
            128,
            128
          ],
          "dtype": "float32"
        },
        {
          "name": "hg_0_l1convBlock_conv_3x3_x2/bias",
          "shape": [
            128
          ],
          "dtype": "float32"
        },
        {
          "name": "hg_0_l2convBlock_conv_1x1_x1/kernel",
          "shape": [
            1,
            1,
            256,
            128
          ],
          "dtype": "float32"
        },
        {
          "name": "hg_0_l2convBlock_conv_1x1_x1/bias",
          "shape": [
            128
          ],
          "dtype": "float32"
        },
        {
          "name": "hg_0_l2convBlock_conv_1x1_x3/kernel",
          "shape": [
            1,
            1,
            128,
            256
          ],
          "dtype": "float32"
        },
        {
          "name": "hg_0_l2convBlock_conv_1x1_x3/bias",
          "shape": [
            256
          ],
          "dtype": "float32"
        },
        {
          "name": "hg_0_l2convBlock_conv_3x3_x2/kernel",
          "shape": [
            3,
            3,
            128,
            128
          ],
          "dtype": "float32"
        },
        {
          "name": "hg_0_l2convBlock_conv_3x3_x2/bias",
          "shape": [
            128
          ],
          "dtype": "float32"
        },
        {
          "name": "hg_0_l4convBlock_conv_1x1_x1/kernel",
          "shape": [
            1,
            1,
            256,
            128
          ],
          "dtype": "float32"
        },
        {
          "name": "hg_0_l4convBlock_conv_1x1_x1/bias",
          "shape": [
            128
          ],
          "dtype": "float32"
        },
        {
          "name": "hg_0_l4convBlock_conv_1x1_x3/kernel",
          "shape": [
            1,
            1,
            128,
            256
          ],
          "dtype": "float32"
        },
        {
          "name": "hg_0_l4convBlock_conv_1x1_x3/bias",
          "shape": [
            256
          ],
          "dtype": "float32"
        },
        {
          "name": "hg_0_l4convBlock_conv_3x3_x2/kernel",
          "shape": [
            3,
            3,
            128,
            128
          ],
          "dtype": "float32"
        },
        {
          "name": "hg_0_l4convBlock_conv_3x3_x2/bias",
          "shape": [
            128
          ],
          "dtype": "float32"
        },
        {
          "name": "hg_0_l8convBlock_conv_1x1_x1/kernel",
          "shape": [
            1,
            1,
            256,
            128
          ],
          "dtype": "float32"
        },
        {
          "name": "hg_0_l8convBlock_conv_1x1_x1/bias",
          "shape": [
            128
          ],
          "dtype": "float32"
        },
        {
          "name": "hg_0_l8convBlock_conv_1x1_x3/kernel",
          "shape": [
            1,
            1,
            128,
            256
          ],
          "dtype": "float32"
        },
        {
          "name": "hg_0_l8convBlock_conv_1x1_x3/bias",
          "shape": [
            256
          ],
          "dtype": "float32"
        },
        {
          "name": "hg_0_l8convBlock_conv_3x3_x2/kernel",
          "shape": [
            3,
            3,
            128,
            128
          ],
          "dtype": "float32"
        },
        {
          "name": "hg_0_l8convBlock_conv_3x3_x2/bias",
          "shape": [
            128
          ],
          "dtype": "float32"
        },
        {
          "name": "hg_0_lf8convBlock_conv_1x1_x1/kernel",
          "shape": [
            1,
            1,
            256,
            128
          ],
          "dtype": "float32"
        },
        {
          "name": "hg_0_lf8convBlock_conv_1x1_x1/bias",
          "shape": [
            128
          ],
          "dtype": "float32"
        },
        {
          "name": "hg_0_lf8convBlock_conv_1x1_x3/kernel",
          "shape": [
            1,
            1,
            128,
            256
          ],
          "dtype": "float32"
        },
        {
          "name": "hg_0_lf8convBlock_conv_1x1_x3/bias",
          "shape": [
            256
          ],
          "dtype": "float32"
        },
        {
          "name": "hg_0_lf8convBlock_conv_3x3_x2/kernel",
          "shape": [
            3,
            3,
            128,
            128
          ],
          "dtype": "float32"
        },
        {
          "name": "hg_0_lf8convBlock_conv_3x3_x2/bias",
          "shape": [
            128
          ],
          "dtype": "float32"
        },
        {
          "name": "hg_0_rf1_connect_convBlock_conv_1x1_x1/kernel",
          "shape": [
            1,
            1,
            256,
            128
          ],
          "dtype": "float32"
        },
        {
          "name": "hg_0_rf1_connect_convBlock_conv_1x1_x1/bias",
          "shape": [
            128
          ],
          "dtype": "float32"
        },
        {
          "name": "hg_0_rf1_connect_convBlock_conv_1x1_x3/kernel",
          "shape": [
            1,
            1,
            128,
            256
          ],
          "dtype": "float32"
        },
        {
          "name": "hg_0_rf1_connect_convBlock_conv_1x1_x3/bias",
          "shape": [
            256
          ],
          "dtype": "float32"
        },
        {
          "name": "hg_0_rf1_connect_convBlock_conv_3x3_x2/kernel",
          "shape": [
            3,
            3,
            128,
            128
          ],
          "dtype": "float32"
        },
        {
          "name": "hg_0_rf1_connect_convBlock_conv_3x3_x2/bias",
          "shape": [
            128
          ],
          "dtype": "float32"
        },
        {
          "name": "hg_0_rf1_connect_left_resi_convBlock_conv_1x1_x1/kernel",
          "shape": [
            1,
            1,
            256,
            128
          ],
          "dtype": "float32"
        },
        {
          "name": "hg_0_rf1_connect_left_resi_convBlock_conv_1x1_x1/bias",
          "shape": [
            128
          ],
          "dtype": "float32"
        },
        {
          "name": "hg_0_rf1_connect_left_resi_convBlock_conv_1x1_x3/kernel",
          "shape": [
            1,
            1,
            128,
            256
          ],
          "dtype": "float32"
        },
        {
          "name": "hg_0_rf1_connect_left_resi_convBlock_conv_1x1_x3/bias",
          "shape": [
            256
          ],
          "dtype": "float32"
        },
        {
          "name": "hg_0_rf1_connect_left_resi_convBlock_conv_3x3_x2/kernel",
          "shape": [
            3,
            3,
            128,
            128
          ],
          "dtype": "float32"
        },
        {
          "name": "hg_0_rf1_connect_left_resi_convBlock_conv_3x3_x2/bias",
          "shape": [
            128
          ],
          "dtype": "float32"
        },
        {
          "name": "hg_0_rf2_connect_convBlock_conv_1x1_x1/kernel",
          "shape": [
            1,
            1,
            256,
            128
          ],
          "dtype": "float32"
        },
        {
          "name": "hg_0_rf2_connect_convBlock_conv_1x1_x1/bias",
          "shape": [
            128
          ],
          "dtype": "float32"
        },
        {
          "name": "hg_0_rf2_connect_convBlock_conv_1x1_x3/kernel",
          "shape": [
            1,
            1,
            128,
            256
          ],
          "dtype": "float32"
        },
        {
          "name": "hg_0_rf2_connect_convBlock_conv_1x1_x3/bias",
          "shape": [
            256
          ],
          "dtype": "float32"
        },
        {
          "name": "hg_0_rf2_connect_convBlock_conv_3x3_x2/kernel",
          "shape": [
            3,
            3,
            128,
            128
          ],
          "dtype": "float32"
        },
        {
          "name": "hg_0_rf2_connect_convBlock_conv_3x3_x2/bias",
          "shape": [
            128
          ],
          "dtype": "float32"
        },
        {
          "name": "hg_0_rf2_connect_left_resi_convBlock_conv_1x1_x1/kernel",
          "shape": [
            1,
            1,
            256,
            128
          ],
          "dtype": "float32"
        },
        {
          "name": "hg_0_rf2_connect_left_resi_convBlock_conv_1x1_x1/bias",
          "shape": [
            128
          ],
          "dtype": "float32"
        },
        {
          "name": "hg_0_rf2_connect_left_resi_convBlock_conv_1x1_x3/kernel",
          "shape": [
            1,
            1,
            128,
            256
          ],
          "dtype": "float32"
        },
        {
          "name": "hg_0_rf2_connect_left_resi_convBlock_conv_1x1_x3/bias",
          "shape": [
            256
          ],
          "dtype": "float32"
        },
        {
          "name": "hg_0_rf2_connect_left_resi_convBlock_conv_3x3_x2/kernel",
          "shape": [
            3,
            3,
            128,
            128
          ],
          "dtype": "float32"
        },
        {
          "name": "hg_0_rf2_connect_left_resi_convBlock_conv_3x3_x2/bias",
          "shape": [
            128
          ],
          "dtype": "float32"
        },
        {
          "name": "hg_0_rf4_connect_convBlock_conv_1x1_x1/kernel",
          "shape": [
            1,
            1,
            256,
            128
          ],
          "dtype": "float32"
        },
        {
          "name": "hg_0_rf4_connect_convBlock_conv_1x1_x1/bias",
          "shape": [
            128
          ],
          "dtype": "float32"
        },
        {
          "name": "hg_0_rf4_connect_convBlock_conv_1x1_x3/kernel",
          "shape": [
            1,
            1,
            128,
            256
          ],
          "dtype": "float32"
        },
        {
          "name": "hg_0_rf4_connect_convBlock_conv_1x1_x3/bias",
          "shape": [
            256
          ],
          "dtype": "float32"
        },
        {
          "name": "hg_0_rf4_connect_convBlock_conv_3x3_x2/kernel",
          "shape": [
            3,
            3,
            128,
            128
          ],
          "dtype": "float32"
        },
        {
          "name": "hg_0_rf4_connect_convBlock_conv_3x3_x2/bias",
          "shape": [
            128
          ],
          "dtype": "float32"
        },
        {
          "name": "hg_0_rf4_connect_left_resi_convBlock_conv_1x1_x1/kernel",
          "shape": [
            1,
            1,
            256,
            128
          ],
          "dtype": "float32"
        },
        {
          "name": "hg_0_rf4_connect_left_resi_convBlock_conv_1x1_x1/bias",
          "shape": [
            128
          ],
          "dtype": "float32"
        },
        {
          "name": "hg_0_rf4_connect_left_resi_convBlock_conv_1x1_x3/kernel",
          "shape": [
            1,
            1,
            128,
            256
          ],
          "dtype": "float32"
        },
        {
          "name": "hg_0_rf4_connect_left_resi_convBlock_conv_1x1_x3/bias",
          "shape": [
            256
          ],
          "dtype": "float32"
        },
        {
          "name": "hg_0_rf4_connect_left_resi_convBlock_conv_3x3_x2/kernel",
          "shape": [
            3,
            3,
            128,
            128
          ],
          "dtype": "float32"
        },
        {
          "name": "hg_0_rf4_connect_left_resi_convBlock_conv_3x3_x2/bias",
          "shape": [
            128
          ],
          "dtype": "float32"
        },
        {
          "name": "hg_0lf8_resi_x1_convBlock_conv_1x1_x1/kernel",
          "shape": [
            1,
            1,
            256,
            128
          ],
          "dtype": "float32"
        },
        {
          "name": "hg_0lf8_resi_x1_convBlock_conv_1x1_x1/bias",
          "shape": [
            128
          ],
          "dtype": "float32"
        },
        {
          "name": "hg_0lf8_resi_x1_convBlock_conv_1x1_x3/kernel",
          "shape": [
            1,
            1,
            128,
            256
          ],
          "dtype": "float32"
        },
        {
          "name": "hg_0lf8_resi_x1_convBlock_conv_1x1_x3/bias",
          "shape": [
            256
          ],
          "dtype": "float32"
        },
        {
          "name": "hg_0lf8_resi_x1_convBlock_conv_3x3_x2/kernel",
          "shape": [
            3,
            3,
            128,
            128
          ],
          "dtype": "float32"
        },
        {
          "name": "hg_0lf8_resi_x1_convBlock_conv_3x3_x2/bias",
          "shape": [
            128
          ],
          "dtype": "float32"
        },
        {
          "name": "hg_0lf8_resi_x2_convBlock_conv_1x1_x1/kernel",
          "shape": [
            1,
            1,
            256,
            128
          ],
          "dtype": "float32"
        },
        {
          "name": "hg_0lf8_resi_x2_convBlock_conv_1x1_x1/bias",
          "shape": [
            128
          ],
          "dtype": "float32"
        },
        {
          "name": "hg_0lf8_resi_x2_convBlock_conv_1x1_x3/kernel",
          "shape": [
            1,
            1,
            128,
            256
          ],
          "dtype": "float32"
        },
        {
          "name": "hg_0lf8_resi_x2_convBlock_conv_1x1_x3/bias",
          "shape": [
            256
          ],
          "dtype": "float32"
        },
        {
          "name": "hg_0lf8_resi_x2_convBlock_conv_3x3_x2/kernel",
          "shape": [
            3,
            3,
            128,
            128
          ],
          "dtype": "float32"
        },
        {
          "name": "hg_0lf8_resi_x2_convBlock_conv_3x3_x2/bias",
          "shape": [
            128
          ],
          "dtype": "float32"
        },
        {
          "name": "hg_0lf8_resi_x3_convBlock_conv_1x1_x1/kernel",
          "shape": [
            1,
            1,
            256,
            128
          ],
          "dtype": "float32"
        },
        {
          "name": "hg_0lf8_resi_x3_convBlock_conv_1x1_x1/bias",
          "shape": [
            128
          ],
          "dtype": "float32"
        },
        {
          "name": "hg_0lf8_resi_x3_convBlock_conv_1x1_x3/kernel",
          "shape": [
            1,
            1,
            128,
            256
          ],
          "dtype": "float32"
        },
        {
          "name": "hg_0lf8_resi_x3_convBlock_conv_1x1_x3/bias",
          "shape": [
            256
          ],
          "dtype": "float32"
        },
        {
          "name": "hg_0lf8_resi_x3_convBlock_conv_3x3_x2/kernel",
          "shape": [
            3,
            3,
            128,
            128
          ],
          "dtype": "float32"
        },
        {
          "name": "hg_0lf8_resi_x3_convBlock_conv_3x3_x2/bias",
          "shape": [
            128
          ],
          "dtype": "float32"
        },
        {
          "name": "hg_1_l1convBlock_conv_1x1_x1/kernel",
          "shape": [
            1,
            1,
            256,
            128
          ],
          "dtype": "float32"
        },
        {
          "name": "hg_1_l1convBlock_conv_1x1_x1/bias",
          "shape": [
            128
          ],
          "dtype": "float32"
        },
        {
          "name": "hg_1_l1convBlock_conv_1x1_x3/kernel",
          "shape": [
            1,
            1,
            128,
            256
          ],
          "dtype": "float32"
        },
        {
          "name": "hg_1_l1convBlock_conv_1x1_x3/bias",
          "shape": [
            256
          ],
          "dtype": "float32"
        },
        {
          "name": "hg_1_l1convBlock_conv_3x3_x2/kernel",
          "shape": [
            3,
            3,
            128,
            128
          ],
          "dtype": "float32"
        },
        {
          "name": "hg_1_l1convBlock_conv_3x3_x2/bias",
          "shape": [
            128
          ],
          "dtype": "float32"
        },
        {
          "name": "hg_1_l2convBlock_conv_1x1_x1/kernel",
          "shape": [
            1,
            1,
            256,
            128
          ],
          "dtype": "float32"
        },
        {
          "name": "hg_1_l2convBlock_conv_1x1_x1/bias",
          "shape": [
            128
          ],
          "dtype": "float32"
        },
        {
          "name": "hg_1_l2convBlock_conv_1x1_x3/kernel",
          "shape": [
            1,
            1,
            128,
            256
          ],
          "dtype": "float32"
        },
        {
          "name": "hg_1_l2convBlock_conv_1x1_x3/bias",
          "shape": [
            256
          ],
          "dtype": "float32"
        },
        {
          "name": "hg_1_l2convBlock_conv_3x3_x2/kernel",
          "shape": [
            3,
            3,
            128,
            128
          ],
          "dtype": "float32"
        },
        {
          "name": "hg_1_l2convBlock_conv_3x3_x2/bias",
          "shape": [
            128
          ],
          "dtype": "float32"
        },
        {
          "name": "hg_1_l4convBlock_conv_1x1_x1/kernel",
          "shape": [
            1,
            1,
            256,
            128
          ],
          "dtype": "float32"
        },
        {
          "name": "hg_1_l4convBlock_conv_1x1_x1/bias",
          "shape": [
            128
          ],
          "dtype": "float32"
        },
        {
          "name": "hg_1_l4convBlock_conv_1x1_x3/kernel",
          "shape": [
            1,
            1,
            128,
            256
          ],
          "dtype": "float32"
        },
        {
          "name": "hg_1_l4convBlock_conv_1x1_x3/bias",
          "shape": [
            256
          ],
          "dtype": "float32"
        },
        {
          "name": "hg_1_l4convBlock_conv_3x3_x2/kernel",
          "shape": [
            3,
            3,
            128,
            128
          ],
          "dtype": "float32"
        },
        {
          "name": "hg_1_l4convBlock_conv_3x3_x2/bias",
          "shape": [
            128
          ],
          "dtype": "float32"
        },
        {
          "name": "hg_1_l8convBlock_conv_1x1_x1/kernel",
          "shape": [
            1,
            1,
            256,
            128
          ],
          "dtype": "float32"
        },
        {
          "name": "hg_1_l8convBlock_conv_1x1_x1/bias",
          "shape": [
            128
          ],
          "dtype": "float32"
        },
        {
          "name": "hg_1_l8convBlock_conv_1x1_x3/kernel",
          "shape": [
            1,
            1,
            128,
            256
          ],
          "dtype": "float32"
        },
        {
          "name": "hg_1_l8convBlock_conv_1x1_x3/bias",
          "shape": [
            256
          ],
          "dtype": "float32"
        },
        {
          "name": "hg_1_l8convBlock_conv_3x3_x2/kernel",
          "shape": [
            3,
            3,
            128,
            128
          ],
          "dtype": "float32"
        },
        {
          "name": "hg_1_l8convBlock_conv_3x3_x2/bias",
          "shape": [
            128
          ],
          "dtype": "float32"
        },
        {
          "name": "hg_1_lf8convBlock_conv_1x1_x1/kernel",
          "shape": [
            1,
            1,
            256,
            128
          ],
          "dtype": "float32"
        },
        {
          "name": "hg_1_lf8convBlock_conv_1x1_x1/bias",
          "shape": [
            128
          ],
          "dtype": "float32"
        },
        {
          "name": "hg_1_lf8convBlock_conv_1x1_x3/kernel",
          "shape": [
            1,
            1,
            128,
            256
          ],
          "dtype": "float32"
        },
        {
          "name": "hg_1_lf8convBlock_conv_1x1_x3/bias",
          "shape": [
            256
          ],
          "dtype": "float32"
        },
        {
          "name": "hg_1_lf8convBlock_conv_3x3_x2/kernel",
          "shape": [
            3,
            3,
            128,
            128
          ],
          "dtype": "float32"
        },
        {
          "name": "hg_1_lf8convBlock_conv_3x3_x2/bias",
          "shape": [
            128
          ],
          "dtype": "float32"
        },
        {
          "name": "hg_1_rf1_connect_convBlock_conv_1x1_x1/kernel",
          "shape": [
            1,
            1,
            256,
            128
          ],
          "dtype": "float32"
        },
        {
          "name": "hg_1_rf1_connect_convBlock_conv_1x1_x1/bias",
          "shape": [
            128
          ],
          "dtype": "float32"
        },
        {
          "name": "hg_1_rf1_connect_convBlock_conv_1x1_x3/kernel",
          "shape": [
            1,
            1,
            128,
            256
          ],
          "dtype": "float32"
        },
        {
          "name": "hg_1_rf1_connect_convBlock_conv_1x1_x3/bias",
          "shape": [
            256
          ],
          "dtype": "float32"
        },
        {
          "name": "hg_1_rf1_connect_convBlock_conv_3x3_x2/kernel",
          "shape": [
            3,
            3,
            128,
            128
          ],
          "dtype": "float32"
        },
        {
          "name": "hg_1_rf1_connect_convBlock_conv_3x3_x2/bias",
          "shape": [
            128
          ],
          "dtype": "float32"
        },
        {
          "name": "hg_1_rf1_connect_left_resi_convBlock_conv_1x1_x1/kernel",
          "shape": [
            1,
            1,
            256,
            128
          ],
          "dtype": "float32"
        },
        {
          "name": "hg_1_rf1_connect_left_resi_convBlock_conv_1x1_x1/bias",
          "shape": [
            128
          ],
          "dtype": "float32"
        },
        {
          "name": "hg_1_rf1_connect_left_resi_convBlock_conv_1x1_x3/kernel",
          "shape": [
            1,
            1,
            128,
            256
          ],
          "dtype": "float32"
        },
        {
          "name": "hg_1_rf1_connect_left_resi_convBlock_conv_1x1_x3/bias",
          "shape": [
            256
          ],
          "dtype": "float32"
        },
        {
          "name": "hg_1_rf1_connect_left_resi_convBlock_conv_3x3_x2/kernel",
          "shape": [
            3,
            3,
            128,
            128
          ],
          "dtype": "float32"
        },
        {
          "name": "hg_1_rf1_connect_left_resi_convBlock_conv_3x3_x2/bias",
          "shape": [
            128
          ],
          "dtype": "float32"
        },
        {
          "name": "hg_1_rf2_connect_convBlock_conv_1x1_x1/kernel",
          "shape": [
            1,
            1,
            256,
            128
          ],
          "dtype": "float32"
        },
        {
          "name": "hg_1_rf2_connect_convBlock_conv_1x1_x1/bias",
          "shape": [
            128
          ],
          "dtype": "float32"
        },
        {
          "name": "hg_1_rf2_connect_convBlock_conv_1x1_x3/kernel",
          "shape": [
            1,
            1,
            128,
            256
          ],
          "dtype": "float32"
        },
        {
          "name": "hg_1_rf2_connect_convBlock_conv_1x1_x3/bias",
          "shape": [
            256
          ],
          "dtype": "float32"
        },
        {
          "name": "hg_1_rf2_connect_convBlock_conv_3x3_x2/kernel",
          "shape": [
            3,
            3,
            128,
            128
          ],
          "dtype": "float32"
        },
        {
          "name": "hg_1_rf2_connect_convBlock_conv_3x3_x2/bias",
          "shape": [
            128
          ],
          "dtype": "float32"
        },
        {
          "name": "hg_1_rf2_connect_left_resi_convBlock_conv_1x1_x1/kernel",
          "shape": [
            1,
            1,
            256,
            128
          ],
          "dtype": "float32"
        },
        {
          "name": "hg_1_rf2_connect_left_resi_convBlock_conv_1x1_x1/bias",
          "shape": [
            128
          ],
          "dtype": "float32"
        },
        {
          "name": "hg_1_rf2_connect_left_resi_convBlock_conv_1x1_x3/kernel",
          "shape": [
            1,
            1,
            128,
            256
          ],
          "dtype": "float32"
        },
        {
          "name": "hg_1_rf2_connect_left_resi_convBlock_conv_1x1_x3/bias",
          "shape": [
            256
          ],
          "dtype": "float32"
        },
        {
          "name": "hg_1_rf2_connect_left_resi_convBlock_conv_3x3_x2/kernel",
          "shape": [
            3,
            3,
            128,
            128
          ],
          "dtype": "float32"
        },
        {
          "name": "hg_1_rf2_connect_left_resi_convBlock_conv_3x3_x2/bias",
          "shape": [
            128
          ],
          "dtype": "float32"
        },
        {
          "name": "hg_1_rf4_connect_convBlock_conv_1x1_x1/kernel",
          "shape": [
            1,
            1,
            256,
            128
          ],
          "dtype": "float32"
        },
        {
          "name": "hg_1_rf4_connect_convBlock_conv_1x1_x1/bias",
          "shape": [
            128
          ],
          "dtype": "float32"
        },
        {
          "name": "hg_1_rf4_connect_convBlock_conv_1x1_x3/kernel",
          "shape": [
            1,
            1,
            128,
            256
          ],
          "dtype": "float32"
        },
        {
          "name": "hg_1_rf4_connect_convBlock_conv_1x1_x3/bias",
          "shape": [
            256
          ],
          "dtype": "float32"
        },
        {
          "name": "hg_1_rf4_connect_convBlock_conv_3x3_x2/kernel",
          "shape": [
            3,
            3,
            128,
            128
          ],
          "dtype": "float32"
        },
        {
          "name": "hg_1_rf4_connect_convBlock_conv_3x3_x2/bias",
          "shape": [
            128
          ],
          "dtype": "float32"
        },
        {
          "name": "hg_1_rf4_connect_left_resi_convBlock_conv_1x1_x1/kernel",
          "shape": [
            1,
            1,
            256,
            128
          ],
          "dtype": "float32"
        },
        {
          "name": "hg_1_rf4_connect_left_resi_convBlock_conv_1x1_x1/bias",
          "shape": [
            128
          ],
          "dtype": "float32"
        },
        {
          "name": "hg_1_rf4_connect_left_resi_convBlock_conv_1x1_x3/kernel",
          "shape": [
            1,
            1,
            128,
            256
          ],
          "dtype": "float32"
        },
        {
          "name": "hg_1_rf4_connect_left_resi_convBlock_conv_1x1_x3/bias",
          "shape": [
            256
          ],
          "dtype": "float32"
        },
        {
          "name": "hg_1_rf4_connect_left_resi_convBlock_conv_3x3_x2/kernel",
          "shape": [
            3,
            3,
            128,
            128
          ],
          "dtype": "float32"
        },
        {
          "name": "hg_1_rf4_connect_left_resi_convBlock_conv_3x3_x2/bias",
          "shape": [
            128
          ],
          "dtype": "float32"
        },
        {
          "name": "hg_1lf8_resi_x1_convBlock_conv_1x1_x1/kernel",
          "shape": [
            1,
            1,
            256,
            128
          ],
          "dtype": "float32"
        },
        {
          "name": "hg_1lf8_resi_x1_convBlock_conv_1x1_x1/bias",
          "shape": [
            128
          ],
          "dtype": "float32"
        },
        {
          "name": "hg_1lf8_resi_x1_convBlock_conv_1x1_x3/kernel",
          "shape": [
            1,
            1,
            128,
            256
          ],
          "dtype": "float32"
        },
        {
          "name": "hg_1lf8_resi_x1_convBlock_conv_1x1_x3/bias",
          "shape": [
            256
          ],
          "dtype": "float32"
        },
        {
          "name": "hg_1lf8_resi_x1_convBlock_conv_3x3_x2/kernel",
          "shape": [
            3,
            3,
            128,
            128
          ],
          "dtype": "float32"
        },
        {
          "name": "hg_1lf8_resi_x1_convBlock_conv_3x3_x2/bias",
          "shape": [
            128
          ],
          "dtype": "float32"
        },
        {
          "name": "hg_1lf8_resi_x2_convBlock_conv_1x1_x1/kernel",
          "shape": [
            1,
            1,
            256,
            128
          ],
          "dtype": "float32"
        },
        {
          "name": "hg_1lf8_resi_x2_convBlock_conv_1x1_x1/bias",
          "shape": [
            128
          ],
          "dtype": "float32"
        },
        {
          "name": "hg_1lf8_resi_x2_convBlock_conv_1x1_x3/kernel",
          "shape": [
            1,
            1,
            128,
            256
          ],
          "dtype": "float32"
        },
        {
          "name": "hg_1lf8_resi_x2_convBlock_conv_1x1_x3/bias",
          "shape": [
            256
          ],
          "dtype": "float32"
        },
        {
          "name": "hg_1lf8_resi_x2_convBlock_conv_3x3_x2/kernel",
          "shape": [
            3,
            3,
            128,
            128
          ],
          "dtype": "float32"
        },
        {
          "name": "hg_1lf8_resi_x2_convBlock_conv_3x3_x2/bias",
          "shape": [
            128
          ],
          "dtype": "float32"
        },
        {
          "name": "hg_1lf8_resi_x3_convBlock_conv_1x1_x1/kernel",
          "shape": [
            1,
            1,
            256,
            128
          ],
          "dtype": "float32"
        },
        {
          "name": "hg_1lf8_resi_x3_convBlock_conv_1x1_x1/bias",
          "shape": [
            128
          ],
          "dtype": "float32"
        },
        {
          "name": "hg_1lf8_resi_x3_convBlock_conv_1x1_x3/kernel",
          "shape": [
            1,
            1,
            128,
            256
          ],
          "dtype": "float32"
        },
        {
          "name": "hg_1lf8_resi_x3_convBlock_conv_1x1_x3/bias",
          "shape": [
            256
          ],
          "dtype": "float32"
        },
        {
          "name": "hg_1lf8_resi_x3_convBlock_conv_3x3_x2/kernel",
          "shape": [
            3,
            3,
            128,
            128
          ],
          "dtype": "float32"
        },
        {
          "name": "hg_1lf8_resi_x3_convBlock_conv_3x3_x2/bias",
          "shape": [
            128
          ],
          "dtype": "float32"
        }
      ]
    }
  ]
}