{"modelTopology": {"keras_version": "2.2.4", "backend": "tensorflow", "model_config": {"config": {"input_layers": [["input_1", 0, 0]], "name": "model_1", "layers": [{"config": {"sparse": false, "batch_input_shape": [null, 192, 192, 3], "dtype": "float32", "name": "input_1"}, "class_name": "InputLayer", "name": "input_1", "inbound_nodes": []}, {"config": {"padding": "same", "bias_initializer": {"config": {}, "class_name": "Zeros"}, "kernel_constraint": null, "name": "bottom_conv_3x3_1", "kernel_size": [3, 3], "trainable": true, "dilation_rate": [1, 1], "activation": "linear", "activity_regularizer": null, "kernel_regularizer": null, "filters": 48, "strides": [2, 2], "use_bias": true, "bias_regularizer": null, "kernel_initializer": {"config": {"distribution": "uniform", "seed": null, "mode": "fan_avg", "scale": 1.0}, "class_name": "VarianceScaling"}, "bias_constraint": null, "data_format": "channels_last"}, "class_name": "Conv2D", "name": "bottom_conv_3x3_1", "inbound_nodes": [[["input_1", 0, 0, {}]]]}, {"config": {"name": "bottom_bn_1", "beta_initializer": {"config": {}, "class_name": "Zeros"}, "moving_variance_initializer": {"config": {}, "class_name": "Ones"}, "gamma_initializer": {"config": {}, "class_name": "Ones"}, "epsilon": 0.001, "trainable": true, "beta_regularizer": null, "axis": -1, "scale": true, "gamma_regularizer": null, "center": true, "moving_mean_initializer": {"config": {}, "class_name": "Zeros"}, "momentum": 0.99, "beta_constraint": null, "gamma_constraint": null}, "class_name": "BatchNormalization", "name": "bottom_bn_1", "inbound_nodes": [[["bottom_conv_3x3_1", 0, 0, {}]]]}, {"config": {"theta": 0.0, "trainable": true, "name": "bottom_relu_1"}, "class_name": "ThresholdedReLU", "name": "bottom_relu_1", "inbound_nodes": [[["bottom_bn_1", 0, 0, {}]]]}, {"config": {"padding": "same", "bias_initializer": {"config": {}, "class_name": "Zeros"}, "kernel_constraint": null, "name": "bottom_conv_3x3_2", "kernel_size": [3, 3], "trainable": true, "dilation_rate": [1, 1], "activation": "linear", "activity_regularizer": null, "kernel_regularizer": null, "filters": 48, "strides": [2, 2], "use_bias": true, "bias_regularizer": null, "kernel_initializer": {"config": {"distribution": "uniform", "seed": null, "mode": "fan_avg", "scale": 1.0}, "class_name": "VarianceScaling"}, "bias_constraint": null, "data_format": "channels_last"}, "class_name": "Conv2D", "name": "bottom_conv_3x3_2", "inbound_nodes": [[["bottom_relu_1", 0, 0, {}]]]}, {"config": {"name": "bottom_bn_2", "beta_initializer": {"config": {}, "class_name": "Zeros"}, "moving_variance_initializer": {"config": {}, "class_name": "Ones"}, "gamma_initializer": {"config": {}, "class_name": "Ones"}, "epsilon": 0.001, "trainable": true, "beta_regularizer": null, "axis": -1, "scale": true, "gamma_regularizer": null, "center": true, "moving_mean_initializer": {"config": {}, "class_name": "Zeros"}, "momentum": 0.99, "beta_constraint": null, "gamma_constraint": null}, "class_name": "BatchNormalization", "name": "bottom_bn_2", "inbound_nodes": [[["bottom_conv_3x3_2", 0, 0, {}]]]}, {"config": {"theta": 0.0, "trainable": true, "name": "bottom_relu_2"}, "class_name": "ThresholdedReLU", "name": "bottom_relu_2", "inbound_nodes": [[["bottom_bn_2", 0, 0, {}]]]}, {"config": {"pointwise_initializer": {"config": {"distribution": "uniform", "seed": null, "mode": "fan_avg", "scale": 1.0}, "class_name": "VarianceScaling"}, "padding": "same", "bias_initializer": {"config": {}, "class_name": "Zeros"}, "name": "bottom_layer_0_blockbottleneck_conv1x1_1", "kernel_size": [1, 1], "pointwise_constraint": null, "dilation_rate": [1, 1], "pointwise_regularizer": null, "activation": "linear", "depthwise_regularizer": null, "use_bias": true, "activity_regularizer": null, "bias_regularizer": null, "filters": 48, "strides": [1, 1], "depthwise_constraint": null, "depth_multiplier": 1, "trainable": true, "depthwise_initializer": {"config": {"distribution": "uniform", "seed": null, "mode": "fan_avg", "scale": 1.0}, "class_name": "VarianceScaling"}, "bias_constraint": null, "data_format": "channels_last"}, "class_name": "SeparableConv2D", "name": "bottom_layer_0_blockbottleneck_conv1x1_1", "inbound_nodes": [[["bottom_relu_2", 0, 0, {}]]]}, {"config": {"name": "bottom_layer_0_blockbottleneck_bn_1", "beta_initializer": {"config": {}, "class_name": "Zeros"}, "moving_variance_initializer": {"config": {}, "class_name": "Ones"}, "gamma_initializer": {"config": {}, "class_name": "Ones"}, "epsilon": 0.001, "trainable": true, "beta_regularizer": null, "axis": -1, "scale": true, "gamma_regularizer": null, "center": true, "moving_mean_initializer": {"config": {}, "class_name": "Zeros"}, "momentum": 0.99, "beta_constraint": null, "gamma_constraint": null}, "class_name": "BatchNormalization", "name": "bottom_layer_0_blockbottleneck_bn_1", "inbound_nodes": [[["bottom_layer_0_blockbottleneck_conv1x1_1", 0, 0, {}]]]}, {"config": {"theta": 0.0, "trainable": true, "name": "bottom_layer_0_blockbottleneck_relu_1"}, "class_name": "ThresholdedReLU", "name": "bottom_layer_0_blockbottleneck_relu_1", "inbound_nodes": [[["bottom_layer_0_blockbottleneck_bn_1", 0, 0, {}]]]}, {"config": {"pointwise_initializer": {"config": {"distribution": "uniform", "seed": null, "mode": "fan_avg", "scale": 1.0}, "class_name": "VarianceScaling"}, "padding": "same", "bias_initializer": {"config": {}, "class_name": "Zeros"}, "name": "bottom_layer_0_blockbottleneck_conv3x3_2", "kernel_size": [3, 3], "pointwise_constraint": null, "dilation_rate": [1, 1], "pointwise_regularizer": null, "activation": "linear", "depthwise_regularizer": null, "use_bias": true, "activity_regularizer": null, "bias_regularizer": null, "filters": 48, "strides": [1, 1], "depthwise_constraint": null, "depth_multiplier": 1, "trainable": true, "depthwise_initializer": {"config": {"distribution": "uniform", "seed": null, "mode": "fan_avg", "scale": 1.0}, "class_name": "VarianceScaling"}, "bias_constraint": null, "data_format": "channels_last"}, "class_name": "SeparableConv2D", "name": "bottom_layer_0_blockbottleneck_conv3x3_2", "inbound_nodes": [[["bottom_layer_0_blockbottleneck_relu_1", 0, 0, {}]]]}, {"config": {"name": "bottom_layer_0_blockbottleneck_bn_2", "beta_initializer": {"config": {}, "class_name": "Zeros"}, "moving_variance_initializer": {"config": {}, "class_name": "Ones"}, "gamma_initializer": {"config": {}, "class_name": "Ones"}, "epsilon": 0.001, "trainable": true, "beta_regularizer": null, "axis": -1, "scale": true, "gamma_regularizer": null, "center": true, "moving_mean_initializer": {"config": {}, "class_name": "Zeros"}, "momentum": 0.99, "beta_constraint": null, "gamma_constraint": null}, "class_name": "BatchNormalization", "name": "bottom_layer_0_blockbottleneck_bn_2", "inbound_nodes": [[["bottom_layer_0_blockbottleneck_conv3x3_2", 0, 0, {}]]]}, {"config": {"theta": 0.0, "trainable": true, "name": "bottom_layer_0_blockbottleneck_relu_2"}, "class_name": "ThresholdedReLU", "name": "bottom_layer_0_blockbottleneck_relu_2", "inbound_nodes": [[["bottom_layer_0_blockbottleneck_bn_2", 0, 0, {}]]]}, {"config": {"pointwise_initializer": {"config": {"distribution": "uniform", "seed": null, "mode": "fan_avg", "scale": 1.0}, "class_name": "VarianceScaling"}, "padding": "same", "bias_initializer": {"config": {}, "class_name": "Zeros"}, "name": "bottom_layer_0_blockbottleneck_conv1x1_3", "kernel_size": [1, 1], "pointwise_constraint": null, "dilation_rate": [1, 1], "pointwise_regularizer": null, "activation": "linear", "depthwise_regularizer": null, "use_bias": true, "activity_regularizer": null, "bias_regularizer": null, "filters": 192, "strides": [1, 1], "depthwise_constraint": null, "depth_multiplier": 1, "trainable": true, "depthwise_initializer": {"config": {"distribution": "uniform", "seed": null, "mode": "fan_avg", "scale": 1.0}, "class_name": "VarianceScaling"}, "bias_constraint": null, "data_format": "channels_last"}, "class_name": "SeparableConv2D", "name": "bottom_layer_0_blockbottleneck_conv1x1_3", "inbound_nodes": [[["bottom_layer_0_blockbottleneck_relu_2", 0, 0, {}]]]}, {"config": {"padding": "valid", "bias_initializer": {"config": {}, "class_name": "Zeros"}, "kernel_constraint": null, "name": "conv2d_1", "kernel_size": [1, 1], "trainable": true, "dilation_rate": [1, 1], "activation": "linear", "activity_regularizer": null, "kernel_regularizer": null, "filters": 192, "strides": [1, 1], "use_bias": true, "bias_regularizer": null, "kernel_initializer": {"config": {"distribution": "uniform", "seed": null, "mode": "fan_avg", "scale": 1.0}, "class_name": "VarianceScaling"}, "bias_constraint": null, "data_format": "channels_last"}, "class_name": "Conv2D", "name": "conv2d_1", "inbound_nodes": [[["bottom_relu_2", 0, 0, {}]]]}, {"config": {"name": "bottom_layer_0_blockbottleneck_bn_3", "beta_initializer": {"config": {}, "class_name": "Zeros"}, "moving_variance_initializer": {"config": {}, "class_name": "Ones"}, "gamma_initializer": {"config": {}, "class_name": "Ones"}, "epsilon": 0.001, "trainable": true, "beta_regularizer": null, "axis": -1, "scale": true, "gamma_regularizer": null, "center": true, "moving_mean_initializer": {"config": {}, "class_name": "Zeros"}, "momentum": 0.99, "beta_constraint": null, "gamma_constraint": null}, "class_name": "BatchNormalization", "name": "bottom_layer_0_blockbottleneck_bn_3", "inbound_nodes": [[["bottom_layer_0_blockbottleneck_conv1x1_3", 0, 0, {}]]]}, {"config": {"name": "batch_normalization_1", "beta_initializer": {"config": {}, "class_name": "Zeros"}, "moving_variance_initializer": {"config": {}, "class_name": "Ones"}, "gamma_initializer": {"config": {}, "class_name": "Ones"}, "epsilon": 0.001, "trainable": true, "beta_regularizer": null, "axis": -1, "scale": true, "gamma_regularizer": null, "center": true, "moving_mean_initializer": {"config": {}, "class_name": "Zeros"}, "momentum": 0.99, "beta_constraint": null, "gamma_constraint": null}, "class_name": "BatchNormalization", "name": "batch_normalization_1", "inbound_nodes": [[["conv2d_1", 0, 0, {}]]]}, {"config": {"trainable": true, "name": "add_1"}, "class_name": "Add", "name": "add_1", "inbound_nodes": [[["bottom_layer_0_blockbottleneck_bn_3", 0, 0, {}], ["batch_normalization_1", 0, 0, {}]]]}, {"config": {"theta": 0.0, "trainable": true, "name": "bottom_layer_0_blockbottleneck_relu_3"}, "class_name": "ThresholdedReLU", "name": "bottom_layer_0_blockbottleneck_relu_3", "inbound_nodes": [[["add_1", 0, 0, {}]]]}, {"config": {"pointwise_initializer": {"config": {"distribution": "uniform", "seed": null, "mode": "fan_avg", "scale": 1.0}, "class_name": "VarianceScaling"}, "padding": "same", "bias_initializer": {"config": {}, "class_name": "Zeros"}, "name": "bottle_layer_block_1_bottleneck_conv1x1_1", "kernel_size": [1, 1], "pointwise_constraint": null, "dilation_rate": [1, 1], "pointwise_regularizer": null, "activation": "linear", "depthwise_regularizer": null, "use_bias": true, "activity_regularizer": null, "bias_regularizer": null, "filters": 48, "strides": [1, 1], "depthwise_constraint": null, "depth_multiplier": 1, "trainable": true, "depthwise_initializer": {"config": {"distribution": "uniform", "seed": null, "mode": "fan_avg", "scale": 1.0}, "class_name": "VarianceScaling"}, "bias_constraint": null, "data_format": "channels_last"}, "class_name": "SeparableConv2D", "name": "bottle_layer_block_1_bottleneck_conv1x1_1", "inbound_nodes": [[["bottom_layer_0_blockbottleneck_relu_3", 0, 0, {}]]]}, {"config": {"name": "bottle_layer_block_1_bottleneck_bn_1", "beta_initializer": {"config": {}, "class_name": "Zeros"}, "moving_variance_initializer": {"config": {}, "class_name": "Ones"}, "gamma_initializer": {"config": {}, "class_name": "Ones"}, "epsilon": 0.001, "trainable": true, "beta_regularizer": null, "axis": -1, "scale": true, "gamma_regularizer": null, "center": true, "moving_mean_initializer": {"config": {}, "class_name": "Zeros"}, "momentum": 0.99, "beta_constraint": null, "gamma_constraint": null}, "class_name": "BatchNormalization", "name": "bottle_layer_block_1_bottleneck_bn_1", "inbound_nodes": [[["bottle_layer_block_1_bottleneck_conv1x1_1", 0, 0, {}]]]}, {"config": {"theta": 0.0, "trainable": true, "name": "bottle_layer_block_1_bottleneck_relu_1"}, "class_name": "ThresholdedReLU", "name": "bottle_layer_block_1_bottleneck_relu_1", "inbound_nodes": [[["bottle_layer_block_1_bottleneck_bn_1", 0, 0, {}]]]}, {"config": {"pointwise_initializer": {"config": {"distribution": "uniform", "seed": null, "mode": "fan_avg", "scale": 1.0}, "class_name": "VarianceScaling"}, "padding": "same", "bias_initializer": {"config": {}, "class_name": "Zeros"}, "name": "bottle_layer_block_1_bottleneck_conv3x3_2", "kernel_size": [3, 3], "pointwise_constraint": null, "dilation_rate": [1, 1], "pointwise_regularizer": null, "activation": "linear", "depthwise_regularizer": null, "use_bias": true, "activity_regularizer": null, "bias_regularizer": null, "filters": 48, "strides": [1, 1], "depthwise_constraint": null, "depth_multiplier": 1, "trainable": true, "depthwise_initializer": {"config": {"distribution": "uniform", "seed": null, "mode": "fan_avg", "scale": 1.0}, "class_name": "VarianceScaling"}, "bias_constraint": null, "data_format": "channels_last"}, "class_name": "SeparableConv2D", "name": "bottle_layer_block_1_bottleneck_conv3x3_2", "inbound_nodes": [[["bottle_layer_block_1_bottleneck_relu_1", 0, 0, {}]]]}, {"config": {"name": "bottle_layer_block_1_bottleneck_bn_2", "beta_initializer": {"config": {}, "class_name": "Zeros"}, "moving_variance_initializer": {"config": {}, "class_name": "Ones"}, "gamma_initializer": {"config": {}, "class_name": "Ones"}, "epsilon": 0.001, "trainable": true, "beta_regularizer": null, "axis": -1, "scale": true, "gamma_regularizer": null, "center": true, "moving_mean_initializer": {"config": {}, "class_name": "Zeros"}, "momentum": 0.99, "beta_constraint": null, "gamma_constraint": null}, "class_name": "BatchNormalization", "name": "bottle_layer_block_1_bottleneck_bn_2", "inbound_nodes": [[["bottle_layer_block_1_bottleneck_conv3x3_2", 0, 0, {}]]]}, {"config": {"theta": 0.0, "trainable": true, "name": "bottle_layer_block_1_bottleneck_relu_2"}, "class_name": "ThresholdedReLU", "name": "bottle_layer_block_1_bottleneck_relu_2", "inbound_nodes": [[["bottle_layer_block_1_bottleneck_bn_2", 0, 0, {}]]]}, {"config": {"pointwise_initializer": {"config": {"distribution": "uniform", "seed": null, "mode": "fan_avg", "scale": 1.0}, "class_name": "VarianceScaling"}, "padding": "same", "bias_initializer": {"config": {}, "class_name": "Zeros"}, "name": "bottle_layer_block_1_bottleneck_conv1x1_3", "kernel_size": [1, 1], "pointwise_constraint": null, "dilation_rate": [1, 1], "pointwise_regularizer": null, "activation": "linear", "depthwise_regularizer": null, "use_bias": true, "activity_regularizer": null, "bias_regularizer": null, "filters": 192, "strides": [1, 1], "depthwise_constraint": null, "depth_multiplier": 1, "trainable": true, "depthwise_initializer": {"config": {"distribution": "uniform", "seed": null, "mode": "fan_avg", "scale": 1.0}, "class_name": "VarianceScaling"}, "bias_constraint": null, "data_format": "channels_last"}, "class_name": "SeparableConv2D", "name": "bottle_layer_block_1_bottleneck_conv1x1_3", "inbound_nodes": [[["bottle_layer_block_1_bottleneck_relu_2", 0, 0, {}]]]}, {"config": {"padding": "valid", "bias_initializer": {"config": {}, "class_name": "Zeros"}, "kernel_constraint": null, "name": "conv2d_2", "kernel_size": [1, 1], "trainable": true, "dilation_rate": [1, 1], "activation": "linear", "activity_regularizer": null, "kernel_regularizer": null, "filters": 192, "strides": [1, 1], "use_bias": true, "bias_regularizer": null, "kernel_initializer": {"config": {"distribution": "uniform", "seed": null, "mode": "fan_avg", "scale": 1.0}, "class_name": "VarianceScaling"}, "bias_constraint": null, "data_format": "channels_last"}, "class_name": "Conv2D", "name": "conv2d_2", "inbound_nodes": [[["bottom_layer_0_blockbottleneck_relu_3", 0, 0, {}]]]}, {"config": {"name": "bottle_layer_block_1_bottleneck_bn_3", "beta_initializer": {"config": {}, "class_name": "Zeros"}, "moving_variance_initializer": {"config": {}, "class_name": "Ones"}, "gamma_initializer": {"config": {}, "class_name": "Ones"}, "epsilon": 0.001, "trainable": true, "beta_regularizer": null, "axis": -1, "scale": true, "gamma_regularizer": null, "center": true, "moving_mean_initializer": {"config": {}, "class_name": "Zeros"}, "momentum": 0.99, "beta_constraint": null, "gamma_constraint": null}, "class_name": "BatchNormalization", "name": "bottle_layer_block_1_bottleneck_bn_3", "inbound_nodes": [[["bottle_layer_block_1_bottleneck_conv1x1_3", 0, 0, {}]]]}, {"config": {"name": "batch_normalization_2", "beta_initializer": {"config": {}, "class_name": "Zeros"}, "moving_variance_initializer": {"config": {}, "class_name": "Ones"}, "gamma_initializer": {"config": {}, "class_name": "Ones"}, "epsilon": 0.001, "trainable": true, "beta_regularizer": null, "axis": -1, "scale": true, "gamma_regularizer": null, "center": true, "moving_mean_initializer": {"config": {}, "class_name": "Zeros"}, "momentum": 0.99, "beta_constraint": null, "gamma_constraint": null}, "class_name": "BatchNormalization", "name": "batch_normalization_2", "inbound_nodes": [[["conv2d_2", 0, 0, {}]]]}, {"config": {"trainable": true, "name": "add_2"}, "class_name": "Add", "name": "add_2", "inbound_nodes": [[["bottle_layer_block_1_bottleneck_bn_3", 0, 0, {}], ["batch_normalization_2", 0, 0, {}]]]}, {"config": {"theta": 0.0, "trainable": true, "name": "bottle_layer_block_1_bottleneck_relu_3"}, "class_name": "ThresholdedReLU", "name": "bottle_layer_block_1_bottleneck_relu_3", "inbound_nodes": [[["add_2", 0, 0, {}]]]}, {"config": {"pointwise_initializer": {"config": {"distribution": "uniform", "seed": null, "mode": "fan_avg", "scale": 1.0}, "class_name": "VarianceScaling"}, "padding": "same", "bias_initializer": {"config": {}, "class_name": "Zeros"}, "name": "bottle_layer_block_2_bottleneck_conv1x1_1", "kernel_size": [1, 1], "pointwise_constraint": null, "dilation_rate": [1, 1], "pointwise_regularizer": null, "activation": "linear", "depthwise_regularizer": null, "use_bias": true, "activity_regularizer": null, "bias_regularizer": null, "filters": 48, "strides": [1, 1], "depthwise_constraint": null, "depth_multiplier": 1, "trainable": true, "depthwise_initializer": {"config": {"distribution": "uniform", "seed": null, "mode": "fan_avg", "scale": 1.0}, "class_name": "VarianceScaling"}, "bias_constraint": null, "data_format": "channels_last"}, "class_name": "SeparableConv2D", "name": "bottle_layer_block_2_bottleneck_conv1x1_1", "inbound_nodes": [[["bottle_layer_block_1_bottleneck_relu_3", 0, 0, {}]]]}, {"config": {"name": "bottle_layer_block_2_bottleneck_bn_1", "beta_initializer": {"config": {}, "class_name": "Zeros"}, "moving_variance_initializer": {"config": {}, "class_name": "Ones"}, "gamma_initializer": {"config": {}, "class_name": "Ones"}, "epsilon": 0.001, "trainable": true, "beta_regularizer": null, "axis": -1, "scale": true, "gamma_regularizer": null, "center": true, "moving_mean_initializer": {"config": {}, "class_name": "Zeros"}, "momentum": 0.99, "beta_constraint": null, "gamma_constraint": null}, "class_name": "BatchNormalization", "name": "bottle_layer_block_2_bottleneck_bn_1", "inbound_nodes": [[["bottle_layer_block_2_bottleneck_conv1x1_1", 0, 0, {}]]]}, {"config": {"theta": 0.0, "trainable": true, "name": "bottle_layer_block_2_bottleneck_relu_1"}, "class_name": "ThresholdedReLU", "name": "bottle_layer_block_2_bottleneck_relu_1", "inbound_nodes": [[["bottle_layer_block_2_bottleneck_bn_1", 0, 0, {}]]]}, {"config": {"pointwise_initializer": {"config": {"distribution": "uniform", "seed": null, "mode": "fan_avg", "scale": 1.0}, "class_name": "VarianceScaling"}, "padding": "same", "bias_initializer": {"config": {}, "class_name": "Zeros"}, "name": "bottle_layer_block_2_bottleneck_conv3x3_2", "kernel_size": [3, 3], "pointwise_constraint": null, "dilation_rate": [1, 1], "pointwise_regularizer": null, "activation": "linear", "depthwise_regularizer": null, "use_bias": true, "activity_regularizer": null, "bias_regularizer": null, "filters": 48, "strides": [1, 1], "depthwise_constraint": null, "depth_multiplier": 1, "trainable": true, "depthwise_initializer": {"config": {"distribution": "uniform", "seed": null, "mode": "fan_avg", "scale": 1.0}, "class_name": "VarianceScaling"}, "bias_constraint": null, "data_format": "channels_last"}, "class_name": "SeparableConv2D", "name": "bottle_layer_block_2_bottleneck_conv3x3_2", "inbound_nodes": [[["bottle_layer_block_2_bottleneck_relu_1", 0, 0, {}]]]}, {"config": {"name": "bottle_layer_block_2_bottleneck_bn_2", "beta_initializer": {"config": {}, "class_name": "Zeros"}, "moving_variance_initializer": {"config": {}, "class_name": "Ones"}, "gamma_initializer": {"config": {}, "class_name": "Ones"}, "epsilon": 0.001, "trainable": true, "beta_regularizer": null, "axis": -1, "scale": true, "gamma_regularizer": null, "center": true, "moving_mean_initializer": {"config": {}, "class_name": "Zeros"}, "momentum": 0.99, "beta_constraint": null, "gamma_constraint": null}, "class_name": "BatchNormalization", "name": "bottle_layer_block_2_bottleneck_bn_2", "inbound_nodes": [[["bottle_layer_block_2_bottleneck_conv3x3_2", 0, 0, {}]]]}, {"config": {"theta": 0.0, "trainable": true, "name": "bottle_layer_block_2_bottleneck_relu_2"}, "class_name": "ThresholdedReLU", "name": "bottle_layer_block_2_bottleneck_relu_2", "inbound_nodes": [[["bottle_layer_block_2_bottleneck_bn_2", 0, 0, {}]]]}, {"config": {"pointwise_initializer": {"config": {"distribution": "uniform", "seed": null, "mode": "fan_avg", "scale": 1.0}, "class_name": "VarianceScaling"}, "padding": "same", "bias_initializer": {"config": {}, "class_name": "Zeros"}, "name": "bottle_layer_block_2_bottleneck_conv1x1_3", "kernel_size": [1, 1], "pointwise_constraint": null, "dilation_rate": [1, 1], "pointwise_regularizer": null, "activation": "linear", "depthwise_regularizer": null, "use_bias": true, "activity_regularizer": null, "bias_regularizer": null, "filters": 192, "strides": [1, 1], "depthwise_constraint": null, "depth_multiplier": 1, "trainable": true, "depthwise_initializer": {"config": {"distribution": "uniform", "seed": null, "mode": "fan_avg", "scale": 1.0}, "class_name": "VarianceScaling"}, "bias_constraint": null, "data_format": "channels_last"}, "class_name": "SeparableConv2D", "name": "bottle_layer_block_2_bottleneck_conv1x1_3", "inbound_nodes": [[["bottle_layer_block_2_bottleneck_relu_2", 0, 0, {}]]]}, {"config": {"padding": "valid", "bias_initializer": {"config": {}, "class_name": "Zeros"}, "kernel_constraint": null, "name": "conv2d_3", "kernel_size": [1, 1], "trainable": true, "dilation_rate": [1, 1], "activation": "linear", "activity_regularizer": null, "kernel_regularizer": null, "filters": 192, "strides": [1, 1], "use_bias": true, "bias_regularizer": null, "kernel_initializer": {"config": {"distribution": "uniform", "seed": null, "mode": "fan_avg", "scale": 1.0}, "class_name": "VarianceScaling"}, "bias_constraint": null, "data_format": "channels_last"}, "class_name": "Conv2D", "name": "conv2d_3", "inbound_nodes": [[["bottle_layer_block_1_bottleneck_relu_3", 0, 0, {}]]]}, {"config": {"name": "bottle_layer_block_2_bottleneck_bn_3", "beta_initializer": {"config": {}, "class_name": "Zeros"}, "moving_variance_initializer": {"config": {}, "class_name": "Ones"}, "gamma_initializer": {"config": {}, "class_name": "Ones"}, "epsilon": 0.001, "trainable": true, "beta_regularizer": null, "axis": -1, "scale": true, "gamma_regularizer": null, "center": true, "moving_mean_initializer": {"config": {}, "class_name": "Zeros"}, "momentum": 0.99, "beta_constraint": null, "gamma_constraint": null}, "class_name": "BatchNormalization", "name": "bottle_layer_block_2_bottleneck_bn_3", "inbound_nodes": [[["bottle_layer_block_2_bottleneck_conv1x1_3", 0, 0, {}]]]}, {"config": {"name": "batch_normalization_3", "beta_initializer": {"config": {}, "class_name": "Zeros"}, "moving_variance_initializer": {"config": {}, "class_name": "Ones"}, "gamma_initializer": {"config": {}, "class_name": "Ones"}, "epsilon": 0.001, "trainable": true, "beta_regularizer": null, "axis": -1, "scale": true, "gamma_regularizer": null, "center": true, "moving_mean_initializer": {"config": {}, "class_name": "Zeros"}, "momentum": 0.99, "beta_constraint": null, "gamma_constraint": null}, "class_name": "BatchNormalization", "name": "batch_normalization_3", "inbound_nodes": [[["conv2d_3", 0, 0, {}]]]}, {"config": {"trainable": true, "name": "add_3"}, "class_name": "Add", "name": "add_3", "inbound_nodes": [[["bottle_layer_block_2_bottleneck_bn_3", 0, 0, {}], ["batch_normalization_3", 0, 0, {}]]]}, {"config": {"theta": 0.0, "trainable": true, "name": "bottle_layer_block_2_bottleneck_relu_3"}, "class_name": "ThresholdedReLU", "name": "bottle_layer_block_2_bottleneck_relu_3", "inbound_nodes": [[["add_3", 0, 0, {}]]]}, {"config": {"pointwise_initializer": {"config": {"distribution": "uniform", "seed": null, "mode": "fan_avg", "scale": 1.0}, "class_name": "VarianceScaling"}, "padding": "same", "bias_initializer": {"config": {}, "class_name": "Zeros"}, "name": "bottle_layer_block_3_bottleneck_conv1x1_1", "kernel_size": [1, 1], "pointwise_constraint": null, "dilation_rate": [1, 1], "pointwise_regularizer": null, "activation": "linear", "depthwise_regularizer": null, "use_bias": true, "activity_regularizer": null, "bias_regularizer": null, "filters": 48, "strides": [1, 1], "depthwise_constraint": null, "depth_multiplier": 1, "trainable": true, "depthwise_initializer": {"config": {"distribution": "uniform", "seed": null, "mode": "fan_avg", "scale": 1.0}, "class_name": "VarianceScaling"}, "bias_constraint": null, "data_format": "channels_last"}, "class_name": "SeparableConv2D", "name": "bottle_layer_block_3_bottleneck_conv1x1_1", "inbound_nodes": [[["bottle_layer_block_2_bottleneck_relu_3", 0, 0, {}]]]}, {"config": {"name": "bottle_layer_block_3_bottleneck_bn_1", "beta_initializer": {"config": {}, "class_name": "Zeros"}, "moving_variance_initializer": {"config": {}, "class_name": "Ones"}, "gamma_initializer": {"config": {}, "class_name": "Ones"}, "epsilon": 0.001, "trainable": true, "beta_regularizer": null, "axis": -1, "scale": true, "gamma_regularizer": null, "center": true, "moving_mean_initializer": {"config": {}, "class_name": "Zeros"}, "momentum": 0.99, "beta_constraint": null, "gamma_constraint": null}, "class_name": "BatchNormalization", "name": "bottle_layer_block_3_bottleneck_bn_1", "inbound_nodes": [[["bottle_layer_block_3_bottleneck_conv1x1_1", 0, 0, {}]]]}, {"config": {"theta": 0.0, "trainable": true, "name": "bottle_layer_block_3_bottleneck_relu_1"}, "class_name": "ThresholdedReLU", "name": "bottle_layer_block_3_bottleneck_relu_1", "inbound_nodes": [[["bottle_layer_block_3_bottleneck_bn_1", 0, 0, {}]]]}, {"config": {"pointwise_initializer": {"config": {"distribution": "uniform", "seed": null, "mode": "fan_avg", "scale": 1.0}, "class_name": "VarianceScaling"}, "padding": "same", "bias_initializer": {"config": {}, "class_name": "Zeros"}, "name": "bottle_layer_block_3_bottleneck_conv3x3_2", "kernel_size": [3, 3], "pointwise_constraint": null, "dilation_rate": [1, 1], "pointwise_regularizer": null, "activation": "linear", "depthwise_regularizer": null, "use_bias": true, "activity_regularizer": null, "bias_regularizer": null, "filters": 48, "strides": [1, 1], "depthwise_constraint": null, "depth_multiplier": 1, "trainable": true, "depthwise_initializer": {"config": {"distribution": "uniform", "seed": null, "mode": "fan_avg", "scale": 1.0}, "class_name": "VarianceScaling"}, "bias_constraint": null, "data_format": "channels_last"}, "class_name": "SeparableConv2D", "name": "bottle_layer_block_3_bottleneck_conv3x3_2", "inbound_nodes": [[["bottle_layer_block_3_bottleneck_relu_1", 0, 0, {}]]]}, {"config": {"name": "bottle_layer_block_3_bottleneck_bn_2", "beta_initializer": {"config": {}, "class_name": "Zeros"}, "moving_variance_initializer": {"config": {}, "class_name": "Ones"}, "gamma_initializer": {"config": {}, "class_name": "Ones"}, "epsilon": 0.001, "trainable": true, "beta_regularizer": null, "axis": -1, "scale": true, "gamma_regularizer": null, "center": true, "moving_mean_initializer": {"config": {}, "class_name": "Zeros"}, "momentum": 0.99, "beta_constraint": null, "gamma_constraint": null}, "class_name": "BatchNormalization", "name": "bottle_layer_block_3_bottleneck_bn_2", "inbound_nodes": [[["bottle_layer_block_3_bottleneck_conv3x3_2", 0, 0, {}]]]}, {"config": {"theta": 0.0, "trainable": true, "name": "bottle_layer_block_3_bottleneck_relu_2"}, "class_name": "ThresholdedReLU", "name": "bottle_layer_block_3_bottleneck_relu_2", "inbound_nodes": [[["bottle_layer_block_3_bottleneck_bn_2", 0, 0, {}]]]}, {"config": {"pointwise_initializer": {"config": {"distribution": "uniform", "seed": null, "mode": "fan_avg", "scale": 1.0}, "class_name": "VarianceScaling"}, "padding": "same", "bias_initializer": {"config": {}, "class_name": "Zeros"}, "name": "bottle_layer_block_3_bottleneck_conv1x1_3", "kernel_size": [1, 1], "pointwise_constraint": null, "dilation_rate": [1, 1], "pointwise_regularizer": null, "activation": "linear", "depthwise_regularizer": null, "use_bias": true, "activity_regularizer": null, "bias_regularizer": null, "filters": 192, "strides": [1, 1], "depthwise_constraint": null, "depth_multiplier": 1, "trainable": true, "depthwise_initializer": {"config": {"distribution": "uniform", "seed": null, "mode": "fan_avg", "scale": 1.0}, "class_name": "VarianceScaling"}, "bias_constraint": null, "data_format": "channels_last"}, "class_name": "SeparableConv2D", "name": "bottle_layer_block_3_bottleneck_conv1x1_3", "inbound_nodes": [[["bottle_layer_block_3_bottleneck_relu_2", 0, 0, {}]]]}, {"config": {"padding": "valid", "bias_initializer": {"config": {}, "class_name": "Zeros"}, "kernel_constraint": null, "name": "conv2d_4", "kernel_size": [1, 1], "trainable": true, "dilation_rate": [1, 1], "activation": "linear", "activity_regularizer": null, "kernel_regularizer": null, "filters": 192, "strides": [1, 1], "use_bias": true, "bias_regularizer": null, "kernel_initializer": {"config": {"distribution": "uniform", "seed": null, "mode": "fan_avg", "scale": 1.0}, "class_name": "VarianceScaling"}, "bias_constraint": null, "data_format": "channels_last"}, "class_name": "Conv2D", "name": "conv2d_4", "inbound_nodes": [[["bottle_layer_block_2_bottleneck_relu_3", 0, 0, {}]]]}, {"config": {"name": "bottle_layer_block_3_bottleneck_bn_3", "beta_initializer": {"config": {}, "class_name": "Zeros"}, "moving_variance_initializer": {"config": {}, "class_name": "Ones"}, "gamma_initializer": {"config": {}, "class_name": "Ones"}, "epsilon": 0.001, "trainable": true, "beta_regularizer": null, "axis": -1, "scale": true, "gamma_regularizer": null, "center": true, "moving_mean_initializer": {"config": {}, "class_name": "Zeros"}, "momentum": 0.99, "beta_constraint": null, "gamma_constraint": null}, "class_name": "BatchNormalization", "name": "bottle_layer_block_3_bottleneck_bn_3", "inbound_nodes": [[["bottle_layer_block_3_bottleneck_conv1x1_3", 0, 0, {}]]]}, {"config": {"name": "batch_normalization_4", "beta_initializer": {"config": {}, "class_name": "Zeros"}, "moving_variance_initializer": {"config": {}, "class_name": "Ones"}, "gamma_initializer": {"config": {}, "class_name": "Ones"}, "epsilon": 0.001, "trainable": true, "beta_regularizer": null, "axis": -1, "scale": true, "gamma_regularizer": null, "center": true, "moving_mean_initializer": {"config": {}, "class_name": "Zeros"}, "momentum": 0.99, "beta_constraint": null, "gamma_constraint": null}, "class_name": "BatchNormalization", "name": "batch_normalization_4", "inbound_nodes": [[["conv2d_4", 0, 0, {}]]]}, {"config": {"trainable": true, "name": "add_4"}, "class_name": "Add", "name": "add_4", "inbound_nodes": [[["bottle_layer_block_3_bottleneck_bn_3", 0, 0, {}], ["batch_normalization_4", 0, 0, {}]]]}, {"config": {"theta": 0.0, "trainable": true, "name": "bottle_layer_block_3_bottleneck_relu_3"}, "class_name": "ThresholdedReLU", "name": "bottle_layer_block_3_bottleneck_relu_3", "inbound_nodes": [[["add_4", 0, 0, {}]]]}, {"config": {"padding": "same", "bias_initializer": {"config": {}, "class_name": "Zeros"}, "kernel_constraint": null, "name": "stage2_transition_layer_branch1_conv3x3", "kernel_size": [3, 3], "trainable": true, "dilation_rate": [1, 1], "activation": "linear", "activity_regularizer": null, "kernel_regularizer": null, "filters": 48, "strides": [2, 2], "use_bias": true, "bias_regularizer": null, "kernel_initializer": {"config": {"distribution": "uniform", "seed": null, "mode": "fan_avg", "scale": 1.0}, "class_name": "VarianceScaling"}, "bias_constraint": null, "data_format": "channels_last"}, "class_name": "Conv2D", "name": "stage2_transition_layer_branch1_conv3x3", "inbound_nodes": [[["bottle_layer_block_3_bottleneck_relu_3", 0, 0, {}]]]}, {"config": {"name": "stage2_transition_layer_branch1_bn", "beta_initializer": {"config": {}, "class_name": "Zeros"}, "moving_variance_initializer": {"config": {}, "class_name": "Ones"}, "gamma_initializer": {"config": {}, "class_name": "Ones"}, "epsilon": 0.001, "trainable": true, "beta_regularizer": null, "axis": -1, "scale": true, "gamma_regularizer": null, "center": true, "moving_mean_initializer": {"config": {}, "class_name": "Zeros"}, "momentum": 0.99, "beta_constraint": null, "gamma_constraint": null}, "class_name": "BatchNormalization", "name": "stage2_transition_layer_branch1_bn", "inbound_nodes": [[["stage2_transition_layer_branch1_conv3x3", 0, 0, {}]]]}, {"config": {"theta": 0.0, "trainable": true, "name": "stage2_transition_layer_branch1_relu"}, "class_name": "ThresholdedReLU", "name": "stage2_transition_layer_branch1_relu", "inbound_nodes": [[["stage2_transition_layer_branch1_bn", 0, 0, {}]]]}, {"config": {"padding": "same", "bias_initializer": {"config": {}, "class_name": "Zeros"}, "kernel_constraint": null, "name": "stage2_transition_layer_branch0_conv3x3", "kernel_size": [3, 3], "trainable": true, "dilation_rate": [1, 1], "activation": "linear", "activity_regularizer": null, "kernel_regularizer": null, "filters": 24, "strides": [1, 1], "use_bias": true, "bias_regularizer": null, "kernel_initializer": {"config": {"distribution": "uniform", "seed": null, "mode": "fan_avg", "scale": 1.0}, "class_name": "VarianceScaling"}, "bias_constraint": null, "data_format": "channels_last"}, "class_name": "Conv2D", "name": "stage2_transition_layer_branch0_conv3x3", "inbound_nodes": [[["bottle_layer_block_3_bottleneck_relu_3", 0, 0, {}]]]}, {"config": {"pointwise_initializer": {"config": {"distribution": "uniform", "seed": null, "mode": "fan_avg", "scale": 1.0}, "class_name": "VarianceScaling"}, "padding": "same", "bias_initializer": {"config": {}, "class_name": "Zeros"}, "name": "stage2_stage_layer_hr_module_branch_1_block_0_basic_conv3x3_1", "kernel_size": [3, 3], "pointwise_constraint": null, "dilation_rate": [1, 1], "pointwise_regularizer": null, "activation": "linear", "depthwise_regularizer": null, "use_bias": true, "activity_regularizer": null, "bias_regularizer": null, "filters": 48, "strides": [1, 1], "depthwise_constraint": null, "depth_multiplier": 1, "trainable": true, "depthwise_initializer": {"config": {"distribution": "uniform", "seed": null, "mode": "fan_avg", "scale": 1.0}, "class_name": "VarianceScaling"}, "bias_constraint": null, "data_format": "channels_last"}, "class_name": "SeparableConv2D", "name": "stage2_stage_layer_hr_module_branch_1_block_0_basic_conv3x3_1", "inbound_nodes": [[["stage2_transition_layer_branch1_relu", 0, 0, {}]]]}, {"config": {"name": "stage2_transition_layer_branch0_bn", "beta_initializer": {"config": {}, "class_name": "Zeros"}, "moving_variance_initializer": {"config": {}, "class_name": "Ones"}, "gamma_initializer": {"config": {}, "class_name": "Ones"}, "epsilon": 0.001, "trainable": true, "beta_regularizer": null, "axis": -1, "scale": true, "gamma_regularizer": null, "center": true, "moving_mean_initializer": {"config": {}, "class_name": "Zeros"}, "momentum": 0.99, "beta_constraint": null, "gamma_constraint": null}, "class_name": "BatchNormalization", "name": "stage2_transition_layer_branch0_bn", "inbound_nodes": [[["stage2_transition_layer_branch0_conv3x3", 0, 0, {}]]]}, {"config": {"name": "stage2_stage_layer_hr_module_branch_1_block_0_basic_bn_1", "beta_initializer": {"config": {}, "class_name": "Zeros"}, "moving_variance_initializer": {"config": {}, "class_name": "Ones"}, "gamma_initializer": {"config": {}, "class_name": "Ones"}, "epsilon": 0.001, "trainable": true, "beta_regularizer": null, "axis": -1, "scale": true, "gamma_regularizer": null, "center": true, "moving_mean_initializer": {"config": {}, "class_name": "Zeros"}, "momentum": 0.99, "beta_constraint": null, "gamma_constraint": null}, "class_name": "BatchNormalization", "name": "stage2_stage_layer_hr_module_branch_1_block_0_basic_bn_1", "inbound_nodes": [[["stage2_stage_layer_hr_module_branch_1_block_0_basic_conv3x3_1", 0, 0, {}]]]}, {"config": {"theta": 0.0, "trainable": true, "name": "stage2_transition_layer_branch0_relu"}, "class_name": "ThresholdedReLU", "name": "stage2_transition_layer_branch0_relu", "inbound_nodes": [[["stage2_transition_layer_branch0_bn", 0, 0, {}]]]}, {"config": {"theta": 0.0, "trainable": true, "name": "stage2_stage_layer_hr_module_branch_1_block_0_basic_relu_1"}, "class_name": "ThresholdedReLU", "name": "stage2_stage_layer_hr_module_branch_1_block_0_basic_relu_1", "inbound_nodes": [[["stage2_stage_layer_hr_module_branch_1_block_0_basic_bn_1", 0, 0, {}]]]}, {"config": {"pointwise_initializer": {"config": {"distribution": "uniform", "seed": null, "mode": "fan_avg", "scale": 1.0}, "class_name": "VarianceScaling"}, "padding": "same", "bias_initializer": {"config": {}, "class_name": "Zeros"}, "name": "stage2_stage_layer_hr_module_branch_0_block_0_basic_conv3x3_1", "kernel_size": [3, 3], "pointwise_constraint": null, "dilation_rate": [1, 1], "pointwise_regularizer": null, "activation": "linear", "depthwise_regularizer": null, "use_bias": true, "activity_regularizer": null, "bias_regularizer": null, "filters": 24, "strides": [1, 1], "depthwise_constraint": null, "depth_multiplier": 1, "trainable": true, "depthwise_initializer": {"config": {"distribution": "uniform", "seed": null, "mode": "fan_avg", "scale": 1.0}, "class_name": "VarianceScaling"}, "bias_constraint": null, "data_format": "channels_last"}, "class_name": "SeparableConv2D", "name": "stage2_stage_layer_hr_module_branch_0_block_0_basic_conv3x3_1", "inbound_nodes": [[["stage2_transition_layer_branch0_relu", 0, 0, {}]]]}, {"config": {"pointwise_initializer": {"config": {"distribution": "uniform", "seed": null, "mode": "fan_avg", "scale": 1.0}, "class_name": "VarianceScaling"}, "padding": "same", "bias_initializer": {"config": {}, "class_name": "Zeros"}, "name": "stage2_stage_layer_hr_module_branch_1_block_0_basic_conv3x3_2", "kernel_size": [3, 3], "pointwise_constraint": null, "dilation_rate": [1, 1], "pointwise_regularizer": null, "activation": "linear", "depthwise_regularizer": null, "use_bias": true, "activity_regularizer": null, "bias_regularizer": null, "filters": 48, "strides": [1, 1], "depthwise_constraint": null, "depth_multiplier": 1, "trainable": true, "depthwise_initializer": {"config": {"distribution": "uniform", "seed": null, "mode": "fan_avg", "scale": 1.0}, "class_name": "VarianceScaling"}, "bias_constraint": null, "data_format": "channels_last"}, "class_name": "SeparableConv2D", "name": "stage2_stage_layer_hr_module_branch_1_block_0_basic_conv3x3_2", "inbound_nodes": [[["stage2_stage_layer_hr_module_branch_1_block_0_basic_relu_1", 0, 0, {}]]]}, {"config": {"pointwise_initializer": {"config": {"distribution": "uniform", "seed": null, "mode": "fan_avg", "scale": 1.0}, "class_name": "VarianceScaling"}, "padding": "valid", "bias_initializer": {"config": {}, "class_name": "Zeros"}, "name": "separable_conv2d_2", "kernel_size": [1, 1], "pointwise_constraint": null, "dilation_rate": [1, 1], "pointwise_regularizer": null, "activation": "linear", "depthwise_regularizer": null, "use_bias": true, "activity_regularizer": null, "bias_regularizer": null, "filters": 48, "strides": [1, 1], "depthwise_constraint": null, "depth_multiplier": 1, "trainable": true, "depthwise_initializer": {"config": {"distribution": "uniform", "seed": null, "mode": "fan_avg", "scale": 1.0}, "class_name": "VarianceScaling"}, "bias_constraint": null, "data_format": "channels_last"}, "class_name": "SeparableConv2D", "name": "separable_conv2d_2", "inbound_nodes": [[["stage2_transition_layer_branch1_relu", 0, 0, {}]]]}, {"config": {"name": "stage2_stage_layer_hr_module_branch_0_block_0_basic_bn_1", "beta_initializer": {"config": {}, "class_name": "Zeros"}, "moving_variance_initializer": {"config": {}, "class_name": "Ones"}, "gamma_initializer": {"config": {}, "class_name": "Ones"}, "epsilon": 0.001, "trainable": true, "beta_regularizer": null, "axis": -1, "scale": true, "gamma_regularizer": null, "center": true, "moving_mean_initializer": {"config": {}, "class_name": "Zeros"}, "momentum": 0.99, "beta_constraint": null, "gamma_constraint": null}, "class_name": "BatchNormalization", "name": "stage2_stage_layer_hr_module_branch_0_block_0_basic_bn_1", "inbound_nodes": [[["stage2_stage_layer_hr_module_branch_0_block_0_basic_conv3x3_1", 0, 0, {}]]]}, {"config": {"name": "stage2_stage_layer_hr_module_branch_1_block_0_basic_bn_2", "beta_initializer": {"config": {}, "class_name": "Zeros"}, "moving_variance_initializer": {"config": {}, "class_name": "Ones"}, "gamma_initializer": {"config": {}, "class_name": "Ones"}, "epsilon": 0.001, "trainable": true, "beta_regularizer": null, "axis": -1, "scale": true, "gamma_regularizer": null, "center": true, "moving_mean_initializer": {"config": {}, "class_name": "Zeros"}, "momentum": 0.99, "beta_constraint": null, "gamma_constraint": null}, "class_name": "BatchNormalization", "name": "stage2_stage_layer_hr_module_branch_1_block_0_basic_bn_2", "inbound_nodes": [[["stage2_stage_layer_hr_module_branch_1_block_0_basic_conv3x3_2", 0, 0, {}]]]}, {"config": {"name": "batch_normalization_6", "beta_initializer": {"config": {}, "class_name": "Zeros"}, "moving_variance_initializer": {"config": {}, "class_name": "Ones"}, "gamma_initializer": {"config": {}, "class_name": "Ones"}, "epsilon": 0.001, "trainable": true, "beta_regularizer": null, "axis": -1, "scale": true, "gamma_regularizer": null, "center": true, "moving_mean_initializer": {"config": {}, "class_name": "Zeros"}, "momentum": 0.99, "beta_constraint": null, "gamma_constraint": null}, "class_name": "BatchNormalization", "name": "batch_normalization_6", "inbound_nodes": [[["separable_conv2d_2", 0, 0, {}]]]}, {"config": {"theta": 0.0, "trainable": true, "name": "stage2_stage_layer_hr_module_branch_0_block_0_basic_relu_1"}, "class_name": "ThresholdedReLU", "name": "stage2_stage_layer_hr_module_branch_0_block_0_basic_relu_1", "inbound_nodes": [[["stage2_stage_layer_hr_module_branch_0_block_0_basic_bn_1", 0, 0, {}]]]}, {"config": {"trainable": true, "name": "add_9"}, "class_name": "Add", "name": "add_9", "inbound_nodes": [[["stage2_stage_layer_hr_module_branch_1_block_0_basic_bn_2", 0, 0, {}], ["batch_normalization_6", 0, 0, {}]]]}, {"config": {"pointwise_initializer": {"config": {"distribution": "uniform", "seed": null, "mode": "fan_avg", "scale": 1.0}, "class_name": "VarianceScaling"}, "padding": "same", "bias_initializer": {"config": {}, "class_name": "Zeros"}, "name": "stage2_stage_layer_hr_module_branch_0_block_0_basic_conv3x3_2", "kernel_size": [3, 3], "pointwise_constraint": null, "dilation_rate": [1, 1], "pointwise_regularizer": null, "activation": "linear", "depthwise_regularizer": null, "use_bias": true, "activity_regularizer": null, "bias_regularizer": null, "filters": 24, "strides": [1, 1], "depthwise_constraint": null, "depth_multiplier": 1, "trainable": true, "depthwise_initializer": {"config": {"distribution": "uniform", "seed": null, "mode": "fan_avg", "scale": 1.0}, "class_name": "VarianceScaling"}, "bias_constraint": null, "data_format": "channels_last"}, "class_name": "SeparableConv2D", "name": "stage2_stage_layer_hr_module_branch_0_block_0_basic_conv3x3_2", "inbound_nodes": [[["stage2_stage_layer_hr_module_branch_0_block_0_basic_relu_1", 0, 0, {}]]]}, {"config": {"pointwise_initializer": {"config": {"distribution": "uniform", "seed": null, "mode": "fan_avg", "scale": 1.0}, "class_name": "VarianceScaling"}, "padding": "valid", "bias_initializer": {"config": {}, "class_name": "Zeros"}, "name": "separable_conv2d_1", "kernel_size": [1, 1], "pointwise_constraint": null, "dilation_rate": [1, 1], "pointwise_regularizer": null, "activation": "linear", "depthwise_regularizer": null, "use_bias": true, "activity_regularizer": null, "bias_regularizer": null, "filters": 24, "strides": [1, 1], "depthwise_constraint": null, "depth_multiplier": 1, "trainable": true, "depthwise_initializer": {"config": {"distribution": "uniform", "seed": null, "mode": "fan_avg", "scale": 1.0}, "class_name": "VarianceScaling"}, "bias_constraint": null, "data_format": "channels_last"}, "class_name": "SeparableConv2D", "name": "separable_conv2d_1", "inbound_nodes": [[["stage2_transition_layer_branch0_relu", 0, 0, {}]]]}, {"config": {"theta": 0.0, "trainable": true, "name": "stage2_stage_layer_hr_module_branch_1_block_0_basic_relu_2"}, "class_name": "ThresholdedReLU", "name": "stage2_stage_layer_hr_module_branch_1_block_0_basic_relu_2", "inbound_nodes": [[["add_9", 0, 0, {}]]]}, {"config": {"name": "stage2_stage_layer_hr_module_branch_0_block_0_basic_bn_2", "beta_initializer": {"config": {}, "class_name": "Zeros"}, "moving_variance_initializer": {"config": {}, "class_name": "Ones"}, "gamma_initializer": {"config": {}, "class_name": "Ones"}, "epsilon": 0.001, "trainable": true, "beta_regularizer": null, "axis": -1, "scale": true, "gamma_regularizer": null, "center": true, "moving_mean_initializer": {"config": {}, "class_name": "Zeros"}, "momentum": 0.99, "beta_constraint": null, "gamma_constraint": null}, "class_name": "BatchNormalization", "name": "stage2_stage_layer_hr_module_branch_0_block_0_basic_bn_2", "inbound_nodes": [[["stage2_stage_layer_hr_module_branch_0_block_0_basic_conv3x3_2", 0, 0, {}]]]}, {"config": {"name": "batch_normalization_5", "beta_initializer": {"config": {}, "class_name": "Zeros"}, "moving_variance_initializer": {"config": {}, "class_name": "Ones"}, "gamma_initializer": {"config": {}, "class_name": "Ones"}, "epsilon": 0.001, "trainable": true, "beta_regularizer": null, "axis": -1, "scale": true, "gamma_regularizer": null, "center": true, "moving_mean_initializer": {"config": {}, "class_name": "Zeros"}, "momentum": 0.99, "beta_constraint": null, "gamma_constraint": null}, "class_name": "BatchNormalization", "name": "batch_normalization_5", "inbound_nodes": [[["separable_conv2d_1", 0, 0, {}]]]}, {"config": {"pointwise_initializer": {"config": {"distribution": "uniform", "seed": null, "mode": "fan_avg", "scale": 1.0}, "class_name": "VarianceScaling"}, "padding": "same", "bias_initializer": {"config": {}, "class_name": "Zeros"}, "name": "stage2_stage_layer_hr_module_branch_1_block_1_basic_conv3x3_1", "kernel_size": [3, 3], "pointwise_constraint": null, "dilation_rate": [1, 1], "pointwise_regularizer": null, "activation": "linear", "depthwise_regularizer": null, "use_bias": true, "activity_regularizer": null, "bias_regularizer": null, "filters": 48, "strides": [1, 1], "depthwise_constraint": null, "depth_multiplier": 1, "trainable": true, "depthwise_initializer": {"config": {"distribution": "uniform", "seed": null, "mode": "fan_avg", "scale": 1.0}, "class_name": "VarianceScaling"}, "bias_constraint": null, "data_format": "channels_last"}, "class_name": "SeparableConv2D", "name": "stage2_stage_layer_hr_module_branch_1_block_1_basic_conv3x3_1", "inbound_nodes": [[["stage2_stage_layer_hr_module_branch_1_block_0_basic_relu_2", 0, 0, {}]]]}, {"config": {"trainable": true, "name": "add_5"}, "class_name": "Add", "name": "add_5", "inbound_nodes": [[["stage2_stage_layer_hr_module_branch_0_block_0_basic_bn_2", 0, 0, {}], ["batch_normalization_5", 0, 0, {}]]]}, {"config": {"name": "stage2_stage_layer_hr_module_branch_1_block_1_basic_bn_1", "beta_initializer": {"config": {}, "class_name": "Zeros"}, "moving_variance_initializer": {"config": {}, "class_name": "Ones"}, "gamma_initializer": {"config": {}, "class_name": "Ones"}, "epsilon": 0.001, "trainable": true, "beta_regularizer": null, "axis": -1, "scale": true, "gamma_regularizer": null, "center": true, "moving_mean_initializer": {"config": {}, "class_name": "Zeros"}, "momentum": 0.99, "beta_constraint": null, "gamma_constraint": null}, "class_name": "BatchNormalization", "name": "stage2_stage_layer_hr_module_branch_1_block_1_basic_bn_1", "inbound_nodes": [[["stage2_stage_layer_hr_module_branch_1_block_1_basic_conv3x3_1", 0, 0, {}]]]}, {"config": {"theta": 0.0, "trainable": true, "name": "stage2_stage_layer_hr_module_branch_0_block_0_basic_relu_2"}, "class_name": "ThresholdedReLU", "name": "stage2_stage_layer_hr_module_branch_0_block_0_basic_relu_2", "inbound_nodes": [[["add_5", 0, 0, {}]]]}, {"config": {"theta": 0.0, "trainable": true, "name": "stage2_stage_layer_hr_module_branch_1_block_1_basic_relu_1"}, "class_name": "ThresholdedReLU", "name": "stage2_stage_layer_hr_module_branch_1_block_1_basic_relu_1", "inbound_nodes": [[["stage2_stage_layer_hr_module_branch_1_block_1_basic_bn_1", 0, 0, {}]]]}, {"config": {"pointwise_initializer": {"config": {"distribution": "uniform", "seed": null, "mode": "fan_avg", "scale": 1.0}, "class_name": "VarianceScaling"}, "padding": "same", "bias_initializer": {"config": {}, "class_name": "Zeros"}, "name": "stage2_stage_layer_hr_module_branch_0_block_1_basic_conv3x3_1", "kernel_size": [3, 3], "pointwise_constraint": null, "dilation_rate": [1, 1], "pointwise_regularizer": null, "activation": "linear", "depthwise_regularizer": null, "use_bias": true, "activity_regularizer": null, "bias_regularizer": null, "filters": 24, "strides": [1, 1], "depthwise_constraint": null, "depth_multiplier": 1, "trainable": true, "depthwise_initializer": {"config": {"distribution": "uniform", "seed": null, "mode": "fan_avg", "scale": 1.0}, "class_name": "VarianceScaling"}, "bias_constraint": null, "data_format": "channels_last"}, "class_name": "SeparableConv2D", "name": "stage2_stage_layer_hr_module_branch_0_block_1_basic_conv3x3_1", "inbound_nodes": [[["stage2_stage_layer_hr_module_branch_0_block_0_basic_relu_2", 0, 0, {}]]]}, {"config": {"pointwise_initializer": {"config": {"distribution": "uniform", "seed": null, "mode": "fan_avg", "scale": 1.0}, "class_name": "VarianceScaling"}, "padding": "same", "bias_initializer": {"config": {}, "class_name": "Zeros"}, "name": "stage2_stage_layer_hr_module_branch_1_block_1_basic_conv3x3_2", "kernel_size": [3, 3], "pointwise_constraint": null, "dilation_rate": [1, 1], "pointwise_regularizer": null, "activation": "linear", "depthwise_regularizer": null, "use_bias": true, "activity_regularizer": null, "bias_regularizer": null, "filters": 48, "strides": [1, 1], "depthwise_constraint": null, "depth_multiplier": 1, "trainable": true, "depthwise_initializer": {"config": {"distribution": "uniform", "seed": null, "mode": "fan_avg", "scale": 1.0}, "class_name": "VarianceScaling"}, "bias_constraint": null, "data_format": "channels_last"}, "class_name": "SeparableConv2D", "name": "stage2_stage_layer_hr_module_branch_1_block_1_basic_conv3x3_2", "inbound_nodes": [[["stage2_stage_layer_hr_module_branch_1_block_1_basic_relu_1", 0, 0, {}]]]}, {"config": {"name": "stage2_stage_layer_hr_module_branch_0_block_1_basic_bn_1", "beta_initializer": {"config": {}, "class_name": "Zeros"}, "moving_variance_initializer": {"config": {}, "class_name": "Ones"}, "gamma_initializer": {"config": {}, "class_name": "Ones"}, "epsilon": 0.001, "trainable": true, "beta_regularizer": null, "axis": -1, "scale": true, "gamma_regularizer": null, "center": true, "moving_mean_initializer": {"config": {}, "class_name": "Zeros"}, "momentum": 0.99, "beta_constraint": null, "gamma_constraint": null}, "class_name": "BatchNormalization", "name": "stage2_stage_layer_hr_module_branch_0_block_1_basic_bn_1", "inbound_nodes": [[["stage2_stage_layer_hr_module_branch_0_block_1_basic_conv3x3_1", 0, 0, {}]]]}, {"config": {"name": "stage2_stage_layer_hr_module_branch_1_block_1_basic_bn_2", "beta_initializer": {"config": {}, "class_name": "Zeros"}, "moving_variance_initializer": {"config": {}, "class_name": "Ones"}, "gamma_initializer": {"config": {}, "class_name": "Ones"}, "epsilon": 0.001, "trainable": true, "beta_regularizer": null, "axis": -1, "scale": true, "gamma_regularizer": null, "center": true, "moving_mean_initializer": {"config": {}, "class_name": "Zeros"}, "momentum": 0.99, "beta_constraint": null, "gamma_constraint": null}, "class_name": "BatchNormalization", "name": "stage2_stage_layer_hr_module_branch_1_block_1_basic_bn_2", "inbound_nodes": [[["stage2_stage_layer_hr_module_branch_1_block_1_basic_conv3x3_2", 0, 0, {}]]]}, {"config": {"theta": 0.0, "trainable": true, "name": "stage2_stage_layer_hr_module_branch_0_block_1_basic_relu_1"}, "class_name": "ThresholdedReLU", "name": "stage2_stage_layer_hr_module_branch_0_block_1_basic_relu_1", "inbound_nodes": [[["stage2_stage_layer_hr_module_branch_0_block_1_basic_bn_1", 0, 0, {}]]]}, {"config": {"trainable": true, "name": "add_10"}, "class_name": "Add", "name": "add_10", "inbound_nodes": [[["stage2_stage_layer_hr_module_branch_1_block_1_basic_bn_2", 0, 0, {}], ["stage2_stage_layer_hr_module_branch_1_block_0_basic_relu_2", 0, 0, {}]]]}, {"config": {"pointwise_initializer": {"config": {"distribution": "uniform", "seed": null, "mode": "fan_avg", "scale": 1.0}, "class_name": "VarianceScaling"}, "padding": "same", "bias_initializer": {"config": {}, "class_name": "Zeros"}, "name": "stage2_stage_layer_hr_module_branch_0_block_1_basic_conv3x3_2", "kernel_size": [3, 3], "pointwise_constraint": null, "dilation_rate": [1, 1], "pointwise_regularizer": null, "activation": "linear", "depthwise_regularizer": null, "use_bias": true, "activity_regularizer": null, "bias_regularizer": null, "filters": 24, "strides": [1, 1], "depthwise_constraint": null, "depth_multiplier": 1, "trainable": true, "depthwise_initializer": {"config": {"distribution": "uniform", "seed": null, "mode": "fan_avg", "scale": 1.0}, "class_name": "VarianceScaling"}, "bias_constraint": null, "data_format": "channels_last"}, "class_name": "SeparableConv2D", "name": "stage2_stage_layer_hr_module_branch_0_block_1_basic_conv3x3_2", "inbound_nodes": [[["stage2_stage_layer_hr_module_branch_0_block_1_basic_relu_1", 0, 0, {}]]]}, {"config": {"theta": 0.0, "trainable": true, "name": "stage2_stage_layer_hr_module_branch_1_block_1_basic_relu_2"}, "class_name": "ThresholdedReLU", "name": "stage2_stage_layer_hr_module_branch_1_block_1_basic_relu_2", "inbound_nodes": [[["add_10", 0, 0, {}]]]}, {"config": {"name": "stage2_stage_layer_hr_module_branch_0_block_1_basic_bn_2", "beta_initializer": {"config": {}, "class_name": "Zeros"}, "moving_variance_initializer": {"config": {}, "class_name": "Ones"}, "gamma_initializer": {"config": {}, "class_name": "Ones"}, "epsilon": 0.001, "trainable": true, "beta_regularizer": null, "axis": -1, "scale": true, "gamma_regularizer": null, "center": true, "moving_mean_initializer": {"config": {}, "class_name": "Zeros"}, "momentum": 0.99, "beta_constraint": null, "gamma_constraint": null}, "class_name": "BatchNormalization", "name": "stage2_stage_layer_hr_module_branch_0_block_1_basic_bn_2", "inbound_nodes": [[["stage2_stage_layer_hr_module_branch_0_block_1_basic_conv3x3_2", 0, 0, {}]]]}, {"config": {"pointwise_initializer": {"config": {"distribution": "uniform", "seed": null, "mode": "fan_avg", "scale": 1.0}, "class_name": "VarianceScaling"}, "padding": "same", "bias_initializer": {"config": {}, "class_name": "Zeros"}, "name": "stage2_stage_layer_hr_module_branch_1_block_2_basic_conv3x3_1", "kernel_size": [3, 3], "pointwise_constraint": null, "dilation_rate": [1, 1], "pointwise_regularizer": null, "activation": "linear", "depthwise_regularizer": null, "use_bias": true, "activity_regularizer": null, "bias_regularizer": null, "filters": 48, "strides": [1, 1], "depthwise_constraint": null, "depth_multiplier": 1, "trainable": true, "depthwise_initializer": {"config": {"distribution": "uniform", "seed": null, "mode": "fan_avg", "scale": 1.0}, "class_name": "VarianceScaling"}, "bias_constraint": null, "data_format": "channels_last"}, "class_name": "SeparableConv2D", "name": "stage2_stage_layer_hr_module_branch_1_block_2_basic_conv3x3_1", "inbound_nodes": [[["stage2_stage_layer_hr_module_branch_1_block_1_basic_relu_2", 0, 0, {}]]]}, {"config": {"trainable": true, "name": "add_6"}, "class_name": "Add", "name": "add_6", "inbound_nodes": [[["stage2_stage_layer_hr_module_branch_0_block_1_basic_bn_2", 0, 0, {}], ["stage2_stage_layer_hr_module_branch_0_block_0_basic_relu_2", 0, 0, {}]]]}, {"config": {"name": "stage2_stage_layer_hr_module_branch_1_block_2_basic_bn_1", "beta_initializer": {"config": {}, "class_name": "Zeros"}, "moving_variance_initializer": {"config": {}, "class_name": "Ones"}, "gamma_initializer": {"config": {}, "class_name": "Ones"}, "epsilon": 0.001, "trainable": true, "beta_regularizer": null, "axis": -1, "scale": true, "gamma_regularizer": null, "center": true, "moving_mean_initializer": {"config": {}, "class_name": "Zeros"}, "momentum": 0.99, "beta_constraint": null, "gamma_constraint": null}, "class_name": "BatchNormalization", "name": "stage2_stage_layer_hr_module_branch_1_block_2_basic_bn_1", "inbound_nodes": [[["stage2_stage_layer_hr_module_branch_1_block_2_basic_conv3x3_1", 0, 0, {}]]]}, {"config": {"theta": 0.0, "trainable": true, "name": "stage2_stage_layer_hr_module_branch_0_block_1_basic_relu_2"}, "class_name": "ThresholdedReLU", "name": "stage2_stage_layer_hr_module_branch_0_block_1_basic_relu_2", "inbound_nodes": [[["add_6", 0, 0, {}]]]}, {"config": {"theta": 0.0, "trainable": true, "name": "stage2_stage_layer_hr_module_branch_1_block_2_basic_relu_1"}, "class_name": "ThresholdedReLU", "name": "stage2_stage_layer_hr_module_branch_1_block_2_basic_relu_1", "inbound_nodes": [[["stage2_stage_layer_hr_module_branch_1_block_2_basic_bn_1", 0, 0, {}]]]}, {"config": {"pointwise_initializer": {"config": {"distribution": "uniform", "seed": null, "mode": "fan_avg", "scale": 1.0}, "class_name": "VarianceScaling"}, "padding": "same", "bias_initializer": {"config": {}, "class_name": "Zeros"}, "name": "stage2_stage_layer_hr_module_branch_0_block_2_basic_conv3x3_1", "kernel_size": [3, 3], "pointwise_constraint": null, "dilation_rate": [1, 1], "pointwise_regularizer": null, "activation": "linear", "depthwise_regularizer": null, "use_bias": true, "activity_regularizer": null, "bias_regularizer": null, "filters": 24, "strides": [1, 1], "depthwise_constraint": null, "depth_multiplier": 1, "trainable": true, "depthwise_initializer": {"config": {"distribution": "uniform", "seed": null, "mode": "fan_avg", "scale": 1.0}, "class_name": "VarianceScaling"}, "bias_constraint": null, "data_format": "channels_last"}, "class_name": "SeparableConv2D", "name": "stage2_stage_layer_hr_module_branch_0_block_2_basic_conv3x3_1", "inbound_nodes": [[["stage2_stage_layer_hr_module_branch_0_block_1_basic_relu_2", 0, 0, {}]]]}, {"config": {"pointwise_initializer": {"config": {"distribution": "uniform", "seed": null, "mode": "fan_avg", "scale": 1.0}, "class_name": "VarianceScaling"}, "padding": "same", "bias_initializer": {"config": {}, "class_name": "Zeros"}, "name": "stage2_stage_layer_hr_module_branch_1_block_2_basic_conv3x3_2", "kernel_size": [3, 3], "pointwise_constraint": null, "dilation_rate": [1, 1], "pointwise_regularizer": null, "activation": "linear", "depthwise_regularizer": null, "use_bias": true, "activity_regularizer": null, "bias_regularizer": null, "filters": 48, "strides": [1, 1], "depthwise_constraint": null, "depth_multiplier": 1, "trainable": true, "depthwise_initializer": {"config": {"distribution": "uniform", "seed": null, "mode": "fan_avg", "scale": 1.0}, "class_name": "VarianceScaling"}, "bias_constraint": null, "data_format": "channels_last"}, "class_name": "SeparableConv2D", "name": "stage2_stage_layer_hr_module_branch_1_block_2_basic_conv3x3_2", "inbound_nodes": [[["stage2_stage_layer_hr_module_branch_1_block_2_basic_relu_1", 0, 0, {}]]]}, {"config": {"name": "stage2_stage_layer_hr_module_branch_0_block_2_basic_bn_1", "beta_initializer": {"config": {}, "class_name": "Zeros"}, "moving_variance_initializer": {"config": {}, "class_name": "Ones"}, "gamma_initializer": {"config": {}, "class_name": "Ones"}, "epsilon": 0.001, "trainable": true, "beta_regularizer": null, "axis": -1, "scale": true, "gamma_regularizer": null, "center": true, "moving_mean_initializer": {"config": {}, "class_name": "Zeros"}, "momentum": 0.99, "beta_constraint": null, "gamma_constraint": null}, "class_name": "BatchNormalization", "name": "stage2_stage_layer_hr_module_branch_0_block_2_basic_bn_1", "inbound_nodes": [[["stage2_stage_layer_hr_module_branch_0_block_2_basic_conv3x3_1", 0, 0, {}]]]}, {"config": {"name": "stage2_stage_layer_hr_module_branch_1_block_2_basic_bn_2", "beta_initializer": {"config": {}, "class_name": "Zeros"}, "moving_variance_initializer": {"config": {}, "class_name": "Ones"}, "gamma_initializer": {"config": {}, "class_name": "Ones"}, "epsilon": 0.001, "trainable": true, "beta_regularizer": null, "axis": -1, "scale": true, "gamma_regularizer": null, "center": true, "moving_mean_initializer": {"config": {}, "class_name": "Zeros"}, "momentum": 0.99, "beta_constraint": null, "gamma_constraint": null}, "class_name": "BatchNormalization", "name": "stage2_stage_layer_hr_module_branch_1_block_2_basic_bn_2", "inbound_nodes": [[["stage2_stage_layer_hr_module_branch_1_block_2_basic_conv3x3_2", 0, 0, {}]]]}, {"config": {"theta": 0.0, "trainable": true, "name": "stage2_stage_layer_hr_module_branch_0_block_2_basic_relu_1"}, "class_name": "ThresholdedReLU", "name": "stage2_stage_layer_hr_module_branch_0_block_2_basic_relu_1", "inbound_nodes": [[["stage2_stage_layer_hr_module_branch_0_block_2_basic_bn_1", 0, 0, {}]]]}, {"config": {"trainable": true, "name": "add_11"}, "class_name": "Add", "name": "add_11", "inbound_nodes": [[["stage2_stage_layer_hr_module_branch_1_block_2_basic_bn_2", 0, 0, {}], ["stage2_stage_layer_hr_module_branch_1_block_1_basic_relu_2", 0, 0, {}]]]}, {"config": {"pointwise_initializer": {"config": {"distribution": "uniform", "seed": null, "mode": "fan_avg", "scale": 1.0}, "class_name": "VarianceScaling"}, "padding": "same", "bias_initializer": {"config": {}, "class_name": "Zeros"}, "name": "stage2_stage_layer_hr_module_branch_0_block_2_basic_conv3x3_2", "kernel_size": [3, 3], "pointwise_constraint": null, "dilation_rate": [1, 1], "pointwise_regularizer": null, "activation": "linear", "depthwise_regularizer": null, "use_bias": true, "activity_regularizer": null, "bias_regularizer": null, "filters": 24, "strides": [1, 1], "depthwise_constraint": null, "depth_multiplier": 1, "trainable": true, "depthwise_initializer": {"config": {"distribution": "uniform", "seed": null, "mode": "fan_avg", "scale": 1.0}, "class_name": "VarianceScaling"}, "bias_constraint": null, "data_format": "channels_last"}, "class_name": "SeparableConv2D", "name": "stage2_stage_layer_hr_module_branch_0_block_2_basic_conv3x3_2", "inbound_nodes": [[["stage2_stage_layer_hr_module_branch_0_block_2_basic_relu_1", 0, 0, {}]]]}, {"config": {"theta": 0.0, "trainable": true, "name": "stage2_stage_layer_hr_module_branch_1_block_2_basic_relu_2"}, "class_name": "ThresholdedReLU", "name": "stage2_stage_layer_hr_module_branch_1_block_2_basic_relu_2", "inbound_nodes": [[["add_11", 0, 0, {}]]]}, {"config": {"name": "stage2_stage_layer_hr_module_branch_0_block_2_basic_bn_2", "beta_initializer": {"config": {}, "class_name": "Zeros"}, "moving_variance_initializer": {"config": {}, "class_name": "Ones"}, "gamma_initializer": {"config": {}, "class_name": "Ones"}, "epsilon": 0.001, "trainable": true, "beta_regularizer": null, "axis": -1, "scale": true, "gamma_regularizer": null, "center": true, "moving_mean_initializer": {"config": {}, "class_name": "Zeros"}, "momentum": 0.99, "beta_constraint": null, "gamma_constraint": null}, "class_name": "BatchNormalization", "name": "stage2_stage_layer_hr_module_branch_0_block_2_basic_bn_2", "inbound_nodes": [[["stage2_stage_layer_hr_module_branch_0_block_2_basic_conv3x3_2", 0, 0, {}]]]}, {"config": {"pointwise_initializer": {"config": {"distribution": "uniform", "seed": null, "mode": "fan_avg", "scale": 1.0}, "class_name": "VarianceScaling"}, "padding": "same", "bias_initializer": {"config": {}, "class_name": "Zeros"}, "name": "stage2_stage_layer_hr_module_branch_1_block_3_basic_conv3x3_1", "kernel_size": [3, 3], "pointwise_constraint": null, "dilation_rate": [1, 1], "pointwise_regularizer": null, "activation": "linear", "depthwise_regularizer": null, "use_bias": true, "activity_regularizer": null, "bias_regularizer": null, "filters": 48, "strides": [1, 1], "depthwise_constraint": null, "depth_multiplier": 1, "trainable": true, "depthwise_initializer": {"config": {"distribution": "uniform", "seed": null, "mode": "fan_avg", "scale": 1.0}, "class_name": "VarianceScaling"}, "bias_constraint": null, "data_format": "channels_last"}, "class_name": "SeparableConv2D", "name": "stage2_stage_layer_hr_module_branch_1_block_3_basic_conv3x3_1", "inbound_nodes": [[["stage2_stage_layer_hr_module_branch_1_block_2_basic_relu_2", 0, 0, {}]]]}, {"config": {"trainable": true, "name": "add_7"}, "class_name": "Add", "name": "add_7", "inbound_nodes": [[["stage2_stage_layer_hr_module_branch_0_block_2_basic_bn_2", 0, 0, {}], ["stage2_stage_layer_hr_module_branch_0_block_1_basic_relu_2", 0, 0, {}]]]}, {"config": {"name": "stage2_stage_layer_hr_module_branch_1_block_3_basic_bn_1", "beta_initializer": {"config": {}, "class_name": "Zeros"}, "moving_variance_initializer": {"config": {}, "class_name": "Ones"}, "gamma_initializer": {"config": {}, "class_name": "Ones"}, "epsilon": 0.001, "trainable": true, "beta_regularizer": null, "axis": -1, "scale": true, "gamma_regularizer": null, "center": true, "moving_mean_initializer": {"config": {}, "class_name": "Zeros"}, "momentum": 0.99, "beta_constraint": null, "gamma_constraint": null}, "class_name": "BatchNormalization", "name": "stage2_stage_layer_hr_module_branch_1_block_3_basic_bn_1", "inbound_nodes": [[["stage2_stage_layer_hr_module_branch_1_block_3_basic_conv3x3_1", 0, 0, {}]]]}, {"config": {"theta": 0.0, "trainable": true, "name": "stage2_stage_layer_hr_module_branch_0_block_2_basic_relu_2"}, "class_name": "ThresholdedReLU", "name": "stage2_stage_layer_hr_module_branch_0_block_2_basic_relu_2", "inbound_nodes": [[["add_7", 0, 0, {}]]]}, {"config": {"theta": 0.0, "trainable": true, "name": "stage2_stage_layer_hr_module_branch_1_block_3_basic_relu_1"}, "class_name": "ThresholdedReLU", "name": "stage2_stage_layer_hr_module_branch_1_block_3_basic_relu_1", "inbound_nodes": [[["stage2_stage_layer_hr_module_branch_1_block_3_basic_bn_1", 0, 0, {}]]]}, {"config": {"pointwise_initializer": {"config": {"distribution": "uniform", "seed": null, "mode": "fan_avg", "scale": 1.0}, "class_name": "VarianceScaling"}, "padding": "same", "bias_initializer": {"config": {}, "class_name": "Zeros"}, "name": "stage2_stage_layer_hr_module_branch_0_block_3_basic_conv3x3_1", "kernel_size": [3, 3], "pointwise_constraint": null, "dilation_rate": [1, 1], "pointwise_regularizer": null, "activation": "linear", "depthwise_regularizer": null, "use_bias": true, "activity_regularizer": null, "bias_regularizer": null, "filters": 24, "strides": [1, 1], "depthwise_constraint": null, "depth_multiplier": 1, "trainable": true, "depthwise_initializer": {"config": {"distribution": "uniform", "seed": null, "mode": "fan_avg", "scale": 1.0}, "class_name": "VarianceScaling"}, "bias_constraint": null, "data_format": "channels_last"}, "class_name": "SeparableConv2D", "name": "stage2_stage_layer_hr_module_branch_0_block_3_basic_conv3x3_1", "inbound_nodes": [[["stage2_stage_layer_hr_module_branch_0_block_2_basic_relu_2", 0, 0, {}]]]}, {"config": {"pointwise_initializer": {"config": {"distribution": "uniform", "seed": null, "mode": "fan_avg", "scale": 1.0}, "class_name": "VarianceScaling"}, "padding": "same", "bias_initializer": {"config": {}, "class_name": "Zeros"}, "name": "stage2_stage_layer_hr_module_branch_1_block_3_basic_conv3x3_2", "kernel_size": [3, 3], "pointwise_constraint": null, "dilation_rate": [1, 1], "pointwise_regularizer": null, "activation": "linear", "depthwise_regularizer": null, "use_bias": true, "activity_regularizer": null, "bias_regularizer": null, "filters": 48, "strides": [1, 1], "depthwise_constraint": null, "depth_multiplier": 1, "trainable": true, "depthwise_initializer": {"config": {"distribution": "uniform", "seed": null, "mode": "fan_avg", "scale": 1.0}, "class_name": "VarianceScaling"}, "bias_constraint": null, "data_format": "channels_last"}, "class_name": "SeparableConv2D", "name": "stage2_stage_layer_hr_module_branch_1_block_3_basic_conv3x3_2", "inbound_nodes": [[["stage2_stage_layer_hr_module_branch_1_block_3_basic_relu_1", 0, 0, {}]]]}, {"config": {"name": "stage2_stage_layer_hr_module_branch_0_block_3_basic_bn_1", "beta_initializer": {"config": {}, "class_name": "Zeros"}, "moving_variance_initializer": {"config": {}, "class_name": "Ones"}, "gamma_initializer": {"config": {}, "class_name": "Ones"}, "epsilon": 0.001, "trainable": true, "beta_regularizer": null, "axis": -1, "scale": true, "gamma_regularizer": null, "center": true, "moving_mean_initializer": {"config": {}, "class_name": "Zeros"}, "momentum": 0.99, "beta_constraint": null, "gamma_constraint": null}, "class_name": "BatchNormalization", "name": "stage2_stage_layer_hr_module_branch_0_block_3_basic_bn_1", "inbound_nodes": [[["stage2_stage_layer_hr_module_branch_0_block_3_basic_conv3x3_1", 0, 0, {}]]]}, {"config": {"name": "stage2_stage_layer_hr_module_branch_1_block_3_basic_bn_2", "beta_initializer": {"config": {}, "class_name": "Zeros"}, "moving_variance_initializer": {"config": {}, "class_name": "Ones"}, "gamma_initializer": {"config": {}, "class_name": "Ones"}, "epsilon": 0.001, "trainable": true, "beta_regularizer": null, "axis": -1, "scale": true, "gamma_regularizer": null, "center": true, "moving_mean_initializer": {"config": {}, "class_name": "Zeros"}, "momentum": 0.99, "beta_constraint": null, "gamma_constraint": null}, "class_name": "BatchNormalization", "name": "stage2_stage_layer_hr_module_branch_1_block_3_basic_bn_2", "inbound_nodes": [[["stage2_stage_layer_hr_module_branch_1_block_3_basic_conv3x3_2", 0, 0, {}]]]}, {"config": {"theta": 0.0, "trainable": true, "name": "stage2_stage_layer_hr_module_branch_0_block_3_basic_relu_1"}, "class_name": "ThresholdedReLU", "name": "stage2_stage_layer_hr_module_branch_0_block_3_basic_relu_1", "inbound_nodes": [[["stage2_stage_layer_hr_module_branch_0_block_3_basic_bn_1", 0, 0, {}]]]}, {"config": {"trainable": true, "name": "add_12"}, "class_name": "Add", "name": "add_12", "inbound_nodes": [[["stage2_stage_layer_hr_module_branch_1_block_3_basic_bn_2", 0, 0, {}], ["stage2_stage_layer_hr_module_branch_1_block_2_basic_relu_2", 0, 0, {}]]]}, {"config": {"pointwise_initializer": {"config": {"distribution": "uniform", "seed": null, "mode": "fan_avg", "scale": 1.0}, "class_name": "VarianceScaling"}, "padding": "same", "bias_initializer": {"config": {}, "class_name": "Zeros"}, "name": "stage2_stage_layer_hr_module_branch_0_block_3_basic_conv3x3_2", "kernel_size": [3, 3], "pointwise_constraint": null, "dilation_rate": [1, 1], "pointwise_regularizer": null, "activation": "linear", "depthwise_regularizer": null, "use_bias": true, "activity_regularizer": null, "bias_regularizer": null, "filters": 24, "strides": [1, 1], "depthwise_constraint": null, "depth_multiplier": 1, "trainable": true, "depthwise_initializer": {"config": {"distribution": "uniform", "seed": null, "mode": "fan_avg", "scale": 1.0}, "class_name": "VarianceScaling"}, "bias_constraint": null, "data_format": "channels_last"}, "class_name": "SeparableConv2D", "name": "stage2_stage_layer_hr_module_branch_0_block_3_basic_conv3x3_2", "inbound_nodes": [[["stage2_stage_layer_hr_module_branch_0_block_3_basic_relu_1", 0, 0, {}]]]}, {"config": {"theta": 0.0, "trainable": true, "name": "stage2_stage_layer_hr_module_branch_1_block_3_basic_relu_2"}, "class_name": "ThresholdedReLU", "name": "stage2_stage_layer_hr_module_branch_1_block_3_basic_relu_2", "inbound_nodes": [[["add_12", 0, 0, {}]]]}, {"config": {"name": "stage2_stage_layer_hr_module_branch_0_block_3_basic_bn_2", "beta_initializer": {"config": {}, "class_name": "Zeros"}, "moving_variance_initializer": {"config": {}, "class_name": "Ones"}, "gamma_initializer": {"config": {}, "class_name": "Ones"}, "epsilon": 0.001, "trainable": true, "beta_regularizer": null, "axis": -1, "scale": true, "gamma_regularizer": null, "center": true, "moving_mean_initializer": {"config": {}, "class_name": "Zeros"}, "momentum": 0.99, "beta_constraint": null, "gamma_constraint": null}, "class_name": "BatchNormalization", "name": "stage2_stage_layer_hr_module_branch_0_block_3_basic_bn_2", "inbound_nodes": [[["stage2_stage_layer_hr_module_branch_0_block_3_basic_conv3x3_2", 0, 0, {}]]]}, {"config": {"padding": "same", "bias_initializer": {"config": {}, "class_name": "Zeros"}, "kernel_constraint": null, "name": "stage2_stage_layer_hr_module_fuse_conv1x1_1_0", "kernel_size": [1, 1], "trainable": true, "dilation_rate": [1, 1], "activation": "linear", "activity_regularizer": null, "kernel_regularizer": null, "filters": 24, "strides": [1, 1], "use_bias": true, "bias_regularizer": null, "kernel_initializer": {"config": {"distribution": "uniform", "seed": null, "mode": "fan_avg", "scale": 1.0}, "class_name": "VarianceScaling"}, "bias_constraint": null, "data_format": "channels_last"}, "class_name": "Conv2D", "name": "stage2_stage_layer_hr_module_fuse_conv1x1_1_0", "inbound_nodes": [[["stage2_stage_layer_hr_module_branch_1_block_3_basic_relu_2", 0, 0, {}]]]}, {"config": {"trainable": true, "name": "add_8"}, "class_name": "Add", "name": "add_8", "inbound_nodes": [[["stage2_stage_layer_hr_module_branch_0_block_3_basic_bn_2", 0, 0, {}], ["stage2_stage_layer_hr_module_branch_0_block_2_basic_relu_2", 0, 0, {}]]]}, {"config": {"name": "batch_normalization_7", "beta_initializer": {"config": {}, "class_name": "Zeros"}, "moving_variance_initializer": {"config": {}, "class_name": "Ones"}, "gamma_initializer": {"config": {}, "class_name": "Ones"}, "epsilon": 0.001, "trainable": true, "beta_regularizer": null, "axis": -1, "scale": true, "gamma_regularizer": null, "center": true, "moving_mean_initializer": {"config": {}, "class_name": "Zeros"}, "momentum": 0.99, "beta_constraint": null, "gamma_constraint": null}, "class_name": "BatchNormalization", "name": "batch_normalization_7", "inbound_nodes": [[["stage2_stage_layer_hr_module_fuse_conv1x1_1_0", 0, 0, {}]]]}, {"config": {"theta": 0.0, "trainable": true, "name": "stage2_stage_layer_hr_module_branch_0_block_3_basic_relu_2"}, "class_name": "ThresholdedReLU", "name": "stage2_stage_layer_hr_module_branch_0_block_3_basic_relu_2", "inbound_nodes": [[["add_8", 0, 0, {}]]]}, {"config": {"data_format": "channels_last", "trainable": true, "interpolation": "nearest", "name": "up_sampling2d_1", "size": [2, 2]}, "class_name": "UpSampling2D", "name": "up_sampling2d_1", "inbound_nodes": [[["batch_normalization_7", 0, 0, {}]]]}, {"config": {"trainable": true, "name": "add_13"}, "class_name": "Add", "name": "add_13", "inbound_nodes": [[["stage2_stage_layer_hr_module_branch_0_block_3_basic_relu_2", 0, 0, {}], ["up_sampling2d_1", 0, 0, {}]]]}, {"config": {"padding": "same", "bias_initializer": {"config": {}, "class_name": "Zeros"}, "kernel_constraint": null, "name": "stage2_stage_layer_hr_module_fuse_conv3x3_0_1_0", "kernel_size": [3, 3], "trainable": true, "dilation_rate": [1, 1], "activation": "linear", "activity_regularizer": null, "kernel_regularizer": null, "filters": 48, "strides": [2, 2], "use_bias": true, "bias_regularizer": null, "kernel_initializer": {"config": {"distribution": "uniform", "seed": null, "mode": "fan_avg", "scale": 1.0}, "class_name": "VarianceScaling"}, "bias_constraint": null, "data_format": "channels_last"}, "class_name": "Conv2D", "name": "stage2_stage_layer_hr_module_fuse_conv3x3_0_1_0", "inbound_nodes": [[["stage2_stage_layer_hr_module_branch_0_block_3_basic_relu_2", 0, 0, {}]]]}, {"config": {"pointwise_initializer": {"config": {"distribution": "uniform", "seed": null, "mode": "fan_avg", "scale": 1.0}, "class_name": "VarianceScaling"}, "padding": "same", "bias_initializer": {"config": {}, "class_name": "Zeros"}, "name": "stage3_stage_layer_hr_module_branch_0_block_0_basic_conv3x3_1", "kernel_size": [3, 3], "pointwise_constraint": null, "dilation_rate": [1, 1], "pointwise_regularizer": null, "activation": "linear", "depthwise_regularizer": null, "use_bias": true, "activity_regularizer": null, "bias_regularizer": null, "filters": 24, "strides": [1, 1], "depthwise_constraint": null, "depth_multiplier": 1, "trainable": true, "depthwise_initializer": {"config": {"distribution": "uniform", "seed": null, "mode": "fan_avg", "scale": 1.0}, "class_name": "VarianceScaling"}, "bias_constraint": null, "data_format": "channels_last"}, "class_name": "SeparableConv2D", "name": "stage3_stage_layer_hr_module_branch_0_block_0_basic_conv3x3_1", "inbound_nodes": [[["add_13", 0, 0, {}]]]}, {"config": {"name": "batch_normalization_8", "beta_initializer": {"config": {}, "class_name": "Zeros"}, "moving_variance_initializer": {"config": {}, "class_name": "Ones"}, "gamma_initializer": {"config": {}, "class_name": "Ones"}, "epsilon": 0.001, "trainable": true, "beta_regularizer": null, "axis": -1, "scale": true, "gamma_regularizer": null, "center": true, "moving_mean_initializer": {"config": {}, "class_name": "Zeros"}, "momentum": 0.99, "beta_constraint": null, "gamma_constraint": null}, "class_name": "BatchNormalization", "name": "batch_normalization_8", "inbound_nodes": [[["stage2_stage_layer_hr_module_fuse_conv3x3_0_1_0", 0, 0, {}]]]}, {"config": {"name": "stage3_stage_layer_hr_module_branch_0_block_0_basic_bn_1", "beta_initializer": {"config": {}, "class_name": "Zeros"}, "moving_variance_initializer": {"config": {}, "class_name": "Ones"}, "gamma_initializer": {"config": {}, "class_name": "Ones"}, "epsilon": 0.001, "trainable": true, "beta_regularizer": null, "axis": -1, "scale": true, "gamma_regularizer": null, "center": true, "moving_mean_initializer": {"config": {}, "class_name": "Zeros"}, "momentum": 0.99, "beta_constraint": null, "gamma_constraint": null}, "class_name": "BatchNormalization", "name": "stage3_stage_layer_hr_module_branch_0_block_0_basic_bn_1", "inbound_nodes": [[["stage3_stage_layer_hr_module_branch_0_block_0_basic_conv3x3_1", 0, 0, {}]]]}, {"config": {"trainable": true, "name": "add_14"}, "class_name": "Add", "name": "add_14", "inbound_nodes": [[["batch_normalization_8", 0, 0, {}], ["stage2_stage_layer_hr_module_branch_1_block_3_basic_relu_2", 0, 0, {}]]]}, {"config": {"theta": 0.0, "trainable": true, "name": "stage3_stage_layer_hr_module_branch_0_block_0_basic_relu_1"}, "class_name": "ThresholdedReLU", "name": "stage3_stage_layer_hr_module_branch_0_block_0_basic_relu_1", "inbound_nodes": [[["stage3_stage_layer_hr_module_branch_0_block_0_basic_bn_1", 0, 0, {}]]]}, {"config": {"padding": "same", "bias_initializer": {"config": {}, "class_name": "Zeros"}, "kernel_constraint": null, "name": "stage3_transition_layer_branch2_conv3x3", "kernel_size": [3, 3], "trainable": true, "dilation_rate": [1, 1], "activation": "linear", "activity_regularizer": null, "kernel_regularizer": null, "filters": 96, "strides": [2, 2], "use_bias": true, "bias_regularizer": null, "kernel_initializer": {"config": {"distribution": "uniform", "seed": null, "mode": "fan_avg", "scale": 1.0}, "class_name": "VarianceScaling"}, "bias_constraint": null, "data_format": "channels_last"}, "class_name": "Conv2D", "name": "stage3_transition_layer_branch2_conv3x3", "inbound_nodes": [[["add_14", 0, 0, {}]]]}, {"config": {"pointwise_initializer": {"config": {"distribution": "uniform", "seed": null, "mode": "fan_avg", "scale": 1.0}, "class_name": "VarianceScaling"}, "padding": "same", "bias_initializer": {"config": {}, "class_name": "Zeros"}, "name": "stage3_stage_layer_hr_module_branch_0_block_0_basic_conv3x3_2", "kernel_size": [3, 3], "pointwise_constraint": null, "dilation_rate": [1, 1], "pointwise_regularizer": null, "activation": "linear", "depthwise_regularizer": null, "use_bias": true, "activity_regularizer": null, "bias_regularizer": null, "filters": 24, "strides": [1, 1], "depthwise_constraint": null, "depth_multiplier": 1, "trainable": true, "depthwise_initializer": {"config": {"distribution": "uniform", "seed": null, "mode": "fan_avg", "scale": 1.0}, "class_name": "VarianceScaling"}, "bias_constraint": null, "data_format": "channels_last"}, "class_name": "SeparableConv2D", "name": "stage3_stage_layer_hr_module_branch_0_block_0_basic_conv3x3_2", "inbound_nodes": [[["stage3_stage_layer_hr_module_branch_0_block_0_basic_relu_1", 0, 0, {}]]]}, {"config": {"pointwise_initializer": {"config": {"distribution": "uniform", "seed": null, "mode": "fan_avg", "scale": 1.0}, "class_name": "VarianceScaling"}, "padding": "valid", "bias_initializer": {"config": {}, "class_name": "Zeros"}, "name": "separable_conv2d_3", "kernel_size": [1, 1], "pointwise_constraint": null, "dilation_rate": [1, 1], "pointwise_regularizer": null, "activation": "linear", "depthwise_regularizer": null, "use_bias": true, "activity_regularizer": null, "bias_regularizer": null, "filters": 24, "strides": [1, 1], "depthwise_constraint": null, "depth_multiplier": 1, "trainable": true, "depthwise_initializer": {"config": {"distribution": "uniform", "seed": null, "mode": "fan_avg", "scale": 1.0}, "class_name": "VarianceScaling"}, "bias_constraint": null, "data_format": "channels_last"}, "class_name": "SeparableConv2D", "name": "separable_conv2d_3", "inbound_nodes": [[["add_13", 0, 0, {}]]]}, {"config": {"pointwise_initializer": {"config": {"distribution": "uniform", "seed": null, "mode": "fan_avg", "scale": 1.0}, "class_name": "VarianceScaling"}, "padding": "same", "bias_initializer": {"config": {}, "class_name": "Zeros"}, "name": "stage3_stage_layer_hr_module_branch_1_block_0_basic_conv3x3_1", "kernel_size": [3, 3], "pointwise_constraint": null, "dilation_rate": [1, 1], "pointwise_regularizer": null, "activation": "linear", "depthwise_regularizer": null, "use_bias": true, "activity_regularizer": null, "bias_regularizer": null, "filters": 48, "strides": [1, 1], "depthwise_constraint": null, "depth_multiplier": 1, "trainable": true, "depthwise_initializer": {"config": {"distribution": "uniform", "seed": null, "mode": "fan_avg", "scale": 1.0}, "class_name": "VarianceScaling"}, "bias_constraint": null, "data_format": "channels_last"}, "class_name": "SeparableConv2D", "name": "stage3_stage_layer_hr_module_branch_1_block_0_basic_conv3x3_1", "inbound_nodes": [[["add_14", 0, 0, {}]]]}, {"config": {"name": "stage3_transition_layer_branch2_bn", "beta_initializer": {"config": {}, "class_name": "Zeros"}, "moving_variance_initializer": {"config": {}, "class_name": "Ones"}, "gamma_initializer": {"config": {}, "class_name": "Ones"}, "epsilon": 0.001, "trainable": true, "beta_regularizer": null, "axis": -1, "scale": true, "gamma_regularizer": null, "center": true, "moving_mean_initializer": {"config": {}, "class_name": "Zeros"}, "momentum": 0.99, "beta_constraint": null, "gamma_constraint": null}, "class_name": "BatchNormalization", "name": "stage3_transition_layer_branch2_bn", "inbound_nodes": [[["stage3_transition_layer_branch2_conv3x3", 0, 0, {}]]]}, {"config": {"name": "stage3_stage_layer_hr_module_branch_0_block_0_basic_bn_2", "beta_initializer": {"config": {}, "class_name": "Zeros"}, "moving_variance_initializer": {"config": {}, "class_name": "Ones"}, "gamma_initializer": {"config": {}, "class_name": "Ones"}, "epsilon": 0.001, "trainable": true, "beta_regularizer": null, "axis": -1, "scale": true, "gamma_regularizer": null, "center": true, "moving_mean_initializer": {"config": {}, "class_name": "Zeros"}, "momentum": 0.99, "beta_constraint": null, "gamma_constraint": null}, "class_name": "BatchNormalization", "name": "stage3_stage_layer_hr_module_branch_0_block_0_basic_bn_2", "inbound_nodes": [[["stage3_stage_layer_hr_module_branch_0_block_0_basic_conv3x3_2", 0, 0, {}]]]}, {"config": {"name": "batch_normalization_9", "beta_initializer": {"config": {}, "class_name": "Zeros"}, "moving_variance_initializer": {"config": {}, "class_name": "Ones"}, "gamma_initializer": {"config": {}, "class_name": "Ones"}, "epsilon": 0.001, "trainable": true, "beta_regularizer": null, "axis": -1, "scale": true, "gamma_regularizer": null, "center": true, "moving_mean_initializer": {"config": {}, "class_name": "Zeros"}, "momentum": 0.99, "beta_constraint": null, "gamma_constraint": null}, "class_name": "BatchNormalization", "name": "batch_normalization_9", "inbound_nodes": [[["separable_conv2d_3", 0, 0, {}]]]}, {"config": {"name": "stage3_stage_layer_hr_module_branch_1_block_0_basic_bn_1", "beta_initializer": {"config": {}, "class_name": "Zeros"}, "moving_variance_initializer": {"config": {}, "class_name": "Ones"}, "gamma_initializer": {"config": {}, "class_name": "Ones"}, "epsilon": 0.001, "trainable": true, "beta_regularizer": null, "axis": -1, "scale": true, "gamma_regularizer": null, "center": true, "moving_mean_initializer": {"config": {}, "class_name": "Zeros"}, "momentum": 0.99, "beta_constraint": null, "gamma_constraint": null}, "class_name": "BatchNormalization", "name": "stage3_stage_layer_hr_module_branch_1_block_0_basic_bn_1", "inbound_nodes": [[["stage3_stage_layer_hr_module_branch_1_block_0_basic_conv3x3_1", 0, 0, {}]]]}, {"config": {"theta": 0.0, "trainable": true, "name": "stage3_transition_layer_branch2_relu"}, "class_name": "ThresholdedReLU", "name": "stage3_transition_layer_branch2_relu", "inbound_nodes": [[["stage3_transition_layer_branch2_bn", 0, 0, {}]]]}, {"config": {"trainable": true, "name": "add_15"}, "class_name": "Add", "name": "add_15", "inbound_nodes": [[["stage3_stage_layer_hr_module_branch_0_block_0_basic_bn_2", 0, 0, {}], ["batch_normalization_9", 0, 0, {}]]]}, {"config": {"theta": 0.0, "trainable": true, "name": "stage3_stage_layer_hr_module_branch_1_block_0_basic_relu_1"}, "class_name": "ThresholdedReLU", "name": "stage3_stage_layer_hr_module_branch_1_block_0_basic_relu_1", "inbound_nodes": [[["stage3_stage_layer_hr_module_branch_1_block_0_basic_bn_1", 0, 0, {}]]]}, {"config": {"pointwise_initializer": {"config": {"distribution": "uniform", "seed": null, "mode": "fan_avg", "scale": 1.0}, "class_name": "VarianceScaling"}, "padding": "same", "bias_initializer": {"config": {}, "class_name": "Zeros"}, "name": "stage3_stage_layer_hr_module_branch_2_block_0_basic_conv3x3_1", "kernel_size": [3, 3], "pointwise_constraint": null, "dilation_rate": [1, 1], "pointwise_regularizer": null, "activation": "linear", "depthwise_regularizer": null, "use_bias": true, "activity_regularizer": null, "bias_regularizer": null, "filters": 96, "strides": [1, 1], "depthwise_constraint": null, "depth_multiplier": 1, "trainable": true, "depthwise_initializer": {"config": {"distribution": "uniform", "seed": null, "mode": "fan_avg", "scale": 1.0}, "class_name": "VarianceScaling"}, "bias_constraint": null, "data_format": "channels_last"}, "class_name": "SeparableConv2D", "name": "stage3_stage_layer_hr_module_branch_2_block_0_basic_conv3x3_1", "inbound_nodes": [[["stage3_transition_layer_branch2_relu", 0, 0, {}]]]}, {"config": {"theta": 0.0, "trainable": true, "name": "stage3_stage_layer_hr_module_branch_0_block_0_basic_relu_2"}, "class_name": "ThresholdedReLU", "name": "stage3_stage_layer_hr_module_branch_0_block_0_basic_relu_2", "inbound_nodes": [[["add_15", 0, 0, {}]]]}, {"config": {"pointwise_initializer": {"config": {"distribution": "uniform", "seed": null, "mode": "fan_avg", "scale": 1.0}, "class_name": "VarianceScaling"}, "padding": "same", "bias_initializer": {"config": {}, "class_name": "Zeros"}, "name": "stage3_stage_layer_hr_module_branch_1_block_0_basic_conv3x3_2", "kernel_size": [3, 3], "pointwise_constraint": null, "dilation_rate": [1, 1], "pointwise_regularizer": null, "activation": "linear", "depthwise_regularizer": null, "use_bias": true, "activity_regularizer": null, "bias_regularizer": null, "filters": 48, "strides": [1, 1], "depthwise_constraint": null, "depth_multiplier": 1, "trainable": true, "depthwise_initializer": {"config": {"distribution": "uniform", "seed": null, "mode": "fan_avg", "scale": 1.0}, "class_name": "VarianceScaling"}, "bias_constraint": null, "data_format": "channels_last"}, "class_name": "SeparableConv2D", "name": "stage3_stage_layer_hr_module_branch_1_block_0_basic_conv3x3_2", "inbound_nodes": [[["stage3_stage_layer_hr_module_branch_1_block_0_basic_relu_1", 0, 0, {}]]]}, {"config": {"pointwise_initializer": {"config": {"distribution": "uniform", "seed": null, "mode": "fan_avg", "scale": 1.0}, "class_name": "VarianceScaling"}, "padding": "valid", "bias_initializer": {"config": {}, "class_name": "Zeros"}, "name": "separable_conv2d_4", "kernel_size": [1, 1], "pointwise_constraint": null, "dilation_rate": [1, 1], "pointwise_regularizer": null, "activation": "linear", "depthwise_regularizer": null, "use_bias": true, "activity_regularizer": null, "bias_regularizer": null, "filters": 48, "strides": [1, 1], "depthwise_constraint": null, "depth_multiplier": 1, "trainable": true, "depthwise_initializer": {"config": {"distribution": "uniform", "seed": null, "mode": "fan_avg", "scale": 1.0}, "class_name": "VarianceScaling"}, "bias_constraint": null, "data_format": "channels_last"}, "class_name": "SeparableConv2D", "name": "separable_conv2d_4", "inbound_nodes": [[["add_14", 0, 0, {}]]]}, {"config": {"name": "stage3_stage_layer_hr_module_branch_2_block_0_basic_bn_1", "beta_initializer": {"config": {}, "class_name": "Zeros"}, "moving_variance_initializer": {"config": {}, "class_name": "Ones"}, "gamma_initializer": {"config": {}, "class_name": "Ones"}, "epsilon": 0.001, "trainable": true, "beta_regularizer": null, "axis": -1, "scale": true, "gamma_regularizer": null, "center": true, "moving_mean_initializer": {"config": {}, "class_name": "Zeros"}, "momentum": 0.99, "beta_constraint": null, "gamma_constraint": null}, "class_name": "BatchNormalization", "name": "stage3_stage_layer_hr_module_branch_2_block_0_basic_bn_1", "inbound_nodes": [[["stage3_stage_layer_hr_module_branch_2_block_0_basic_conv3x3_1", 0, 0, {}]]]}, {"config": {"pointwise_initializer": {"config": {"distribution": "uniform", "seed": null, "mode": "fan_avg", "scale": 1.0}, "class_name": "VarianceScaling"}, "padding": "same", "bias_initializer": {"config": {}, "class_name": "Zeros"}, "name": "stage3_stage_layer_hr_module_branch_0_block_1_basic_conv3x3_1", "kernel_size": [3, 3], "pointwise_constraint": null, "dilation_rate": [1, 1], "pointwise_regularizer": null, "activation": "linear", "depthwise_regularizer": null, "use_bias": true, "activity_regularizer": null, "bias_regularizer": null, "filters": 24, "strides": [1, 1], "depthwise_constraint": null, "depth_multiplier": 1, "trainable": true, "depthwise_initializer": {"config": {"distribution": "uniform", "seed": null, "mode": "fan_avg", "scale": 1.0}, "class_name": "VarianceScaling"}, "bias_constraint": null, "data_format": "channels_last"}, "class_name": "SeparableConv2D", "name": "stage3_stage_layer_hr_module_branch_0_block_1_basic_conv3x3_1", "inbound_nodes": [[["stage3_stage_layer_hr_module_branch_0_block_0_basic_relu_2", 0, 0, {}]]]}, {"config": {"name": "stage3_stage_layer_hr_module_branch_1_block_0_basic_bn_2", "beta_initializer": {"config": {}, "class_name": "Zeros"}, "moving_variance_initializer": {"config": {}, "class_name": "Ones"}, "gamma_initializer": {"config": {}, "class_name": "Ones"}, "epsilon": 0.001, "trainable": true, "beta_regularizer": null, "axis": -1, "scale": true, "gamma_regularizer": null, "center": true, "moving_mean_initializer": {"config": {}, "class_name": "Zeros"}, "momentum": 0.99, "beta_constraint": null, "gamma_constraint": null}, "class_name": "BatchNormalization", "name": "stage3_stage_layer_hr_module_branch_1_block_0_basic_bn_2", "inbound_nodes": [[["stage3_stage_layer_hr_module_branch_1_block_0_basic_conv3x3_2", 0, 0, {}]]]}, {"config": {"name": "batch_normalization_10", "beta_initializer": {"config": {}, "class_name": "Zeros"}, "moving_variance_initializer": {"config": {}, "class_name": "Ones"}, "gamma_initializer": {"config": {}, "class_name": "Ones"}, "epsilon": 0.001, "trainable": true, "beta_regularizer": null, "axis": -1, "scale": true, "gamma_regularizer": null, "center": true, "moving_mean_initializer": {"config": {}, "class_name": "Zeros"}, "momentum": 0.99, "beta_constraint": null, "gamma_constraint": null}, "class_name": "BatchNormalization", "name": "batch_normalization_10", "inbound_nodes": [[["separable_conv2d_4", 0, 0, {}]]]}, {"config": {"theta": 0.0, "trainable": true, "name": "stage3_stage_layer_hr_module_branch_2_block_0_basic_relu_1"}, "class_name": "ThresholdedReLU", "name": "stage3_stage_layer_hr_module_branch_2_block_0_basic_relu_1", "inbound_nodes": [[["stage3_stage_layer_hr_module_branch_2_block_0_basic_bn_1", 0, 0, {}]]]}, {"config": {"name": "stage3_stage_layer_hr_module_branch_0_block_1_basic_bn_1", "beta_initializer": {"config": {}, "class_name": "Zeros"}, "moving_variance_initializer": {"config": {}, "class_name": "Ones"}, "gamma_initializer": {"config": {}, "class_name": "Ones"}, "epsilon": 0.001, "trainable": true, "beta_regularizer": null, "axis": -1, "scale": true, "gamma_regularizer": null, "center": true, "moving_mean_initializer": {"config": {}, "class_name": "Zeros"}, "momentum": 0.99, "beta_constraint": null, "gamma_constraint": null}, "class_name": "BatchNormalization", "name": "stage3_stage_layer_hr_module_branch_0_block_1_basic_bn_1", "inbound_nodes": [[["stage3_stage_layer_hr_module_branch_0_block_1_basic_conv3x3_1", 0, 0, {}]]]}, {"config": {"trainable": true, "name": "add_19"}, "class_name": "Add", "name": "add_19", "inbound_nodes": [[["stage3_stage_layer_hr_module_branch_1_block_0_basic_bn_2", 0, 0, {}], ["batch_normalization_10", 0, 0, {}]]]}, {"config": {"pointwise_initializer": {"config": {"distribution": "uniform", "seed": null, "mode": "fan_avg", "scale": 1.0}, "class_name": "VarianceScaling"}, "padding": "same", "bias_initializer": {"config": {}, "class_name": "Zeros"}, "name": "stage3_stage_layer_hr_module_branch_2_block_0_basic_conv3x3_2", "kernel_size": [3, 3], "pointwise_constraint": null, "dilation_rate": [1, 1], "pointwise_regularizer": null, "activation": "linear", "depthwise_regularizer": null, "use_bias": true, "activity_regularizer": null, "bias_regularizer": null, "filters": 96, "strides": [1, 1], "depthwise_constraint": null, "depth_multiplier": 1, "trainable": true, "depthwise_initializer": {"config": {"distribution": "uniform", "seed": null, "mode": "fan_avg", "scale": 1.0}, "class_name": "VarianceScaling"}, "bias_constraint": null, "data_format": "channels_last"}, "class_name": "SeparableConv2D", "name": "stage3_stage_layer_hr_module_branch_2_block_0_basic_conv3x3_2", "inbound_nodes": [[["stage3_stage_layer_hr_module_branch_2_block_0_basic_relu_1", 0, 0, {}]]]}, {"config": {"pointwise_initializer": {"config": {"distribution": "uniform", "seed": null, "mode": "fan_avg", "scale": 1.0}, "class_name": "VarianceScaling"}, "padding": "valid", "bias_initializer": {"config": {}, "class_name": "Zeros"}, "name": "separable_conv2d_5", "kernel_size": [1, 1], "pointwise_constraint": null, "dilation_rate": [1, 1], "pointwise_regularizer": null, "activation": "linear", "depthwise_regularizer": null, "use_bias": true, "activity_regularizer": null, "bias_regularizer": null, "filters": 96, "strides": [1, 1], "depthwise_constraint": null, "depth_multiplier": 1, "trainable": true, "depthwise_initializer": {"config": {"distribution": "uniform", "seed": null, "mode": "fan_avg", "scale": 1.0}, "class_name": "VarianceScaling"}, "bias_constraint": null, "data_format": "channels_last"}, "class_name": "SeparableConv2D", "name": "separable_conv2d_5", "inbound_nodes": [[["stage3_transition_layer_branch2_relu", 0, 0, {}]]]}, {"config": {"theta": 0.0, "trainable": true, "name": "stage3_stage_layer_hr_module_branch_0_block_1_basic_relu_1"}, "class_name": "ThresholdedReLU", "name": "stage3_stage_layer_hr_module_branch_0_block_1_basic_relu_1", "inbound_nodes": [[["stage3_stage_layer_hr_module_branch_0_block_1_basic_bn_1", 0, 0, {}]]]}, {"config": {"theta": 0.0, "trainable": true, "name": "stage3_stage_layer_hr_module_branch_1_block_0_basic_relu_2"}, "class_name": "ThresholdedReLU", "name": "stage3_stage_layer_hr_module_branch_1_block_0_basic_relu_2", "inbound_nodes": [[["add_19", 0, 0, {}]]]}, {"config": {"name": "stage3_stage_layer_hr_module_branch_2_block_0_basic_bn_2", "beta_initializer": {"config": {}, "class_name": "Zeros"}, "moving_variance_initializer": {"config": {}, "class_name": "Ones"}, "gamma_initializer": {"config": {}, "class_name": "Ones"}, "epsilon": 0.001, "trainable": true, "beta_regularizer": null, "axis": -1, "scale": true, "gamma_regularizer": null, "center": true, "moving_mean_initializer": {"config": {}, "class_name": "Zeros"}, "momentum": 0.99, "beta_constraint": null, "gamma_constraint": null}, "class_name": "BatchNormalization", "name": "stage3_stage_layer_hr_module_branch_2_block_0_basic_bn_2", "inbound_nodes": [[["stage3_stage_layer_hr_module_branch_2_block_0_basic_conv3x3_2", 0, 0, {}]]]}, {"config": {"name": "batch_normalization_11", "beta_initializer": {"config": {}, "class_name": "Zeros"}, "moving_variance_initializer": {"config": {}, "class_name": "Ones"}, "gamma_initializer": {"config": {}, "class_name": "Ones"}, "epsilon": 0.001, "trainable": true, "beta_regularizer": null, "axis": -1, "scale": true, "gamma_regularizer": null, "center": true, "moving_mean_initializer": {"config": {}, "class_name": "Zeros"}, "momentum": 0.99, "beta_constraint": null, "gamma_constraint": null}, "class_name": "BatchNormalization", "name": "batch_normalization_11", "inbound_nodes": [[["separable_conv2d_5", 0, 0, {}]]]}, {"config": {"pointwise_initializer": {"config": {"distribution": "uniform", "seed": null, "mode": "fan_avg", "scale": 1.0}, "class_name": "VarianceScaling"}, "padding": "same", "bias_initializer": {"config": {}, "class_name": "Zeros"}, "name": "stage3_stage_layer_hr_module_branch_0_block_1_basic_conv3x3_2", "kernel_size": [3, 3], "pointwise_constraint": null, "dilation_rate": [1, 1], "pointwise_regularizer": null, "activation": "linear", "depthwise_regularizer": null, "use_bias": true, "activity_regularizer": null, "bias_regularizer": null, "filters": 24, "strides": [1, 1], "depthwise_constraint": null, "depth_multiplier": 1, "trainable": true, "depthwise_initializer": {"config": {"distribution": "uniform", "seed": null, "mode": "fan_avg", "scale": 1.0}, "class_name": "VarianceScaling"}, "bias_constraint": null, "data_format": "channels_last"}, "class_name": "SeparableConv2D", "name": "stage3_stage_layer_hr_module_branch_0_block_1_basic_conv3x3_2", "inbound_nodes": [[["stage3_stage_layer_hr_module_branch_0_block_1_basic_relu_1", 0, 0, {}]]]}, {"config": {"pointwise_initializer": {"config": {"distribution": "uniform", "seed": null, "mode": "fan_avg", "scale": 1.0}, "class_name": "VarianceScaling"}, "padding": "same", "bias_initializer": {"config": {}, "class_name": "Zeros"}, "name": "stage3_stage_layer_hr_module_branch_1_block_1_basic_conv3x3_1", "kernel_size": [3, 3], "pointwise_constraint": null, "dilation_rate": [1, 1], "pointwise_regularizer": null, "activation": "linear", "depthwise_regularizer": null, "use_bias": true, "activity_regularizer": null, "bias_regularizer": null, "filters": 48, "strides": [1, 1], "depthwise_constraint": null, "depth_multiplier": 1, "trainable": true, "depthwise_initializer": {"config": {"distribution": "uniform", "seed": null, "mode": "fan_avg", "scale": 1.0}, "class_name": "VarianceScaling"}, "bias_constraint": null, "data_format": "channels_last"}, "class_name": "SeparableConv2D", "name": "stage3_stage_layer_hr_module_branch_1_block_1_basic_conv3x3_1", "inbound_nodes": [[["stage3_stage_layer_hr_module_branch_1_block_0_basic_relu_2", 0, 0, {}]]]}, {"config": {"trainable": true, "name": "add_23"}, "class_name": "Add", "name": "add_23", "inbound_nodes": [[["stage3_stage_layer_hr_module_branch_2_block_0_basic_bn_2", 0, 0, {}], ["batch_normalization_11", 0, 0, {}]]]}, {"config": {"name": "stage3_stage_layer_hr_module_branch_0_block_1_basic_bn_2", "beta_initializer": {"config": {}, "class_name": "Zeros"}, "moving_variance_initializer": {"config": {}, "class_name": "Ones"}, "gamma_initializer": {"config": {}, "class_name": "Ones"}, "epsilon": 0.001, "trainable": true, "beta_regularizer": null, "axis": -1, "scale": true, "gamma_regularizer": null, "center": true, "moving_mean_initializer": {"config": {}, "class_name": "Zeros"}, "momentum": 0.99, "beta_constraint": null, "gamma_constraint": null}, "class_name": "BatchNormalization", "name": "stage3_stage_layer_hr_module_branch_0_block_1_basic_bn_2", "inbound_nodes": [[["stage3_stage_layer_hr_module_branch_0_block_1_basic_conv3x3_2", 0, 0, {}]]]}, {"config": {"name": "stage3_stage_layer_hr_module_branch_1_block_1_basic_bn_1", "beta_initializer": {"config": {}, "class_name": "Zeros"}, "moving_variance_initializer": {"config": {}, "class_name": "Ones"}, "gamma_initializer": {"config": {}, "class_name": "Ones"}, "epsilon": 0.001, "trainable": true, "beta_regularizer": null, "axis": -1, "scale": true, "gamma_regularizer": null, "center": true, "moving_mean_initializer": {"config": {}, "class_name": "Zeros"}, "momentum": 0.99, "beta_constraint": null, "gamma_constraint": null}, "class_name": "BatchNormalization", "name": "stage3_stage_layer_hr_module_branch_1_block_1_basic_bn_1", "inbound_nodes": [[["stage3_stage_layer_hr_module_branch_1_block_1_basic_conv3x3_1", 0, 0, {}]]]}, {"config": {"theta": 0.0, "trainable": true, "name": "stage3_stage_layer_hr_module_branch_2_block_0_basic_relu_2"}, "class_name": "ThresholdedReLU", "name": "stage3_stage_layer_hr_module_branch_2_block_0_basic_relu_2", "inbound_nodes": [[["add_23", 0, 0, {}]]]}, {"config": {"trainable": true, "name": "add_16"}, "class_name": "Add", "name": "add_16", "inbound_nodes": [[["stage3_stage_layer_hr_module_branch_0_block_1_basic_bn_2", 0, 0, {}], ["stage3_stage_layer_hr_module_branch_0_block_0_basic_relu_2", 0, 0, {}]]]}, {"config": {"theta": 0.0, "trainable": true, "name": "stage3_stage_layer_hr_module_branch_1_block_1_basic_relu_1"}, "class_name": "ThresholdedReLU", "name": "stage3_stage_layer_hr_module_branch_1_block_1_basic_relu_1", "inbound_nodes": [[["stage3_stage_layer_hr_module_branch_1_block_1_basic_bn_1", 0, 0, {}]]]}, {"config": {"pointwise_initializer": {"config": {"distribution": "uniform", "seed": null, "mode": "fan_avg", "scale": 1.0}, "class_name": "VarianceScaling"}, "padding": "same", "bias_initializer": {"config": {}, "class_name": "Zeros"}, "name": "stage3_stage_layer_hr_module_branch_2_block_1_basic_conv3x3_1", "kernel_size": [3, 3], "pointwise_constraint": null, "dilation_rate": [1, 1], "pointwise_regularizer": null, "activation": "linear", "depthwise_regularizer": null, "use_bias": true, "activity_regularizer": null, "bias_regularizer": null, "filters": 96, "strides": [1, 1], "depthwise_constraint": null, "depth_multiplier": 1, "trainable": true, "depthwise_initializer": {"config": {"distribution": "uniform", "seed": null, "mode": "fan_avg", "scale": 1.0}, "class_name": "VarianceScaling"}, "bias_constraint": null, "data_format": "channels_last"}, "class_name": "SeparableConv2D", "name": "stage3_stage_layer_hr_module_branch_2_block_1_basic_conv3x3_1", "inbound_nodes": [[["stage3_stage_layer_hr_module_branch_2_block_0_basic_relu_2", 0, 0, {}]]]}, {"config": {"theta": 0.0, "trainable": true, "name": "stage3_stage_layer_hr_module_branch_0_block_1_basic_relu_2"}, "class_name": "ThresholdedReLU", "name": "stage3_stage_layer_hr_module_branch_0_block_1_basic_relu_2", "inbound_nodes": [[["add_16", 0, 0, {}]]]}, {"config": {"pointwise_initializer": {"config": {"distribution": "uniform", "seed": null, "mode": "fan_avg", "scale": 1.0}, "class_name": "VarianceScaling"}, "padding": "same", "bias_initializer": {"config": {}, "class_name": "Zeros"}, "name": "stage3_stage_layer_hr_module_branch_1_block_1_basic_conv3x3_2", "kernel_size": [3, 3], "pointwise_constraint": null, "dilation_rate": [1, 1], "pointwise_regularizer": null, "activation": "linear", "depthwise_regularizer": null, "use_bias": true, "activity_regularizer": null, "bias_regularizer": null, "filters": 48, "strides": [1, 1], "depthwise_constraint": null, "depth_multiplier": 1, "trainable": true, "depthwise_initializer": {"config": {"distribution": "uniform", "seed": null, "mode": "fan_avg", "scale": 1.0}, "class_name": "VarianceScaling"}, "bias_constraint": null, "data_format": "channels_last"}, "class_name": "SeparableConv2D", "name": "stage3_stage_layer_hr_module_branch_1_block_1_basic_conv3x3_2", "inbound_nodes": [[["stage3_stage_layer_hr_module_branch_1_block_1_basic_relu_1", 0, 0, {}]]]}, {"config": {"name": "stage3_stage_layer_hr_module_branch_2_block_1_basic_bn_1", "beta_initializer": {"config": {}, "class_name": "Zeros"}, "moving_variance_initializer": {"config": {}, "class_name": "Ones"}, "gamma_initializer": {"config": {}, "class_name": "Ones"}, "epsilon": 0.001, "trainable": true, "beta_regularizer": null, "axis": -1, "scale": true, "gamma_regularizer": null, "center": true, "moving_mean_initializer": {"config": {}, "class_name": "Zeros"}, "momentum": 0.99, "beta_constraint": null, "gamma_constraint": null}, "class_name": "BatchNormalization", "name": "stage3_stage_layer_hr_module_branch_2_block_1_basic_bn_1", "inbound_nodes": [[["stage3_stage_layer_hr_module_branch_2_block_1_basic_conv3x3_1", 0, 0, {}]]]}, {"config": {"pointwise_initializer": {"config": {"distribution": "uniform", "seed": null, "mode": "fan_avg", "scale": 1.0}, "class_name": "VarianceScaling"}, "padding": "same", "bias_initializer": {"config": {}, "class_name": "Zeros"}, "name": "stage3_stage_layer_hr_module_branch_0_block_2_basic_conv3x3_1", "kernel_size": [3, 3], "pointwise_constraint": null, "dilation_rate": [1, 1], "pointwise_regularizer": null, "activation": "linear", "depthwise_regularizer": null, "use_bias": true, "activity_regularizer": null, "bias_regularizer": null, "filters": 24, "strides": [1, 1], "depthwise_constraint": null, "depth_multiplier": 1, "trainable": true, "depthwise_initializer": {"config": {"distribution": "uniform", "seed": null, "mode": "fan_avg", "scale": 1.0}, "class_name": "VarianceScaling"}, "bias_constraint": null, "data_format": "channels_last"}, "class_name": "SeparableConv2D", "name": "stage3_stage_layer_hr_module_branch_0_block_2_basic_conv3x3_1", "inbound_nodes": [[["stage3_stage_layer_hr_module_branch_0_block_1_basic_relu_2", 0, 0, {}]]]}, {"config": {"name": "stage3_stage_layer_hr_module_branch_1_block_1_basic_bn_2", "beta_initializer": {"config": {}, "class_name": "Zeros"}, "moving_variance_initializer": {"config": {}, "class_name": "Ones"}, "gamma_initializer": {"config": {}, "class_name": "Ones"}, "epsilon": 0.001, "trainable": true, "beta_regularizer": null, "axis": -1, "scale": true, "gamma_regularizer": null, "center": true, "moving_mean_initializer": {"config": {}, "class_name": "Zeros"}, "momentum": 0.99, "beta_constraint": null, "gamma_constraint": null}, "class_name": "BatchNormalization", "name": "stage3_stage_layer_hr_module_branch_1_block_1_basic_bn_2", "inbound_nodes": [[["stage3_stage_layer_hr_module_branch_1_block_1_basic_conv3x3_2", 0, 0, {}]]]}, {"config": {"theta": 0.0, "trainable": true, "name": "stage3_stage_layer_hr_module_branch_2_block_1_basic_relu_1"}, "class_name": "ThresholdedReLU", "name": "stage3_stage_layer_hr_module_branch_2_block_1_basic_relu_1", "inbound_nodes": [[["stage3_stage_layer_hr_module_branch_2_block_1_basic_bn_1", 0, 0, {}]]]}, {"config": {"name": "stage3_stage_layer_hr_module_branch_0_block_2_basic_bn_1", "beta_initializer": {"config": {}, "class_name": "Zeros"}, "moving_variance_initializer": {"config": {}, "class_name": "Ones"}, "gamma_initializer": {"config": {}, "class_name": "Ones"}, "epsilon": 0.001, "trainable": true, "beta_regularizer": null, "axis": -1, "scale": true, "gamma_regularizer": null, "center": true, "moving_mean_initializer": {"config": {}, "class_name": "Zeros"}, "momentum": 0.99, "beta_constraint": null, "gamma_constraint": null}, "class_name": "BatchNormalization", "name": "stage3_stage_layer_hr_module_branch_0_block_2_basic_bn_1", "inbound_nodes": [[["stage3_stage_layer_hr_module_branch_0_block_2_basic_conv3x3_1", 0, 0, {}]]]}, {"config": {"trainable": true, "name": "add_20"}, "class_name": "Add", "name": "add_20", "inbound_nodes": [[["stage3_stage_layer_hr_module_branch_1_block_1_basic_bn_2", 0, 0, {}], ["stage3_stage_layer_hr_module_branch_1_block_0_basic_relu_2", 0, 0, {}]]]}, {"config": {"pointwise_initializer": {"config": {"distribution": "uniform", "seed": null, "mode": "fan_avg", "scale": 1.0}, "class_name": "VarianceScaling"}, "padding": "same", "bias_initializer": {"config": {}, "class_name": "Zeros"}, "name": "stage3_stage_layer_hr_module_branch_2_block_1_basic_conv3x3_2", "kernel_size": [3, 3], "pointwise_constraint": null, "dilation_rate": [1, 1], "pointwise_regularizer": null, "activation": "linear", "depthwise_regularizer": null, "use_bias": true, "activity_regularizer": null, "bias_regularizer": null, "filters": 96, "strides": [1, 1], "depthwise_constraint": null, "depth_multiplier": 1, "trainable": true, "depthwise_initializer": {"config": {"distribution": "uniform", "seed": null, "mode": "fan_avg", "scale": 1.0}, "class_name": "VarianceScaling"}, "bias_constraint": null, "data_format": "channels_last"}, "class_name": "SeparableConv2D", "name": "stage3_stage_layer_hr_module_branch_2_block_1_basic_conv3x3_2", "inbound_nodes": [[["stage3_stage_layer_hr_module_branch_2_block_1_basic_relu_1", 0, 0, {}]]]}, {"config": {"theta": 0.0, "trainable": true, "name": "stage3_stage_layer_hr_module_branch_0_block_2_basic_relu_1"}, "class_name": "ThresholdedReLU", "name": "stage3_stage_layer_hr_module_branch_0_block_2_basic_relu_1", "inbound_nodes": [[["stage3_stage_layer_hr_module_branch_0_block_2_basic_bn_1", 0, 0, {}]]]}, {"config": {"theta": 0.0, "trainable": true, "name": "stage3_stage_layer_hr_module_branch_1_block_1_basic_relu_2"}, "class_name": "ThresholdedReLU", "name": "stage3_stage_layer_hr_module_branch_1_block_1_basic_relu_2", "inbound_nodes": [[["add_20", 0, 0, {}]]]}, {"config": {"name": "stage3_stage_layer_hr_module_branch_2_block_1_basic_bn_2", "beta_initializer": {"config": {}, "class_name": "Zeros"}, "moving_variance_initializer": {"config": {}, "class_name": "Ones"}, "gamma_initializer": {"config": {}, "class_name": "Ones"}, "epsilon": 0.001, "trainable": true, "beta_regularizer": null, "axis": -1, "scale": true, "gamma_regularizer": null, "center": true, "moving_mean_initializer": {"config": {}, "class_name": "Zeros"}, "momentum": 0.99, "beta_constraint": null, "gamma_constraint": null}, "class_name": "BatchNormalization", "name": "stage3_stage_layer_hr_module_branch_2_block_1_basic_bn_2", "inbound_nodes": [[["stage3_stage_layer_hr_module_branch_2_block_1_basic_conv3x3_2", 0, 0, {}]]]}, {"config": {"pointwise_initializer": {"config": {"distribution": "uniform", "seed": null, "mode": "fan_avg", "scale": 1.0}, "class_name": "VarianceScaling"}, "padding": "same", "bias_initializer": {"config": {}, "class_name": "Zeros"}, "name": "stage3_stage_layer_hr_module_branch_0_block_2_basic_conv3x3_2", "kernel_size": [3, 3], "pointwise_constraint": null, "dilation_rate": [1, 1], "pointwise_regularizer": null, "activation": "linear", "depthwise_regularizer": null, "use_bias": true, "activity_regularizer": null, "bias_regularizer": null, "filters": 24, "strides": [1, 1], "depthwise_constraint": null, "depth_multiplier": 1, "trainable": true, "depthwise_initializer": {"config": {"distribution": "uniform", "seed": null, "mode": "fan_avg", "scale": 1.0}, "class_name": "VarianceScaling"}, "bias_constraint": null, "data_format": "channels_last"}, "class_name": "SeparableConv2D", "name": "stage3_stage_layer_hr_module_branch_0_block_2_basic_conv3x3_2", "inbound_nodes": [[["stage3_stage_layer_hr_module_branch_0_block_2_basic_relu_1", 0, 0, {}]]]}, {"config": {"pointwise_initializer": {"config": {"distribution": "uniform", "seed": null, "mode": "fan_avg", "scale": 1.0}, "class_name": "VarianceScaling"}, "padding": "same", "bias_initializer": {"config": {}, "class_name": "Zeros"}, "name": "stage3_stage_layer_hr_module_branch_1_block_2_basic_conv3x3_1", "kernel_size": [3, 3], "pointwise_constraint": null, "dilation_rate": [1, 1], "pointwise_regularizer": null, "activation": "linear", "depthwise_regularizer": null, "use_bias": true, "activity_regularizer": null, "bias_regularizer": null, "filters": 48, "strides": [1, 1], "depthwise_constraint": null, "depth_multiplier": 1, "trainable": true, "depthwise_initializer": {"config": {"distribution": "uniform", "seed": null, "mode": "fan_avg", "scale": 1.0}, "class_name": "VarianceScaling"}, "bias_constraint": null, "data_format": "channels_last"}, "class_name": "SeparableConv2D", "name": "stage3_stage_layer_hr_module_branch_1_block_2_basic_conv3x3_1", "inbound_nodes": [[["stage3_stage_layer_hr_module_branch_1_block_1_basic_relu_2", 0, 0, {}]]]}, {"config": {"trainable": true, "name": "add_24"}, "class_name": "Add", "name": "add_24", "inbound_nodes": [[["stage3_stage_layer_hr_module_branch_2_block_1_basic_bn_2", 0, 0, {}], ["stage3_stage_layer_hr_module_branch_2_block_0_basic_relu_2", 0, 0, {}]]]}, {"config": {"name": "stage3_stage_layer_hr_module_branch_0_block_2_basic_bn_2", "beta_initializer": {"config": {}, "class_name": "Zeros"}, "moving_variance_initializer": {"config": {}, "class_name": "Ones"}, "gamma_initializer": {"config": {}, "class_name": "Ones"}, "epsilon": 0.001, "trainable": true, "beta_regularizer": null, "axis": -1, "scale": true, "gamma_regularizer": null, "center": true, "moving_mean_initializer": {"config": {}, "class_name": "Zeros"}, "momentum": 0.99, "beta_constraint": null, "gamma_constraint": null}, "class_name": "BatchNormalization", "name": "stage3_stage_layer_hr_module_branch_0_block_2_basic_bn_2", "inbound_nodes": [[["stage3_stage_layer_hr_module_branch_0_block_2_basic_conv3x3_2", 0, 0, {}]]]}, {"config": {"name": "stage3_stage_layer_hr_module_branch_1_block_2_basic_bn_1", "beta_initializer": {"config": {}, "class_name": "Zeros"}, "moving_variance_initializer": {"config": {}, "class_name": "Ones"}, "gamma_initializer": {"config": {}, "class_name": "Ones"}, "epsilon": 0.001, "trainable": true, "beta_regularizer": null, "axis": -1, "scale": true, "gamma_regularizer": null, "center": true, "moving_mean_initializer": {"config": {}, "class_name": "Zeros"}, "momentum": 0.99, "beta_constraint": null, "gamma_constraint": null}, "class_name": "BatchNormalization", "name": "stage3_stage_layer_hr_module_branch_1_block_2_basic_bn_1", "inbound_nodes": [[["stage3_stage_layer_hr_module_branch_1_block_2_basic_conv3x3_1", 0, 0, {}]]]}, {"config": {"theta": 0.0, "trainable": true, "name": "stage3_stage_layer_hr_module_branch_2_block_1_basic_relu_2"}, "class_name": "ThresholdedReLU", "name": "stage3_stage_layer_hr_module_branch_2_block_1_basic_relu_2", "inbound_nodes": [[["add_24", 0, 0, {}]]]}, {"config": {"trainable": true, "name": "add_17"}, "class_name": "Add", "name": "add_17", "inbound_nodes": [[["stage3_stage_layer_hr_module_branch_0_block_2_basic_bn_2", 0, 0, {}], ["stage3_stage_layer_hr_module_branch_0_block_1_basic_relu_2", 0, 0, {}]]]}, {"config": {"theta": 0.0, "trainable": true, "name": "stage3_stage_layer_hr_module_branch_1_block_2_basic_relu_1"}, "class_name": "ThresholdedReLU", "name": "stage3_stage_layer_hr_module_branch_1_block_2_basic_relu_1", "inbound_nodes": [[["stage3_stage_layer_hr_module_branch_1_block_2_basic_bn_1", 0, 0, {}]]]}, {"config": {"pointwise_initializer": {"config": {"distribution": "uniform", "seed": null, "mode": "fan_avg", "scale": 1.0}, "class_name": "VarianceScaling"}, "padding": "same", "bias_initializer": {"config": {}, "class_name": "Zeros"}, "name": "stage3_stage_layer_hr_module_branch_2_block_2_basic_conv3x3_1", "kernel_size": [3, 3], "pointwise_constraint": null, "dilation_rate": [1, 1], "pointwise_regularizer": null, "activation": "linear", "depthwise_regularizer": null, "use_bias": true, "activity_regularizer": null, "bias_regularizer": null, "filters": 96, "strides": [1, 1], "depthwise_constraint": null, "depth_multiplier": 1, "trainable": true, "depthwise_initializer": {"config": {"distribution": "uniform", "seed": null, "mode": "fan_avg", "scale": 1.0}, "class_name": "VarianceScaling"}, "bias_constraint": null, "data_format": "channels_last"}, "class_name": "SeparableConv2D", "name": "stage3_stage_layer_hr_module_branch_2_block_2_basic_conv3x3_1", "inbound_nodes": [[["stage3_stage_layer_hr_module_branch_2_block_1_basic_relu_2", 0, 0, {}]]]}, {"config": {"theta": 0.0, "trainable": true, "name": "stage3_stage_layer_hr_module_branch_0_block_2_basic_relu_2"}, "class_name": "ThresholdedReLU", "name": "stage3_stage_layer_hr_module_branch_0_block_2_basic_relu_2", "inbound_nodes": [[["add_17", 0, 0, {}]]]}, {"config": {"pointwise_initializer": {"config": {"distribution": "uniform", "seed": null, "mode": "fan_avg", "scale": 1.0}, "class_name": "VarianceScaling"}, "padding": "same", "bias_initializer": {"config": {}, "class_name": "Zeros"}, "name": "stage3_stage_layer_hr_module_branch_1_block_2_basic_conv3x3_2", "kernel_size": [3, 3], "pointwise_constraint": null, "dilation_rate": [1, 1], "pointwise_regularizer": null, "activation": "linear", "depthwise_regularizer": null, "use_bias": true, "activity_regularizer": null, "bias_regularizer": null, "filters": 48, "strides": [1, 1], "depthwise_constraint": null, "depth_multiplier": 1, "trainable": true, "depthwise_initializer": {"config": {"distribution": "uniform", "seed": null, "mode": "fan_avg", "scale": 1.0}, "class_name": "VarianceScaling"}, "bias_constraint": null, "data_format": "channels_last"}, "class_name": "SeparableConv2D", "name": "stage3_stage_layer_hr_module_branch_1_block_2_basic_conv3x3_2", "inbound_nodes": [[["stage3_stage_layer_hr_module_branch_1_block_2_basic_relu_1", 0, 0, {}]]]}, {"config": {"name": "stage3_stage_layer_hr_module_branch_2_block_2_basic_bn_1", "beta_initializer": {"config": {}, "class_name": "Zeros"}, "moving_variance_initializer": {"config": {}, "class_name": "Ones"}, "gamma_initializer": {"config": {}, "class_name": "Ones"}, "epsilon": 0.001, "trainable": true, "beta_regularizer": null, "axis": -1, "scale": true, "gamma_regularizer": null, "center": true, "moving_mean_initializer": {"config": {}, "class_name": "Zeros"}, "momentum": 0.99, "beta_constraint": null, "gamma_constraint": null}, "class_name": "BatchNormalization", "name": "stage3_stage_layer_hr_module_branch_2_block_2_basic_bn_1", "inbound_nodes": [[["stage3_stage_layer_hr_module_branch_2_block_2_basic_conv3x3_1", 0, 0, {}]]]}, {"config": {"pointwise_initializer": {"config": {"distribution": "uniform", "seed": null, "mode": "fan_avg", "scale": 1.0}, "class_name": "VarianceScaling"}, "padding": "same", "bias_initializer": {"config": {}, "class_name": "Zeros"}, "name": "stage3_stage_layer_hr_module_branch_0_block_3_basic_conv3x3_1", "kernel_size": [3, 3], "pointwise_constraint": null, "dilation_rate": [1, 1], "pointwise_regularizer": null, "activation": "linear", "depthwise_regularizer": null, "use_bias": true, "activity_regularizer": null, "bias_regularizer": null, "filters": 24, "strides": [1, 1], "depthwise_constraint": null, "depth_multiplier": 1, "trainable": true, "depthwise_initializer": {"config": {"distribution": "uniform", "seed": null, "mode": "fan_avg", "scale": 1.0}, "class_name": "VarianceScaling"}, "bias_constraint": null, "data_format": "channels_last"}, "class_name": "SeparableConv2D", "name": "stage3_stage_layer_hr_module_branch_0_block_3_basic_conv3x3_1", "inbound_nodes": [[["stage3_stage_layer_hr_module_branch_0_block_2_basic_relu_2", 0, 0, {}]]]}, {"config": {"name": "stage3_stage_layer_hr_module_branch_1_block_2_basic_bn_2", "beta_initializer": {"config": {}, "class_name": "Zeros"}, "moving_variance_initializer": {"config": {}, "class_name": "Ones"}, "gamma_initializer": {"config": {}, "class_name": "Ones"}, "epsilon": 0.001, "trainable": true, "beta_regularizer": null, "axis": -1, "scale": true, "gamma_regularizer": null, "center": true, "moving_mean_initializer": {"config": {}, "class_name": "Zeros"}, "momentum": 0.99, "beta_constraint": null, "gamma_constraint": null}, "class_name": "BatchNormalization", "name": "stage3_stage_layer_hr_module_branch_1_block_2_basic_bn_2", "inbound_nodes": [[["stage3_stage_layer_hr_module_branch_1_block_2_basic_conv3x3_2", 0, 0, {}]]]}, {"config": {"theta": 0.0, "trainable": true, "name": "stage3_stage_layer_hr_module_branch_2_block_2_basic_relu_1"}, "class_name": "ThresholdedReLU", "name": "stage3_stage_layer_hr_module_branch_2_block_2_basic_relu_1", "inbound_nodes": [[["stage3_stage_layer_hr_module_branch_2_block_2_basic_bn_1", 0, 0, {}]]]}, {"config": {"name": "stage3_stage_layer_hr_module_branch_0_block_3_basic_bn_1", "beta_initializer": {"config": {}, "class_name": "Zeros"}, "moving_variance_initializer": {"config": {}, "class_name": "Ones"}, "gamma_initializer": {"config": {}, "class_name": "Ones"}, "epsilon": 0.001, "trainable": true, "beta_regularizer": null, "axis": -1, "scale": true, "gamma_regularizer": null, "center": true, "moving_mean_initializer": {"config": {}, "class_name": "Zeros"}, "momentum": 0.99, "beta_constraint": null, "gamma_constraint": null}, "class_name": "BatchNormalization", "name": "stage3_stage_layer_hr_module_branch_0_block_3_basic_bn_1", "inbound_nodes": [[["stage3_stage_layer_hr_module_branch_0_block_3_basic_conv3x3_1", 0, 0, {}]]]}, {"config": {"trainable": true, "name": "add_21"}, "class_name": "Add", "name": "add_21", "inbound_nodes": [[["stage3_stage_layer_hr_module_branch_1_block_2_basic_bn_2", 0, 0, {}], ["stage3_stage_layer_hr_module_branch_1_block_1_basic_relu_2", 0, 0, {}]]]}, {"config": {"pointwise_initializer": {"config": {"distribution": "uniform", "seed": null, "mode": "fan_avg", "scale": 1.0}, "class_name": "VarianceScaling"}, "padding": "same", "bias_initializer": {"config": {}, "class_name": "Zeros"}, "name": "stage3_stage_layer_hr_module_branch_2_block_2_basic_conv3x3_2", "kernel_size": [3, 3], "pointwise_constraint": null, "dilation_rate": [1, 1], "pointwise_regularizer": null, "activation": "linear", "depthwise_regularizer": null, "use_bias": true, "activity_regularizer": null, "bias_regularizer": null, "filters": 96, "strides": [1, 1], "depthwise_constraint": null, "depth_multiplier": 1, "trainable": true, "depthwise_initializer": {"config": {"distribution": "uniform", "seed": null, "mode": "fan_avg", "scale": 1.0}, "class_name": "VarianceScaling"}, "bias_constraint": null, "data_format": "channels_last"}, "class_name": "SeparableConv2D", "name": "stage3_stage_layer_hr_module_branch_2_block_2_basic_conv3x3_2", "inbound_nodes": [[["stage3_stage_layer_hr_module_branch_2_block_2_basic_relu_1", 0, 0, {}]]]}, {"config": {"theta": 0.0, "trainable": true, "name": "stage3_stage_layer_hr_module_branch_0_block_3_basic_relu_1"}, "class_name": "ThresholdedReLU", "name": "stage3_stage_layer_hr_module_branch_0_block_3_basic_relu_1", "inbound_nodes": [[["stage3_stage_layer_hr_module_branch_0_block_3_basic_bn_1", 0, 0, {}]]]}, {"config": {"theta": 0.0, "trainable": true, "name": "stage3_stage_layer_hr_module_branch_1_block_2_basic_relu_2"}, "class_name": "ThresholdedReLU", "name": "stage3_stage_layer_hr_module_branch_1_block_2_basic_relu_2", "inbound_nodes": [[["add_21", 0, 0, {}]]]}, {"config": {"name": "stage3_stage_layer_hr_module_branch_2_block_2_basic_bn_2", "beta_initializer": {"config": {}, "class_name": "Zeros"}, "moving_variance_initializer": {"config": {}, "class_name": "Ones"}, "gamma_initializer": {"config": {}, "class_name": "Ones"}, "epsilon": 0.001, "trainable": true, "beta_regularizer": null, "axis": -1, "scale": true, "gamma_regularizer": null, "center": true, "moving_mean_initializer": {"config": {}, "class_name": "Zeros"}, "momentum": 0.99, "beta_constraint": null, "gamma_constraint": null}, "class_name": "BatchNormalization", "name": "stage3_stage_layer_hr_module_branch_2_block_2_basic_bn_2", "inbound_nodes": [[["stage3_stage_layer_hr_module_branch_2_block_2_basic_conv3x3_2", 0, 0, {}]]]}, {"config": {"pointwise_initializer": {"config": {"distribution": "uniform", "seed": null, "mode": "fan_avg", "scale": 1.0}, "class_name": "VarianceScaling"}, "padding": "same", "bias_initializer": {"config": {}, "class_name": "Zeros"}, "name": "stage3_stage_layer_hr_module_branch_0_block_3_basic_conv3x3_2", "kernel_size": [3, 3], "pointwise_constraint": null, "dilation_rate": [1, 1], "pointwise_regularizer": null, "activation": "linear", "depthwise_regularizer": null, "use_bias": true, "activity_regularizer": null, "bias_regularizer": null, "filters": 24, "strides": [1, 1], "depthwise_constraint": null, "depth_multiplier": 1, "trainable": true, "depthwise_initializer": {"config": {"distribution": "uniform", "seed": null, "mode": "fan_avg", "scale": 1.0}, "class_name": "VarianceScaling"}, "bias_constraint": null, "data_format": "channels_last"}, "class_name": "SeparableConv2D", "name": "stage3_stage_layer_hr_module_branch_0_block_3_basic_conv3x3_2", "inbound_nodes": [[["stage3_stage_layer_hr_module_branch_0_block_3_basic_relu_1", 0, 0, {}]]]}, {"config": {"pointwise_initializer": {"config": {"distribution": "uniform", "seed": null, "mode": "fan_avg", "scale": 1.0}, "class_name": "VarianceScaling"}, "padding": "same", "bias_initializer": {"config": {}, "class_name": "Zeros"}, "name": "stage3_stage_layer_hr_module_branch_1_block_3_basic_conv3x3_1", "kernel_size": [3, 3], "pointwise_constraint": null, "dilation_rate": [1, 1], "pointwise_regularizer": null, "activation": "linear", "depthwise_regularizer": null, "use_bias": true, "activity_regularizer": null, "bias_regularizer": null, "filters": 48, "strides": [1, 1], "depthwise_constraint": null, "depth_multiplier": 1, "trainable": true, "depthwise_initializer": {"config": {"distribution": "uniform", "seed": null, "mode": "fan_avg", "scale": 1.0}, "class_name": "VarianceScaling"}, "bias_constraint": null, "data_format": "channels_last"}, "class_name": "SeparableConv2D", "name": "stage3_stage_layer_hr_module_branch_1_block_3_basic_conv3x3_1", "inbound_nodes": [[["stage3_stage_layer_hr_module_branch_1_block_2_basic_relu_2", 0, 0, {}]]]}, {"config": {"trainable": true, "name": "add_25"}, "class_name": "Add", "name": "add_25", "inbound_nodes": [[["stage3_stage_layer_hr_module_branch_2_block_2_basic_bn_2", 0, 0, {}], ["stage3_stage_layer_hr_module_branch_2_block_1_basic_relu_2", 0, 0, {}]]]}, {"config": {"name": "stage3_stage_layer_hr_module_branch_0_block_3_basic_bn_2", "beta_initializer": {"config": {}, "class_name": "Zeros"}, "moving_variance_initializer": {"config": {}, "class_name": "Ones"}, "gamma_initializer": {"config": {}, "class_name": "Ones"}, "epsilon": 0.001, "trainable": true, "beta_regularizer": null, "axis": -1, "scale": true, "gamma_regularizer": null, "center": true, "moving_mean_initializer": {"config": {}, "class_name": "Zeros"}, "momentum": 0.99, "beta_constraint": null, "gamma_constraint": null}, "class_name": "BatchNormalization", "name": "stage3_stage_layer_hr_module_branch_0_block_3_basic_bn_2", "inbound_nodes": [[["stage3_stage_layer_hr_module_branch_0_block_3_basic_conv3x3_2", 0, 0, {}]]]}, {"config": {"name": "stage3_stage_layer_hr_module_branch_1_block_3_basic_bn_1", "beta_initializer": {"config": {}, "class_name": "Zeros"}, "moving_variance_initializer": {"config": {}, "class_name": "Ones"}, "gamma_initializer": {"config": {}, "class_name": "Ones"}, "epsilon": 0.001, "trainable": true, "beta_regularizer": null, "axis": -1, "scale": true, "gamma_regularizer": null, "center": true, "moving_mean_initializer": {"config": {}, "class_name": "Zeros"}, "momentum": 0.99, "beta_constraint": null, "gamma_constraint": null}, "class_name": "BatchNormalization", "name": "stage3_stage_layer_hr_module_branch_1_block_3_basic_bn_1", "inbound_nodes": [[["stage3_stage_layer_hr_module_branch_1_block_3_basic_conv3x3_1", 0, 0, {}]]]}, {"config": {"theta": 0.0, "trainable": true, "name": "stage3_stage_layer_hr_module_branch_2_block_2_basic_relu_2"}, "class_name": "ThresholdedReLU", "name": "stage3_stage_layer_hr_module_branch_2_block_2_basic_relu_2", "inbound_nodes": [[["add_25", 0, 0, {}]]]}, {"config": {"trainable": true, "name": "add_18"}, "class_name": "Add", "name": "add_18", "inbound_nodes": [[["stage3_stage_layer_hr_module_branch_0_block_3_basic_bn_2", 0, 0, {}], ["stage3_stage_layer_hr_module_branch_0_block_2_basic_relu_2", 0, 0, {}]]]}, {"config": {"theta": 0.0, "trainable": true, "name": "stage3_stage_layer_hr_module_branch_1_block_3_basic_relu_1"}, "class_name": "ThresholdedReLU", "name": "stage3_stage_layer_hr_module_branch_1_block_3_basic_relu_1", "inbound_nodes": [[["stage3_stage_layer_hr_module_branch_1_block_3_basic_bn_1", 0, 0, {}]]]}, {"config": {"pointwise_initializer": {"config": {"distribution": "uniform", "seed": null, "mode": "fan_avg", "scale": 1.0}, "class_name": "VarianceScaling"}, "padding": "same", "bias_initializer": {"config": {}, "class_name": "Zeros"}, "name": "stage3_stage_layer_hr_module_branch_2_block_3_basic_conv3x3_1", "kernel_size": [3, 3], "pointwise_constraint": null, "dilation_rate": [1, 1], "pointwise_regularizer": null, "activation": "linear", "depthwise_regularizer": null, "use_bias": true, "activity_regularizer": null, "bias_regularizer": null, "filters": 96, "strides": [1, 1], "depthwise_constraint": null, "depth_multiplier": 1, "trainable": true, "depthwise_initializer": {"config": {"distribution": "uniform", "seed": null, "mode": "fan_avg", "scale": 1.0}, "class_name": "VarianceScaling"}, "bias_constraint": null, "data_format": "channels_last"}, "class_name": "SeparableConv2D", "name": "stage3_stage_layer_hr_module_branch_2_block_3_basic_conv3x3_1", "inbound_nodes": [[["stage3_stage_layer_hr_module_branch_2_block_2_basic_relu_2", 0, 0, {}]]]}, {"config": {"theta": 0.0, "trainable": true, "name": "stage3_stage_layer_hr_module_branch_0_block_3_basic_relu_2"}, "class_name": "ThresholdedReLU", "name": "stage3_stage_layer_hr_module_branch_0_block_3_basic_relu_2", "inbound_nodes": [[["add_18", 0, 0, {}]]]}, {"config": {"pointwise_initializer": {"config": {"distribution": "uniform", "seed": null, "mode": "fan_avg", "scale": 1.0}, "class_name": "VarianceScaling"}, "padding": "same", "bias_initializer": {"config": {}, "class_name": "Zeros"}, "name": "stage3_stage_layer_hr_module_branch_1_block_3_basic_conv3x3_2", "kernel_size": [3, 3], "pointwise_constraint": null, "dilation_rate": [1, 1], "pointwise_regularizer": null, "activation": "linear", "depthwise_regularizer": null, "use_bias": true, "activity_regularizer": null, "bias_regularizer": null, "filters": 48, "strides": [1, 1], "depthwise_constraint": null, "depth_multiplier": 1, "trainable": true, "depthwise_initializer": {"config": {"distribution": "uniform", "seed": null, "mode": "fan_avg", "scale": 1.0}, "class_name": "VarianceScaling"}, "bias_constraint": null, "data_format": "channels_last"}, "class_name": "SeparableConv2D", "name": "stage3_stage_layer_hr_module_branch_1_block_3_basic_conv3x3_2", "inbound_nodes": [[["stage3_stage_layer_hr_module_branch_1_block_3_basic_relu_1", 0, 0, {}]]]}, {"config": {"name": "stage3_stage_layer_hr_module_branch_2_block_3_basic_bn_1", "beta_initializer": {"config": {}, "class_name": "Zeros"}, "moving_variance_initializer": {"config": {}, "class_name": "Ones"}, "gamma_initializer": {"config": {}, "class_name": "Ones"}, "epsilon": 0.001, "trainable": true, "beta_regularizer": null, "axis": -1, "scale": true, "gamma_regularizer": null, "center": true, "moving_mean_initializer": {"config": {}, "class_name": "Zeros"}, "momentum": 0.99, "beta_constraint": null, "gamma_constraint": null}, "class_name": "BatchNormalization", "name": "stage3_stage_layer_hr_module_branch_2_block_3_basic_bn_1", "inbound_nodes": [[["stage3_stage_layer_hr_module_branch_2_block_3_basic_conv3x3_1", 0, 0, {}]]]}, {"config": {"name": "stage3_stage_layer_hr_module_branch_1_block_3_basic_bn_2", "beta_initializer": {"config": {}, "class_name": "Zeros"}, "moving_variance_initializer": {"config": {}, "class_name": "Ones"}, "gamma_initializer": {"config": {}, "class_name": "Ones"}, "epsilon": 0.001, "trainable": true, "beta_regularizer": null, "axis": -1, "scale": true, "gamma_regularizer": null, "center": true, "moving_mean_initializer": {"config": {}, "class_name": "Zeros"}, "momentum": 0.99, "beta_constraint": null, "gamma_constraint": null}, "class_name": "BatchNormalization", "name": "stage3_stage_layer_hr_module_branch_1_block_3_basic_bn_2", "inbound_nodes": [[["stage3_stage_layer_hr_module_branch_1_block_3_basic_conv3x3_2", 0, 0, {}]]]}, {"config": {"theta": 0.0, "trainable": true, "name": "stage3_stage_layer_hr_module_branch_2_block_3_basic_relu_1"}, "class_name": "ThresholdedReLU", "name": "stage3_stage_layer_hr_module_branch_2_block_3_basic_relu_1", "inbound_nodes": [[["stage3_stage_layer_hr_module_branch_2_block_3_basic_bn_1", 0, 0, {}]]]}, {"config": {"padding": "same", "bias_initializer": {"config": {}, "class_name": "Zeros"}, "kernel_constraint": null, "name": "stage3_stage_layer_hr_module_fuse_conv3x3_0_2_0", "kernel_size": [3, 3], "trainable": true, "dilation_rate": [1, 1], "activation": "linear", "activity_regularizer": null, "kernel_regularizer": null, "filters": 24, "strides": [2, 2], "use_bias": true, "bias_regularizer": null, "kernel_initializer": {"config": {"distribution": "uniform", "seed": null, "mode": "fan_avg", "scale": 1.0}, "class_name": "VarianceScaling"}, "bias_constraint": null, "data_format": "channels_last"}, "class_name": "Conv2D", "name": "stage3_stage_layer_hr_module_fuse_conv3x3_0_2_0", "inbound_nodes": [[["stage3_stage_layer_hr_module_branch_0_block_3_basic_relu_2", 0, 0, {}]]]}, {"config": {"trainable": true, "name": "add_22"}, "class_name": "Add", "name": "add_22", "inbound_nodes": [[["stage3_stage_layer_hr_module_branch_1_block_3_basic_bn_2", 0, 0, {}], ["stage3_stage_layer_hr_module_branch_1_block_2_basic_relu_2", 0, 0, {}]]]}, {"config": {"pointwise_initializer": {"config": {"distribution": "uniform", "seed": null, "mode": "fan_avg", "scale": 1.0}, "class_name": "VarianceScaling"}, "padding": "same", "bias_initializer": {"config": {}, "class_name": "Zeros"}, "name": "stage3_stage_layer_hr_module_branch_2_block_3_basic_conv3x3_2", "kernel_size": [3, 3], "pointwise_constraint": null, "dilation_rate": [1, 1], "pointwise_regularizer": null, "activation": "linear", "depthwise_regularizer": null, "use_bias": true, "activity_regularizer": null, "bias_regularizer": null, "filters": 96, "strides": [1, 1], "depthwise_constraint": null, "depth_multiplier": 1, "trainable": true, "depthwise_initializer": {"config": {"distribution": "uniform", "seed": null, "mode": "fan_avg", "scale": 1.0}, "class_name": "VarianceScaling"}, "bias_constraint": null, "data_format": "channels_last"}, "class_name": "SeparableConv2D", "name": "stage3_stage_layer_hr_module_branch_2_block_3_basic_conv3x3_2", "inbound_nodes": [[["stage3_stage_layer_hr_module_branch_2_block_3_basic_relu_1", 0, 0, {}]]]}, {"config": {"name": "batch_normalization_16", "beta_initializer": {"config": {}, "class_name": "Zeros"}, "moving_variance_initializer": {"config": {}, "class_name": "Ones"}, "gamma_initializer": {"config": {}, "class_name": "Ones"}, "epsilon": 0.001, "trainable": true, "beta_regularizer": null, "axis": -1, "scale": true, "gamma_regularizer": null, "center": true, "moving_mean_initializer": {"config": {}, "class_name": "Zeros"}, "momentum": 0.99, "beta_constraint": null, "gamma_constraint": null}, "class_name": "BatchNormalization", "name": "batch_normalization_16", "inbound_nodes": [[["stage3_stage_layer_hr_module_fuse_conv3x3_0_2_0", 0, 0, {}]]]}, {"config": {"theta": 0.0, "trainable": true, "name": "stage3_stage_layer_hr_module_branch_1_block_3_basic_relu_2"}, "class_name": "ThresholdedReLU", "name": "stage3_stage_layer_hr_module_branch_1_block_3_basic_relu_2", "inbound_nodes": [[["add_22", 0, 0, {}]]]}, {"config": {"name": "stage3_stage_layer_hr_module_branch_2_block_3_basic_bn_2", "beta_initializer": {"config": {}, "class_name": "Zeros"}, "moving_variance_initializer": {"config": {}, "class_name": "Ones"}, "gamma_initializer": {"config": {}, "class_name": "Ones"}, "epsilon": 0.001, "trainable": true, "beta_regularizer": null, "axis": -1, "scale": true, "gamma_regularizer": null, "center": true, "moving_mean_initializer": {"config": {}, "class_name": "Zeros"}, "momentum": 0.99, "beta_constraint": null, "gamma_constraint": null}, "class_name": "BatchNormalization", "name": "stage3_stage_layer_hr_module_branch_2_block_3_basic_bn_2", "inbound_nodes": [[["stage3_stage_layer_hr_module_branch_2_block_3_basic_conv3x3_2", 0, 0, {}]]]}, {"config": {"theta": 0.0, "trainable": true, "name": "thresholded_re_lu_1"}, "class_name": "ThresholdedReLU", "name": "thresholded_re_lu_1", "inbound_nodes": [[["batch_normalization_16", 0, 0, {}]]]}, {"config": {"trainable": true, "name": "add_26"}, "class_name": "Add", "name": "add_26", "inbound_nodes": [[["stage3_stage_layer_hr_module_branch_2_block_3_basic_bn_2", 0, 0, {}], ["stage3_stage_layer_hr_module_branch_2_block_2_basic_relu_2", 0, 0, {}]]]}, {"config": {"padding": "same", "bias_initializer": {"config": {}, "class_name": "Zeros"}, "kernel_constraint": null, "name": "stage3_stage_layer_hr_module_fuse_conv3x3_0_2_1", "kernel_size": [3, 3], "trainable": true, "dilation_rate": [1, 1], "activation": "linear", "activity_regularizer": null, "kernel_regularizer": null, "filters": 96, "strides": [2, 2], "use_bias": true, "bias_regularizer": null, "kernel_initializer": {"config": {"distribution": "uniform", "seed": null, "mode": "fan_avg", "scale": 1.0}, "class_name": "VarianceScaling"}, "bias_constraint": null, "data_format": "channels_last"}, "class_name": "Conv2D", "name": "stage3_stage_layer_hr_module_fuse_conv3x3_0_2_1", "inbound_nodes": [[["thresholded_re_lu_1", 0, 0, {}]]]}, {"config": {"padding": "same", "bias_initializer": {"config": {}, "class_name": "Zeros"}, "kernel_constraint": null, "name": "stage3_stage_layer_hr_module_fuse_conv3x3_1_2_0", "kernel_size": [3, 3], "trainable": true, "dilation_rate": [1, 1], "activation": "linear", "activity_regularizer": null, "kernel_regularizer": null, "filters": 96, "strides": [2, 2], "use_bias": true, "bias_regularizer": null, "kernel_initializer": {"config": {"distribution": "uniform", "seed": null, "mode": "fan_avg", "scale": 1.0}, "class_name": "VarianceScaling"}, "bias_constraint": null, "data_format": "channels_last"}, "class_name": "Conv2D", "name": "stage3_stage_layer_hr_module_fuse_conv3x3_1_2_0", "inbound_nodes": [[["stage3_stage_layer_hr_module_branch_1_block_3_basic_relu_2", 0, 0, {}]]]}, {"config": {"theta": 0.0, "trainable": true, "name": "stage3_stage_layer_hr_module_branch_2_block_3_basic_relu_2"}, "class_name": "ThresholdedReLU", "name": "stage3_stage_layer_hr_module_branch_2_block_3_basic_relu_2", "inbound_nodes": [[["add_26", 0, 0, {}]]]}, {"config": {"name": "batch_normalization_17", "beta_initializer": {"config": {}, "class_name": "Zeros"}, "moving_variance_initializer": {"config": {}, "class_name": "Ones"}, "gamma_initializer": {"config": {}, "class_name": "Ones"}, "epsilon": 0.001, "trainable": true, "beta_regularizer": null, "axis": -1, "scale": true, "gamma_regularizer": null, "center": true, "moving_mean_initializer": {"config": {}, "class_name": "Zeros"}, "momentum": 0.99, "beta_constraint": null, "gamma_constraint": null}, "class_name": "BatchNormalization", "name": "batch_normalization_17", "inbound_nodes": [[["stage3_stage_layer_hr_module_fuse_conv3x3_0_2_1", 0, 0, {}]]]}, {"config": {"name": "batch_normalization_18", "beta_initializer": {"config": {}, "class_name": "Zeros"}, "moving_variance_initializer": {"config": {}, "class_name": "Ones"}, "gamma_initializer": {"config": {}, "class_name": "Ones"}, "epsilon": 0.001, "trainable": true, "beta_regularizer": null, "axis": -1, "scale": true, "gamma_regularizer": null, "center": true, "moving_mean_initializer": {"config": {}, "class_name": "Zeros"}, "momentum": 0.99, "beta_constraint": null, "gamma_constraint": null}, "class_name": "BatchNormalization", "name": "batch_normalization_18", "inbound_nodes": [[["stage3_stage_layer_hr_module_fuse_conv3x3_1_2_0", 0, 0, {}]]]}, {"config": {"padding": "same", "bias_initializer": {"config": {}, "class_name": "Zeros"}, "kernel_constraint": null, "name": "stage3_stage_layer_hr_module_fuse_conv1x1_2_1", "kernel_size": [1, 1], "trainable": true, "dilation_rate": [1, 1], "activation": "linear", "activity_regularizer": null, "kernel_regularizer": null, "filters": 48, "strides": [1, 1], "use_bias": true, "bias_regularizer": null, "kernel_initializer": {"config": {"distribution": "uniform", "seed": null, "mode": "fan_avg", "scale": 1.0}, "class_name": "VarianceScaling"}, "bias_constraint": null, "data_format": "channels_last"}, "class_name": "Conv2D", "name": "stage3_stage_layer_hr_module_fuse_conv1x1_2_1", "inbound_nodes": [[["stage3_stage_layer_hr_module_branch_2_block_3_basic_relu_2", 0, 0, {}]]]}, {"config": {"trainable": true, "name": "add_29"}, "class_name": "Add", "name": "add_29", "inbound_nodes": [[["batch_normalization_17", 0, 0, {}], ["batch_normalization_18", 0, 0, {}], ["stage3_stage_layer_hr_module_branch_2_block_3_basic_relu_2", 0, 0, {}]]]}, {"config": {"padding": "same", "bias_initializer": {"config": {}, "class_name": "Zeros"}, "kernel_constraint": null, "name": "stage3_stage_layer_hr_module_fuse_conv3x3_0_1_0", "kernel_size": [3, 3], "trainable": true, "dilation_rate": [1, 1], "activation": "linear", "activity_regularizer": null, "kernel_regularizer": null, "filters": 48, "strides": [2, 2], "use_bias": true, "bias_regularizer": null, "kernel_initializer": {"config": {"distribution": "uniform", "seed": null, "mode": "fan_avg", "scale": 1.0}, "class_name": "VarianceScaling"}, "bias_constraint": null, "data_format": "channels_last"}, "class_name": "Conv2D", "name": "stage3_stage_layer_hr_module_fuse_conv3x3_0_1_0", "inbound_nodes": [[["stage3_stage_layer_hr_module_branch_0_block_3_basic_relu_2", 0, 0, {}]]]}, {"config": {"name": "batch_normalization_15", "beta_initializer": {"config": {}, "class_name": "Zeros"}, "moving_variance_initializer": {"config": {}, "class_name": "Ones"}, "gamma_initializer": {"config": {}, "class_name": "Ones"}, "epsilon": 0.001, "trainable": true, "beta_regularizer": null, "axis": -1, "scale": true, "gamma_regularizer": null, "center": true, "moving_mean_initializer": {"config": {}, "class_name": "Zeros"}, "momentum": 0.99, "beta_constraint": null, "gamma_constraint": null}, "class_name": "BatchNormalization", "name": "batch_normalization_15", "inbound_nodes": [[["stage3_stage_layer_hr_module_fuse_conv1x1_2_1", 0, 0, {}]]]}, {"config": {"padding": "same", "bias_initializer": {"config": {}, "class_name": "Zeros"}, "kernel_constraint": null, "name": "stage4_transition_layer_branch3_conv3x3", "kernel_size": [3, 3], "trainable": true, "dilation_rate": [1, 1], "activation": "linear", "activity_regularizer": null, "kernel_regularizer": null, "filters": 192, "strides": [2, 2], "use_bias": true, "bias_regularizer": null, "kernel_initializer": {"config": {"distribution": "uniform", "seed": null, "mode": "fan_avg", "scale": 1.0}, "class_name": "VarianceScaling"}, "bias_constraint": null, "data_format": "channels_last"}, "class_name": "Conv2D", "name": "stage4_transition_layer_branch3_conv3x3", "inbound_nodes": [[["add_29", 0, 0, {}]]]}, {"config": {"name": "batch_normalization_14", "beta_initializer": {"config": {}, "class_name": "Zeros"}, "moving_variance_initializer": {"config": {}, "class_name": "Ones"}, "gamma_initializer": {"config": {}, "class_name": "Ones"}, "epsilon": 0.001, "trainable": true, "beta_regularizer": null, "axis": -1, "scale": true, "gamma_regularizer": null, "center": true, "moving_mean_initializer": {"config": {}, "class_name": "Zeros"}, "momentum": 0.99, "beta_constraint": null, "gamma_constraint": null}, "class_name": "BatchNormalization", "name": "batch_normalization_14", "inbound_nodes": [[["stage3_stage_layer_hr_module_fuse_conv3x3_0_1_0", 0, 0, {}]]]}, {"config": {"data_format": "channels_last", "trainable": true, "interpolation": "nearest", "name": "up_sampling2d_4", "size": [2, 2]}, "class_name": "UpSampling2D", "name": "up_sampling2d_4", "inbound_nodes": [[["batch_normalization_15", 0, 0, {}]]]}, {"config": {"name": "stage4_transition_layer_branch3_bn", "beta_initializer": {"config": {}, "class_name": "Zeros"}, "moving_variance_initializer": {"config": {}, "class_name": "Ones"}, "gamma_initializer": {"config": {}, "class_name": "Ones"}, "epsilon": 0.001, "trainable": true, "beta_regularizer": null, "axis": -1, "scale": true, "gamma_regularizer": null, "center": true, "moving_mean_initializer": {"config": {}, "class_name": "Zeros"}, "momentum": 0.99, "beta_constraint": null, "gamma_constraint": null}, "class_name": "BatchNormalization", "name": "stage4_transition_layer_branch3_bn", "inbound_nodes": [[["stage4_transition_layer_branch3_conv3x3", 0, 0, {}]]]}, {"config": {"padding": "same", "bias_initializer": {"config": {}, "class_name": "Zeros"}, "kernel_constraint": null, "name": "stage3_stage_layer_hr_module_fuse_conv1x1_1_0", "kernel_size": [1, 1], "trainable": true, "dilation_rate": [1, 1], "activation": "linear", "activity_regularizer": null, "kernel_regularizer": null, "filters": 24, "strides": [1, 1], "use_bias": true, "bias_regularizer": null, "kernel_initializer": {"config": {"distribution": "uniform", "seed": null, "mode": "fan_avg", "scale": 1.0}, "class_name": "VarianceScaling"}, "bias_constraint": null, "data_format": "channels_last"}, "class_name": "Conv2D", "name": "stage3_stage_layer_hr_module_fuse_conv1x1_1_0", "inbound_nodes": [[["stage3_stage_layer_hr_module_branch_1_block_3_basic_relu_2", 0, 0, {}]]]}, {"config": {"padding": "same", "bias_initializer": {"config": {}, "class_name": "Zeros"}, "kernel_constraint": null, "name": "stage3_stage_layer_hr_module_fuse_conv1x1_2_0", "kernel_size": [1, 1], "trainable": true, "dilation_rate": [1, 1], "activation": "linear", "activity_regularizer": null, "kernel_regularizer": null, "filters": 24, "strides": [1, 1], "use_bias": true, "bias_regularizer": null, "kernel_initializer": {"config": {"distribution": "uniform", "seed": null, "mode": "fan_avg", "scale": 1.0}, "class_name": "VarianceScaling"}, "bias_constraint": null, "data_format": "channels_last"}, "class_name": "Conv2D", "name": "stage3_stage_layer_hr_module_fuse_conv1x1_2_0", "inbound_nodes": [[["stage3_stage_layer_hr_module_branch_2_block_3_basic_relu_2", 0, 0, {}]]]}, {"config": {"trainable": true, "name": "add_28"}, "class_name": "Add", "name": "add_28", "inbound_nodes": [[["batch_normalization_14", 0, 0, {}], ["stage3_stage_layer_hr_module_branch_1_block_3_basic_relu_2", 0, 0, {}], ["up_sampling2d_4", 0, 0, {}]]]}, {"config": {"theta": 0.0, "trainable": true, "name": "stage4_transition_layer_branch3_relu"}, "class_name": "ThresholdedReLU", "name": "stage4_transition_layer_branch3_relu", "inbound_nodes": [[["stage4_transition_layer_branch3_bn", 0, 0, {}]]]}, {"config": {"name": "batch_normalization_12", "beta_initializer": {"config": {}, "class_name": "Zeros"}, "moving_variance_initializer": {"config": {}, "class_name": "Ones"}, "gamma_initializer": {"config": {}, "class_name": "Ones"}, "epsilon": 0.001, "trainable": true, "beta_regularizer": null, "axis": -1, "scale": true, "gamma_regularizer": null, "center": true, "moving_mean_initializer": {"config": {}, "class_name": "Zeros"}, "momentum": 0.99, "beta_constraint": null, "gamma_constraint": null}, "class_name": "BatchNormalization", "name": "batch_normalization_12", "inbound_nodes": [[["stage3_stage_layer_hr_module_fuse_conv1x1_1_0", 0, 0, {}]]]}, {"config": {"name": "batch_normalization_13", "beta_initializer": {"config": {}, "class_name": "Zeros"}, "moving_variance_initializer": {"config": {}, "class_name": "Ones"}, "gamma_initializer": {"config": {}, "class_name": "Ones"}, "epsilon": 0.001, "trainable": true, "beta_regularizer": null, "axis": -1, "scale": true, "gamma_regularizer": null, "center": true, "moving_mean_initializer": {"config": {}, "class_name": "Zeros"}, "momentum": 0.99, "beta_constraint": null, "gamma_constraint": null}, "class_name": "BatchNormalization", "name": "batch_normalization_13", "inbound_nodes": [[["stage3_stage_layer_hr_module_fuse_conv1x1_2_0", 0, 0, {}]]]}, {"config": {"pointwise_initializer": {"config": {"distribution": "uniform", "seed": null, "mode": "fan_avg", "scale": 1.0}, "class_name": "VarianceScaling"}, "padding": "same", "bias_initializer": {"config": {}, "class_name": "Zeros"}, "name": "stage4_stage_layer_hr_module_branch_1_block_0_basic_conv3x3_1", "kernel_size": [3, 3], "pointwise_constraint": null, "dilation_rate": [1, 1], "pointwise_regularizer": null, "activation": "linear", "depthwise_regularizer": null, "use_bias": true, "activity_regularizer": null, "bias_regularizer": null, "filters": 48…
, "shape": [24], "dtype": "float32"}, {"name": "stage3_stage_layer_hr_module_branch_0_block_0_basic_bn_2/moving_variance", "shape": [24], "dtype": "float32"}, {"name": "stage3_stage_layer_hr_module_branch_0_block_0_basic_conv3x3_1/depthwise_kernel", "shape": [3, 3, 24, 1], "dtype": "float32"}, {"name": "stage3_stage_layer_hr_module_branch_0_block_0_basic_conv3x3_1/pointwise_kernel", "shape": [1, 1, 24, 24], "dtype": "float32"}, {"name": "stage3_stage_layer_hr_module_branch_0_block_0_basic_conv3x3_1/bias", "shape": [24], "dtype": "float32"}, {"name": "stage3_stage_layer_hr_module_branch_0_block_0_basic_conv3x3_2/depthwise_kernel", "shape": [3, 3, 24, 1], "dtype": "float32"}, {"name": "stage3_stage_layer_hr_module_branch_0_block_0_basic_conv3x3_2/pointwise_kernel", "shape": [1, 1, 24, 24], "dtype": "float32"}, {"name": "stage3_stage_layer_hr_module_branch_0_block_0_basic_conv3x3_2/bias", "shape": [24], "dtype": "float32"}, {"name": "stage3_stage_layer_hr_module_branch_0_block_1_basic_bn_1/gamma", "shape": [24], "dtype": "float32"}, {"name": "stage3_stage_layer_hr_module_branch_0_block_1_basic_bn_1/beta", "shape": [24], "dtype": "float32"}, {"name": "stage3_stage_layer_hr_module_branch_0_block_1_basic_bn_1/moving_mean", "shape": [24], "dtype": "float32"}, {"name": "stage3_stage_layer_hr_module_branch_0_block_1_basic_bn_1/moving_variance", "shape": [24], "dtype": "float32"}, {"name": "stage3_stage_layer_hr_module_branch_0_block_1_basic_bn_2/gamma", "shape": [24], "dtype": "float32"}, {"name": "stage3_stage_layer_hr_module_branch_0_block_1_basic_bn_2/beta", "shape": [24], "dtype": "float32"}, {"name": "stage3_stage_layer_hr_module_branch_0_block_1_basic_bn_2/moving_mean", "shape": [24], "dtype": "float32"}, {"name": "stage3_stage_layer_hr_module_branch_0_block_1_basic_bn_2/moving_variance", "shape": [24], "dtype": "float32"}, {"name": "stage3_stage_layer_hr_module_branch_0_block_1_basic_conv3x3_1/depthwise_kernel", "shape": [3, 3, 24, 1], "dtype": "float32"}, {"name": "stage3_stage_layer_hr_module_branch_0_block_1_basic_conv3x3_1/pointwise_kernel", "shape": [1, 1, 24, 24], "dtype": "float32"}, {"name": "stage3_stage_layer_hr_module_branch_0_block_1_basic_conv3x3_1/bias", "shape": [24], "dtype": "float32"}, {"name": "stage3_stage_layer_hr_module_branch_0_block_1_basic_conv3x3_2/depthwise_kernel", "shape": [3, 3, 24, 1], "dtype": "float32"}, {"name": "stage3_stage_layer_hr_module_branch_0_block_1_basic_conv3x3_2/pointwise_kernel", "shape": [1, 1, 24, 24], "dtype": "float32"}, {"name": "stage3_stage_layer_hr_module_branch_0_block_1_basic_conv3x3_2/bias", "shape": [24], "dtype": "float32"}, {"name": "stage3_stage_layer_hr_module_branch_0_block_2_basic_bn_1/gamma", "shape": [24], "dtype": "float32"}, {"name": "stage3_stage_layer_hr_module_branch_0_block_2_basic_bn_1/beta", "shape": [24], "dtype": "float32"}, {"name": "stage3_stage_layer_hr_module_branch_0_block_2_basic_bn_1/moving_mean", "shape": [24], "dtype": "float32"}, {"name": "stage3_stage_layer_hr_module_branch_0_block_2_basic_bn_1/moving_variance", "shape": [24], "dtype": "float32"}, {"name": "stage3_stage_layer_hr_module_branch_0_block_2_basic_bn_2/gamma", "shape": [24], "dtype": "float32"}, {"name": "stage3_stage_layer_hr_module_branch_0_block_2_basic_bn_2/beta", "shape": [24], "dtype": "float32"}, {"name": "stage3_stage_layer_hr_module_branch_0_block_2_basic_bn_2/moving_mean", "shape": [24], "dtype": "float32"}, {"name": "stage3_stage_layer_hr_module_branch_0_block_2_basic_bn_2/moving_variance", "shape": [24], "dtype": "float32"}, {"name": "stage3_stage_layer_hr_module_branch_0_block_2_basic_conv3x3_1/depthwise_kernel", "shape": [3, 3, 24, 1], "dtype": "float32"}, {"name": "stage3_stage_layer_hr_module_branch_0_block_2_basic_conv3x3_1/pointwise_kernel", "shape": [1, 1, 24, 24], "dtype": "float32"}, {"name": "stage3_stage_layer_hr_module_branch_0_block_2_basic_conv3x3_1/bias", "shape": [24], "dtype": "float32"}, {"name": "stage3_stage_layer_hr_module_branch_0_block_2_basic_conv3x3_2/depthwise_kernel", "shape": [3, 3, 24, 1], "dtype": "float32"}, {"name": "stage3_stage_layer_hr_module_branch_0_block_2_basic_conv3x3_2/pointwise_kernel", "shape": [1, 1, 24, 24], "dtype": "float32"}, {"name": "stage3_stage_layer_hr_module_branch_0_block_2_basic_conv3x3_2/bias", "shape": [24], "dtype": "float32"}, {"name": "stage3_stage_layer_hr_module_branch_0_block_3_basic_bn_1/gamma", "shape": [24], "dtype": "float32"}, {"name": "stage3_stage_layer_hr_module_branch_0_block_3_basic_bn_1/beta", "shape": [24], "dtype": "float32"}, {"name": "stage3_stage_layer_hr_module_branch_0_block_3_basic_bn_1/moving_mean", "shape": [24], "dtype": "float32"}, {"name": "stage3_stage_layer_hr_module_branch_0_block_3_basic_bn_1/moving_variance", "shape": [24], "dtype": "float32"}, {"name": "stage3_stage_layer_hr_module_branch_0_block_3_basic_bn_2/gamma", "shape": [24], "dtype": "float32"}, {"name": "stage3_stage_layer_hr_module_branch_0_block_3_basic_bn_2/beta", "shape": [24], "dtype": "float32"}, {"name": "stage3_stage_layer_hr_module_branch_0_block_3_basic_bn_2/moving_mean", "shape": [24], "dtype": "float32"}, {"name": "stage3_stage_layer_hr_module_branch_0_block_3_basic_bn_2/moving_variance", "shape": [24], "dtype": "float32"}, {"name": "stage3_stage_layer_hr_module_branch_0_block_3_basic_conv3x3_1/depthwise_kernel", "shape": [3, 3, 24, 1], "dtype": "float32"}, {"name": "stage3_stage_layer_hr_module_branch_0_block_3_basic_conv3x3_1/pointwise_kernel", "shape": [1, 1, 24, 24], "dtype": "float32"}, {"name": "stage3_stage_layer_hr_module_branch_0_block_3_basic_conv3x3_1/bias", "shape": [24], "dtype": "float32"}, {"name": "stage3_stage_layer_hr_module_branch_0_block_3_basic_conv3x3_2/depthwise_kernel", "shape": [3, 3, 24, 1], "dtype": "float32"}, {"name": "stage3_stage_layer_hr_module_branch_0_block_3_basic_conv3x3_2/pointwise_kernel", "shape": [1, 1, 24, 24], "dtype": "float32"}, {"name": "stage3_stage_layer_hr_module_branch_0_block_3_basic_conv3x3_2/bias", "shape": [24], "dtype": "float32"}, {"name": "stage3_stage_layer_hr_module_branch_1_block_0_basic_bn_1/gamma", "shape": [48], "dtype": "float32"}, {"name": "stage3_stage_layer_hr_module_branch_1_block_0_basic_bn_1/beta", "shape": [48], "dtype": "float32"}, {"name": "stage3_stage_layer_hr_module_branch_1_block_0_basic_bn_1/moving_mean", "shape": [48], "dtype": "float32"}, {"name": "stage3_stage_layer_hr_module_branch_1_block_0_basic_bn_1/moving_variance", "shape": [48], "dtype": "float32"}, {"name": "stage3_stage_layer_hr_module_branch_1_block_0_basic_bn_2/gamma", "shape": [48], "dtype": "float32"}, {"name": "stage3_stage_layer_hr_module_branch_1_block_0_basic_bn_2/beta", "shape": [48], "dtype": "float32"}, {"name": "stage3_stage_layer_hr_module_branch_1_block_0_basic_bn_2/moving_mean", "shape": [48], "dtype": "float32"}, {"name": "stage3_stage_layer_hr_module_branch_1_block_0_basic_bn_2/moving_variance", "shape": [48], "dtype": "float32"}, {"name": "stage3_stage_layer_hr_module_branch_1_block_0_basic_conv3x3_1/depthwise_kernel", "shape": [3, 3, 48, 1], "dtype": "float32"}, {"name": "stage3_stage_layer_hr_module_branch_1_block_0_basic_conv3x3_1/pointwise_kernel", "shape": [1, 1, 48, 48], "dtype": "float32"}, {"name": "stage3_stage_layer_hr_module_branch_1_block_0_basic_conv3x3_1/bias", "shape": [48], "dtype": "float32"}, {"name": "stage3_stage_layer_hr_module_branch_1_block_0_basic_conv3x3_2/depthwise_kernel", "shape": [3, 3, 48, 1], "dtype": "float32"}, {"name": "stage3_stage_layer_hr_module_branch_1_block_0_basic_conv3x3_2/pointwise_kernel", "shape": [1, 1, 48, 48], "dtype": "float32"}, {"name": "stage3_stage_layer_hr_module_branch_1_block_0_basic_conv3x3_2/bias", "shape": [48], "dtype": "float32"}, {"name": "stage3_stage_layer_hr_module_branch_1_block_1_basic_bn_1/gamma", "shape": [48], "dtype": "float32"}, {"name": "stage3_stage_layer_hr_module_branch_1_block_1_basic_bn_1/beta", "shape": [48], "dtype": "float32"}, {"name": "stage3_stage_layer_hr_module_branch_1_block_1_basic_bn_1/moving_mean", "shape": [48], "dtype": "float32"}, {"name": "stage3_stage_layer_hr_module_branch_1_block_1_basic_bn_1/moving_variance", "shape": [48], "dtype": "float32"}, {"name": "stage3_stage_layer_hr_module_branch_1_block_1_basic_bn_2/gamma", "shape": [48], "dtype": "float32"}, {"name": "stage3_stage_layer_hr_module_branch_1_block_1_basic_bn_2/beta", "shape": [48], "dtype": "float32"}, {"name": "stage3_stage_layer_hr_module_branch_1_block_1_basic_bn_2/moving_mean", "shape": [48], "dtype": "float32"}, {"name": "stage3_stage_layer_hr_module_branch_1_block_1_basic_bn_2/moving_variance", "shape": [48], "dtype": "float32"}, {"name": "stage3_stage_layer_hr_module_branch_1_block_1_basic_conv3x3_1/depthwise_kernel", "shape": [3, 3, 48, 1], "dtype": "float32"}, {"name": "stage3_stage_layer_hr_module_branch_1_block_1_basic_conv3x3_1/pointwise_kernel", "shape": [1, 1, 48, 48], "dtype": "float32"}, {"name": "stage3_stage_layer_hr_module_branch_1_block_1_basic_conv3x3_1/bias", "shape": [48], "dtype": "float32"}, {"name": "stage3_stage_layer_hr_module_branch_1_block_1_basic_conv3x3_2/depthwise_kernel", "shape": [3, 3, 48, 1], "dtype": "float32"}, {"name": "stage3_stage_layer_hr_module_branch_1_block_1_basic_conv3x3_2/pointwise_kernel", "shape": [1, 1, 48, 48], "dtype": "float32"}, {"name": "stage3_stage_layer_hr_module_branch_1_block_1_basic_conv3x3_2/bias", "shape": [48], "dtype": "float32"}, {"name": "stage3_stage_layer_hr_module_branch_1_block_2_basic_bn_1/gamma", "shape": [48], "dtype": "float32"}, {"name": "stage3_stage_layer_hr_module_branch_1_block_2_basic_bn_1/beta", "shape": [48], "dtype": "float32"}, {"name": "stage3_stage_layer_hr_module_branch_1_block_2_basic_bn_1/moving_mean", "shape": [48], "dtype": "float32"}, {"name": "stage3_stage_layer_hr_module_branch_1_block_2_basic_bn_1/moving_variance", "shape": [48], "dtype": "float32"}, {"name": "stage3_stage_layer_hr_module_branch_1_block_2_basic_bn_2/gamma", "shape": [48], "dtype": "float32"}, {"name": "stage3_stage_layer_hr_module_branch_1_block_2_basic_bn_2/beta", "shape": [48], "dtype": "float32"}, {"name": "stage3_stage_layer_hr_module_branch_1_block_2_basic_bn_2/moving_mean", "shape": [48], "dtype": "float32"}, {"name": "stage3_stage_layer_hr_module_branch_1_block_2_basic_bn_2/moving_variance", "shape": [48], "dtype": "float32"}, {"name": "stage3_stage_layer_hr_module_branch_1_block_2_basic_conv3x3_1/depthwise_kernel", "shape": [3, 3, 48, 1], "dtype": "float32"}, {"name": "stage3_stage_layer_hr_module_branch_1_block_2_basic_conv3x3_1/pointwise_kernel", "shape": [1, 1, 48, 48], "dtype": "float32"}, {"name": "stage3_stage_layer_hr_module_branch_1_block_2_basic_conv3x3_1/bias", "shape": [48], "dtype": "float32"}, {"name": "stage3_stage_layer_hr_module_branch_1_block_2_basic_conv3x3_2/depthwise_kernel", "shape": [3, 3, 48, 1], "dtype": "float32"}, {"name": "stage3_stage_layer_hr_module_branch_1_block_2_basic_conv3x3_2/pointwise_kernel", "shape": [1, 1, 48, 48], "dtype": "float32"}, {"name": "stage3_stage_layer_hr_module_branch_1_block_2_basic_conv3x3_2/bias", "shape": [48], "dtype": "float32"}, {"name": "stage3_stage_layer_hr_module_branch_1_block_3_basic_bn_1/gamma", "shape": [48], "dtype": "float32"}, {"name": "stage3_stage_layer_hr_module_branch_1_block_3_basic_bn_1/beta", "shape": [48], "dtype": "float32"}, {"name": "stage3_stage_layer_hr_module_branch_1_block_3_basic_bn_1/moving_mean", "shape": [48], "dtype": "float32"}, {"name": "stage3_stage_layer_hr_module_branch_1_block_3_basic_bn_1/moving_variance", "shape": [48], "dtype": "float32"}, {"name": "stage3_stage_layer_hr_module_branch_1_block_3_basic_bn_2/gamma", "shape": [48], "dtype": "float32"}, {"name": "stage3_stage_layer_hr_module_branch_1_block_3_basic_bn_2/beta", "shape": [48], "dtype": "float32"}, {"name": "stage3_stage_layer_hr_module_branch_1_block_3_basic_bn_2/moving_mean", "shape": [48], "dtype": "float32"}, {"name": "stage3_stage_layer_hr_module_branch_1_block_3_basic_bn_2/moving_variance", "shape": [48], "dtype": "float32"}, {"name": "stage3_stage_layer_hr_module_branch_1_block_3_basic_conv3x3_1/depthwise_kernel", "shape": [3, 3, 48, 1], "dtype": "float32"}, {"name": "stage3_stage_layer_hr_module_branch_1_block_3_basic_conv3x3_1/pointwise_kernel", "shape": [1, 1, 48, 48], "dtype": "float32"}, {"name": "stage3_stage_layer_hr_module_branch_1_block_3_basic_conv3x3_1/bias", "shape": [48], "dtype": "float32"}, {"name": "stage3_stage_layer_hr_module_branch_1_block_3_basic_conv3x3_2/depthwise_kernel", "shape": [3, 3, 48, 1], "dtype": "float32"}, {"name": "stage3_stage_layer_hr_module_branch_1_block_3_basic_conv3x3_2/pointwise_kernel", "shape": [1, 1, 48, 48], "dtype": "float32"}, {"name": "stage3_stage_layer_hr_module_branch_1_block_3_basic_conv3x3_2/bias", "shape": [48], "dtype": "float32"}, {"name": "stage3_stage_layer_hr_module_branch_2_block_0_basic_bn_1/gamma", "shape": [96], "dtype": "float32"}, {"name": "stage3_stage_layer_hr_module_branch_2_block_0_basic_bn_1/beta", "shape": [96], "dtype": "float32"}, {"name": "stage3_stage_layer_hr_module_branch_2_block_0_basic_bn_1/moving_mean", "shape": [96], "dtype": "float32"}, {"name": "stage3_stage_layer_hr_module_branch_2_block_0_basic_bn_1/moving_variance", "shape": [96], "dtype": "float32"}, {"name": "stage3_stage_layer_hr_module_branch_2_block_0_basic_bn_2/gamma", "shape": [96], "dtype": "float32"}, {"name": "stage3_stage_layer_hr_module_branch_2_block_0_basic_bn_2/beta", "shape": [96], "dtype": "float32"}, {"name": "stage3_stage_layer_hr_module_branch_2_block_0_basic_bn_2/moving_mean", "shape": [96], "dtype": "float32"}, {"name": "stage3_stage_layer_hr_module_branch_2_block_0_basic_bn_2/moving_variance", "shape": [96], "dtype": "float32"}, {"name": "stage3_stage_layer_hr_module_branch_2_block_0_basic_conv3x3_1/depthwise_kernel", "shape": [3, 3, 96, 1], "dtype": "float32"}, {"name": "stage3_stage_layer_hr_module_branch_2_block_0_basic_conv3x3_1/pointwise_kernel", "shape": [1, 1, 96, 96], "dtype": "float32"}, {"name": "stage3_stage_layer_hr_module_branch_2_block_0_basic_conv3x3_1/bias", "shape": [96], "dtype": "float32"}, {"name": "stage3_stage_layer_hr_module_branch_2_block_0_basic_conv3x3_2/depthwise_kernel", "shape": [3, 3, 96, 1], "dtype": "float32"}, {"name": "stage3_stage_layer_hr_module_branch_2_block_0_basic_conv3x3_2/pointwise_kernel", "shape": [1, 1, 96, 96], "dtype": "float32"}, {"name": "stage3_stage_layer_hr_module_branch_2_block_0_basic_conv3x3_2/bias", "shape": [96], "dtype": "float32"}, {"name": "stage3_stage_layer_hr_module_branch_2_block_1_basic_bn_1/gamma", "shape": [96], "dtype": "float32"}, {"name": "stage3_stage_layer_hr_module_branch_2_block_1_basic_bn_1/beta", "shape": [96], "dtype": "float32"}, {"name": "stage3_stage_layer_hr_module_branch_2_block_1_basic_bn_1/moving_mean", "shape": [96], "dtype": "float32"}, {"name": "stage3_stage_layer_hr_module_branch_2_block_1_basic_bn_1/moving_variance", "shape": [96], "dtype": "float32"}, {"name": "stage3_stage_layer_hr_module_branch_2_block_1_basic_bn_2/gamma", "shape": [96], "dtype": "float32"}, {"name": "stage3_stage_layer_hr_module_branch_2_block_1_basic_bn_2/beta", "shape": [96], "dtype": "float32"}, {"name": "stage3_stage_layer_hr_module_branch_2_block_1_basic_bn_2/moving_mean", "shape": [96], "dtype": "float32"}, {"name": "stage3_stage_layer_hr_module_branch_2_block_1_basic_bn_2/moving_variance", "shape": [96], "dtype": "float32"}, {"name": "stage3_stage_layer_hr_module_branch_2_block_1_basic_conv3x3_1/depthwise_kernel", "shape": [3, 3, 96, 1], "dtype": "float32"}, {"name": "stage3_stage_layer_hr_module_branch_2_block_1_basic_conv3x3_1/pointwise_kernel", "shape": [1, 1, 96, 96], "dtype": "float32"}, {"name": "stage3_stage_layer_hr_module_branch_2_block_1_basic_conv3x3_1/bias", "shape": [96], "dtype": "float32"}, {"name": "stage3_stage_layer_hr_module_branch_2_block_1_basic_conv3x3_2/depthwise_kernel", "shape": [3, 3, 96, 1], "dtype": "float32"}, {"name": "stage3_stage_layer_hr_module_branch_2_block_1_basic_conv3x3_2/pointwise_kernel", "shape": [1, 1, 96, 96], "dtype": "float32"}, {"name": "stage3_stage_layer_hr_module_branch_2_block_1_basic_conv3x3_2/bias", "shape": [96], "dtype": "float32"}, {"name": "stage3_stage_layer_hr_module_branch_2_block_2_basic_bn_1/gamma", "shape": [96], "dtype": "float32"}, {"name": "stage3_stage_layer_hr_module_branch_2_block_2_basic_bn_1/beta", "shape": [96], "dtype": "float32"}, {"name": "stage3_stage_layer_hr_module_branch_2_block_2_basic_bn_1/moving_mean", "shape": [96], "dtype": "float32"}, {"name": "stage3_stage_layer_hr_module_branch_2_block_2_basic_bn_1/moving_variance", "shape": [96], "dtype": "float32"}, {"name": "stage3_stage_layer_hr_module_branch_2_block_2_basic_bn_2/gamma", "shape": [96], "dtype": "float32"}, {"name": "stage3_stage_layer_hr_module_branch_2_block_2_basic_bn_2/beta", "shape": [96], "dtype": "float32"}, {"name": "stage3_stage_layer_hr_module_branch_2_block_2_basic_bn_2/moving_mean", "shape": [96], "dtype": "float32"}, {"name": "stage3_stage_layer_hr_module_branch_2_block_2_basic_bn_2/moving_variance", "shape": [96], "dtype": "float32"}, {"name": "stage3_stage_layer_hr_module_branch_2_block_2_basic_conv3x3_1/depthwise_kernel", "shape": [3, 3, 96, 1], "dtype": "float32"}, {"name": "stage3_stage_layer_hr_module_branch_2_block_2_basic_conv3x3_1/pointwise_kernel", "shape": [1, 1, 96, 96], "dtype": "float32"}, {"name": "stage3_stage_layer_hr_module_branch_2_block_2_basic_conv3x3_1/bias", "shape": [96], "dtype": "float32"}, {"name": "stage3_stage_layer_hr_module_branch_2_block_2_basic_conv3x3_2/depthwise_kernel", "shape": [3, 3, 96, 1], "dtype": "float32"}, {"name": "stage3_stage_layer_hr_module_branch_2_block_2_basic_conv3x3_2/pointwise_kernel", "shape": [1, 1, 96, 96], "dtype": "float32"}, {"name": "stage3_stage_layer_hr_module_branch_2_block_2_basic_conv3x3_2/bias", "shape": [96], "dtype": "float32"}, {"name": "stage3_stage_layer_hr_module_branch_2_block_3_basic_bn_1/gamma", "shape": [96], "dtype": "float32"}, {"name": "stage3_stage_layer_hr_module_branch_2_block_3_basic_bn_1/beta", "shape": [96], "dtype": "float32"}, {"name": "stage3_stage_layer_hr_module_branch_2_block_3_basic_bn_1/moving_mean", "shape": [96], "dtype": "float32"}, {"name": "stage3_stage_layer_hr_module_branch_2_block_3_basic_bn_1/moving_variance", "shape": [96], "dtype": "float32"}, {"name": "stage3_stage_layer_hr_module_branch_2_block_3_basic_bn_2/gamma", "shape": [96], "dtype": "float32"}, {"name": "stage3_stage_layer_hr_module_branch_2_block_3_basic_bn_2/beta", "shape": [96], "dtype": "float32"}, {"name": "stage3_stage_layer_hr_module_branch_2_block_3_basic_bn_2/moving_mean", "shape": [96], "dtype": "float32"}, {"name": "stage3_stage_layer_hr_module_branch_2_block_3_basic_bn_2/moving_variance", "shape": [96], "dtype": "float32"}, {"name": "stage3_stage_layer_hr_module_branch_2_block_3_basic_conv3x3_1/depthwise_kernel", "shape": [3, 3, 96, 1], "dtype": "float32"}, {"name": "stage3_stage_layer_hr_module_branch_2_block_3_basic_conv3x3_1/pointwise_kernel", "shape": [1, 1, 96, 96], "dtype": "float32"}, {"name": "stage3_stage_layer_hr_module_branch_2_block_3_basic_conv3x3_1/bias", "shape": [96], "dtype": "float32"}, {"name": "stage3_stage_layer_hr_module_branch_2_block_3_basic_conv3x3_2/depthwise_kernel", "shape": [3, 3, 96, 1], "dtype": "float32"}, {"name": "stage3_stage_layer_hr_module_branch_2_block_3_basic_conv3x3_2/pointwise_kernel", "shape": [1, 1, 96, 96], "dtype": "float32"}, {"name": "stage3_stage_layer_hr_module_branch_2_block_3_basic_conv3x3_2/bias", "shape": [96], "dtype": "float32"}, {"name": "stage3_stage_layer_hr_module_fuse_conv1x1_1_0/kernel", "shape": [1, 1, 48, 24], "dtype": "float32"}, {"name": "stage3_stage_layer_hr_module_fuse_conv1x1_1_0/bias", "shape": [24], "dtype": "float32"}, {"name": "stage3_stage_layer_hr_module_fuse_conv1x1_2_0/kernel", "shape": [1, 1, 96, 24], "dtype": "float32"}, {"name": "stage3_stage_layer_hr_module_fuse_conv1x1_2_0/bias", "shape": [24], "dtype": "float32"}, {"name": "stage3_stage_layer_hr_module_fuse_conv1x1_2_1/kernel", "shape": [1, 1, 96, 48], "dtype": "float32"}, {"name": "stage3_stage_layer_hr_module_fuse_conv1x1_2_1/bias", "shape": [48], "dtype": "float32"}, {"name": "stage3_stage_layer_hr_module_fuse_conv3x3_0_1_0/kernel", "shape": [3, 3, 24, 48], "dtype": "float32"}, {"name": "stage3_stage_layer_hr_module_fuse_conv3x3_0_1_0/bias", "shape": [48], "dtype": "float32"}, {"name": "stage3_stage_layer_hr_module_fuse_conv3x3_0_2_0/kernel", "shape": [3, 3, 24, 24], "dtype": "float32"}, {"name": "stage3_stage_layer_hr_module_fuse_conv3x3_0_2_0/bias", "shape": [24], "dtype": "float32"}, {"name": "stage3_stage_layer_hr_module_fuse_conv3x3_0_2_1/kernel", "shape": [3, 3, 24, 96], "dtype": "float32"}, {"name": "stage3_stage_layer_hr_module_fuse_conv3x3_0_2_1/bias", "shape": [96], "dtype": "float32"}, {"name": "stage3_stage_layer_hr_module_fuse_conv3x3_1_2_0/kernel", "shape": [3, 3, 48, 96], "dtype": "float32"}, {"name": "stage3_stage_layer_hr_module_fuse_conv3x3_1_2_0/bias", "shape": [96], "dtype": "float32"}, {"name": "stage3_transition_layer_branch2_bn/gamma", "shape": [96], "dtype": "float32"}, {"name": "stage3_transition_layer_branch2_bn/beta", "shape": [96], "dtype": "float32"}, {"name": "stage3_transition_layer_branch2_bn/moving_mean", "shape": [96], "dtype": "float32"}, {"name": "stage3_transition_layer_branch2_bn/moving_variance", "shape": [96], "dtype": "float32"}, {"name": "stage3_transition_layer_branch2_conv3x3/kernel", "shape": [3, 3, 48, 96], "dtype": "float32"}, {"name": "stage3_transition_layer_branch2_conv3x3/bias", "shape": [96], "dtype": "float32"}, {"name": "stage4_stage_layer_hr_module_branch_0_block_0_basic_bn_1/gamma", "shape": [24], "dtype": "float32"}, {"name": "stage4_stage_layer_hr_module_branch_0_block_0_basic_bn_1/beta", "shape": [24], "dtype": "float32"}, {"name": "stage4_stage_layer_hr_module_branch_0_block_0_basic_bn_1/moving_mean", "shape": [24], "dtype": "float32"}, {"name": "stage4_stage_layer_hr_module_branch_0_block_0_basic_bn_1/moving_variance", "shape": [24], "dtype": "float32"}, {"name": "stage4_stage_layer_hr_module_branch_0_block_0_basic_bn_2/gamma", "shape": [24], "dtype": "float32"}, {"name": "stage4_stage_layer_hr_module_branch_0_block_0_basic_bn_2/beta", "shape": [24], "dtype": "float32"}, {"name": "stage4_stage_layer_hr_module_branch_0_block_0_basic_bn_2/moving_mean", "shape": [24], "dtype": "float32"}, {"name": "stage4_stage_layer_hr_module_branch_0_block_0_basic_bn_2/moving_variance", "shape": [24], "dtype": "float32"}, {"name": "stage4_stage_layer_hr_module_branch_0_block_0_basic_conv3x3_1/depthwise_kernel", "shape": [3, 3, 24, 1], "dtype": "float32"}, {"name": "stage4_stage_layer_hr_module_branch_0_block_0_basic_conv3x3_1/pointwise_kernel", "shape": [1, 1, 24, 24], "dtype": "float32"}, {"name": "stage4_stage_layer_hr_module_branch_0_block_0_basic_conv3x3_1/bias", "shape": [24], "dtype": "float32"}, {"name": "stage4_stage_layer_hr_module_branch_0_block_0_basic_conv3x3_2/depthwise_kernel", "shape": [3, 3, 24, 1], "dtype": "float32"}, {"name": "stage4_stage_layer_hr_module_branch_0_block_0_basic_conv3x3_2/pointwise_kernel", "shape": [1, 1, 24, 24], "dtype": "float32"}, {"name": "stage4_stage_layer_hr_module_branch_0_block_0_basic_conv3x3_2/bias", "shape": [24], "dtype": "float32"}, {"name": "stage4_stage_layer_hr_module_branch_0_block_1_basic_bn_1/gamma", "shape": [24], "dtype": "float32"}, {"name": "stage4_stage_layer_hr_module_branch_0_block_1_basic_bn_1/beta", "shape": [24], "dtype": "float32"}, {"name": "stage4_stage_layer_hr_module_branch_0_block_1_basic_bn_1/moving_mean", "shape": [24], "dtype": "float32"}, {"name": "stage4_stage_layer_hr_module_branch_0_block_1_basic_bn_1/moving_variance", "shape": [24], "dtype": "float32"}, {"name": "stage4_stage_layer_hr_module_branch_0_block_1_basic_bn_2/gamma", "shape": [24], "dtype": "float32"}, {"name": "stage4_stage_layer_hr_module_branch_0_block_1_basic_bn_2/beta", "shape": [24], "dtype": "float32"}, {"name": "stage4_stage_layer_hr_module_branch_0_block_1_basic_bn_2/moving_mean", "shape": [24], "dtype": "float32"}, {"name": "stage4_stage_layer_hr_module_branch_0_block_1_basic_bn_2/moving_variance", "shape": [24], "dtype": "float32"}, {"name": "stage4_stage_layer_hr_module_branch_0_block_1_basic_conv3x3_1/depthwise_kernel", "shape": [3, 3, 24, 1], "dtype": "float32"}, {"name": "stage4_stage_layer_hr_module_branch_0_block_1_basic_conv3x3_1/pointwise_kernel", "shape": [1, 1, 24, 24], "dtype": "float32"}, {"name": "stage4_stage_layer_hr_module_branch_0_block_1_basic_conv3x3_1/bias", "shape": [24], "dtype": "float32"}, {"name": "stage4_stage_layer_hr_module_branch_0_block_1_basic_conv3x3_2/depthwise_kernel", "shape": [3, 3, 24, 1], "dtype": "float32"}, {"name": "stage4_stage_layer_hr_module_branch_0_block_1_basic_conv3x3_2/pointwise_kernel", "shape": [1, 1, 24, 24], "dtype": "float32"}, {"name": "stage4_stage_layer_hr_module_branch_0_block_1_basic_conv3x3_2/bias", "shape": [24], "dtype": "float32"}, {"name": "stage4_stage_layer_hr_module_branch_0_block_2_basic_bn_1/gamma", "shape": [24], "dtype": "float32"}, {"name": "stage4_stage_layer_hr_module_branch_0_block_2_basic_bn_1/beta", "shape": [24], "dtype": "float32"}, {"name": "stage4_stage_layer_hr_module_branch_0_block_2_basic_bn_1/moving_mean", "shape": [24], "dtype": "float32"}, {"name": "stage4_stage_layer_hr_module_branch_0_block_2_basic_bn_1/moving_variance", "shape": [24], "dtype": "float32"}, {"name": "stage4_stage_layer_hr_module_branch_0_block_2_basic_bn_2/gamma", "shape": [24], "dtype": "float32"}, {"name": "stage4_stage_layer_hr_module_branch_0_block_2_basic_bn_2/beta", "shape": [24], "dtype": "float32"}, {"name": "stage4_stage_layer_hr_module_branch_0_block_2_basic_bn_2/moving_mean", "shape": [24], "dtype": "float32"}, {"name": "stage4_stage_layer_hr_module_branch_0_block_2_basic_bn_2/moving_variance", "shape": [24], "dtype": "float32"}, {"name": "stage4_stage_layer_hr_module_branch_0_block_2_basic_conv3x3_1/depthwise_kernel", "shape": [3, 3, 24, 1], "dtype": "float32"}, {"name": "stage4_stage_layer_hr_module_branch_0_block_2_basic_conv3x3_1/pointwise_kernel", "shape": [1, 1, 24, 24], "dtype": "float32"}, {"name": "stage4_stage_layer_hr_module_branch_0_block_2_basic_conv3x3_1/bias", "shape": [24], "dtype": "float32"}, {"name": "stage4_stage_layer_hr_module_branch_0_block_2_basic_conv3x3_2/depthwise_kernel", "shape": [3, 3, 24, 1], "dtype": "float32"}, {"name": "stage4_stage_layer_hr_module_branch_0_block_2_basic_conv3x3_2/pointwise_kernel", "shape": [1, 1, 24, 24], "dtype": "float32"}, {"name": "stage4_stage_layer_hr_module_branch_0_block_2_basic_conv3x3_2/bias", "shape": [24], "dtype": "float32"}, {"name": "stage4_stage_layer_hr_module_branch_0_block_3_basic_bn_1/gamma", "shape": [24], "dtype": "float32"}, {"name": "stage4_stage_layer_hr_module_branch_0_block_3_basic_bn_1/beta", "shape": [24], "dtype": "float32"}, {"name": "stage4_stage_layer_hr_module_branch_0_block_3_basic_bn_1/moving_mean", "shape": [24], "dtype": "float32"}, {"name": "stage4_stage_layer_hr_module_branch_0_block_3_basic_bn_1/moving_variance", "shape": [24], "dtype": "float32"}, {"name": "stage4_stage_layer_hr_module_branch_0_block_3_basic_bn_2/gamma", "shape": [24], "dtype": "float32"}, {"name": "stage4_stage_layer_hr_module_branch_0_block_3_basic_bn_2/beta", "shape": [24], "dtype": "float32"}, {"name": "stage4_stage_layer_hr_module_branch_0_block_3_basic_bn_2/moving_mean", "shape": [24], "dtype": "float32"}, {"name": "stage4_stage_layer_hr_module_branch_0_block_3_basic_bn_2/moving_variance", "shape": [24], "dtype": "float32"}, {"name": "stage4_stage_layer_hr_module_branch_0_block_3_basic_conv3x3_1/depthwise_kernel", "shape": [3, 3, 24, 1], "dtype": "float32"}, {"name": "stage4_stage_layer_hr_module_branch_0_block_3_basic_conv3x3_1/pointwise_kernel", "shape": [1, 1, 24, 24], "dtype": "float32"}, {"name": "stage4_stage_layer_hr_module_branch_0_block_3_basic_conv3x3_1/bias", "shape": [24], "dtype": "float32"}, {"name": "stage4_stage_layer_hr_module_branch_0_block_3_basic_conv3x3_2/depthwise_kernel", "shape": [3, 3, 24, 1], "dtype": "float32"}, {"name": "stage4_stage_layer_hr_module_branch_0_block_3_basic_conv3x3_2/pointwise_kernel", "shape": [1, 1, 24, 24], "dtype": "float32"}, {"name": "stage4_stage_layer_hr_module_branch_0_block_3_basic_conv3x3_2/bias", "shape": [24], "dtype": "float32"}, {"name": "stage4_stage_layer_hr_module_branch_1_block_0_basic_bn_1/gamma", "shape": [48], "dtype": "float32"}, {"name": "stage4_stage_layer_hr_module_branch_1_block_0_basic_bn_1/beta", "shape": [48], "dtype": "float32"}, {"name": "stage4_stage_layer_hr_module_branch_1_block_0_basic_bn_1/moving_mean", "shape": [48], "dtype": "float32"}, {"name": "stage4_stage_layer_hr_module_branch_1_block_0_basic_bn_1/moving_variance", "shape": [48], "dtype": "float32"}, {"name": "stage4_stage_layer_hr_module_branch_1_block_0_basic_bn_2/gamma", "shape": [48], "dtype": "float32"}, {"name": "stage4_stage_layer_hr_module_branch_1_block_0_basic_bn_2/beta", "shape": [48], "dtype": "float32"}, {"name": "stage4_stage_layer_hr_module_branch_1_block_0_basic_bn_2/moving_mean", "shape": [48], "dtype": "float32"}, {"name": "stage4_stage_layer_hr_module_branch_1_block_0_basic_bn_2/moving_variance", "shape": [48], "dtype": "float32"}, {"name": "stage4_stage_layer_hr_module_branch_1_block_0_basic_conv3x3_1/depthwise_kernel", "shape": [3, 3, 48, 1], "dtype": "float32"}, {"name": "stage4_stage_layer_hr_module_branch_1_block_0_basic_conv3x3_1/pointwise_kernel", "shape": [1, 1, 48, 48], "dtype": "float32"}, {"name": "stage4_stage_layer_hr_module_branch_1_block_0_basic_conv3x3_1/bias", "shape": [48], "dtype": "float32"}, {"name": "stage4_stage_layer_hr_module_branch_1_block_0_basic_conv3x3_2/depthwise_kernel", "shape": [3, 3, 48, 1], "dtype": "float32"}, {"name": "stage4_stage_layer_hr_module_branch_1_block_0_basic_conv3x3_2/pointwise_kernel", "shape": [1, 1, 48, 48], "dtype": "float32"}, {"name": "stage4_stage_layer_hr_module_branch_1_block_0_basic_conv3x3_2/bias", "shape": [48], "dtype": "float32"}, {"name": "stage4_stage_layer_hr_module_branch_1_block_1_basic_bn_1/gamma", "shape": [48], "dtype": "float32"}, {"name": "stage4_stage_layer_hr_module_branch_1_block_1_basic_bn_1/beta", "shape": [48], "dtype": "float32"}, {"name": "stage4_stage_layer_hr_module_branch_1_block_1_basic_bn_1/moving_mean", "shape": [48], "dtype": "float32"}, {"name": "stage4_stage_layer_hr_module_branch_1_block_1_basic_bn_1/moving_variance", "shape": [48], "dtype": "float32"}, {"name": "stage4_stage_layer_hr_module_branch_1_block_1_basic_bn_2/gamma", "shape": [48], "dtype": "float32"}, {"name": "stage4_stage_layer_hr_module_branch_1_block_1_basic_bn_2/beta", "shape": [48], "dtype": "float32"}, {"name": "stage4_stage_layer_hr_module_branch_1_block_1_basic_bn_2/moving_mean", "shape": [48], "dtype": "float32"}, {"name": "stage4_stage_layer_hr_module_branch_1_block_1_basic_bn_2/moving_variance", "shape": [48], "dtype": "float32"}, {"name": "stage4_stage_layer_hr_module_branch_1_block_1_basic_conv3x3_1/depthwise_kernel", "shape": [3, 3, 48, 1], "dtype": "float32"}, {"name": "stage4_stage_layer_hr_module_branch_1_block_1_basic_conv3x3_1/pointwise_kernel", "shape": [1, 1, 48, 48], "dtype": "float32"}, {"name": "stage4_stage_layer_hr_module_branch_1_block_1_basic_conv3x3_1/bias", "shape": [48], "dtype": "float32"}, {"name": "stage4_stage_layer_hr_module_branch_1_block_1_basic_conv3x3_2/depthwise_kernel", "shape": [3, 3, 48, 1], "dtype": "float32"}, {"name": "stage4_stage_layer_hr_module_branch_1_block_1_basic_conv3x3_2/pointwise_kernel", "shape": [1, 1, 48, 48], "dtype": "float32"}, {"name": "stage4_stage_layer_hr_module_branch_1_block_1_basic_conv3x3_2/bias", "shape": [48], "dtype": "float32"}, {"name": "stage4_stage_layer_hr_module_branch_1_block_2_basic_bn_1/gamma", "shape": [48], "dtype": "float32"}, {"name": "stage4_stage_layer_hr_module_branch_1_block_2_basic_bn_1/beta", "shape": [48], "dtype": "float32"}, {"name": "stage4_stage_layer_hr_module_branch_1_block_2_basic_bn_1/moving_mean", "shape": [48], "dtype": "float32"}, {"name": "stage4_stage_layer_hr_module_branch_1_block_2_basic_bn_1/moving_variance", "shape": [48], "dtype": "float32"}, {"name": "stage4_stage_layer_hr_module_branch_1_block_2_basic_bn_2/gamma", "shape": [48], "dtype": "float32"}, {"name": "stage4_stage_layer_hr_module_branch_1_block_2_basic_bn_2/beta", "shape": [48], "dtype": "float32"}, {"name": "stage4_stage_layer_hr_module_branch_1_block_2_basic_bn_2/moving_mean", "shape": [48], "dtype": "float32"}, {"name": "stage4_stage_layer_hr_module_branch_1_block_2_basic_bn_2/moving_variance", "shape": [48], "dtype": "float32"}, {"name": "stage4_stage_layer_hr_module_branch_1_block_2_basic_conv3x3_1/depthwise_kernel", "shape": [3, 3, 48, 1], "dtype": "float32"}, {"name": "stage4_stage_layer_hr_module_branch_1_block_2_basic_conv3x3_1/pointwise_kernel", "shape": [1, 1, 48, 48], "dtype": "float32"}, {"name": "stage4_stage_layer_hr_module_branch_1_block_2_basic_conv3x3_1/bias", "shape": [48], "dtype": "float32"}, {"name": "stage4_stage_layer_hr_module_branch_1_block_2_basic_conv3x3_2/depthwise_kernel", "shape": [3, 3, 48, 1], "dtype": "float32"}, {"name": "stage4_stage_layer_hr_module_branch_1_block_2_basic_conv3x3_2/pointwise_kernel", "shape": [1, 1, 48, 48], "dtype": "float32"}, {"name": "stage4_stage_layer_hr_module_branch_1_block_2_basic_conv3x3_2/bias", "shape": [48], "dtype": "float32"}, {"name": "stage4_stage_layer_hr_module_branch_1_block_3_basic_bn_1/gamma", "shape": [48], "dtype": "float32"}, {"name": "stage4_stage_layer_hr_module_branch_1_block_3_basic_bn_1/beta", "shape": [48], "dtype": "float32"}, {"name": "stage4_stage_layer_hr_module_branch_1_block_3_basic_bn_1/moving_mean", "shape": [48], "dtype": "float32"}, {"name": "stage4_stage_layer_hr_module_branch_1_block_3_basic_bn_1/moving_variance", "shape": [48], "dtype": "float32"}, {"name": "stage4_stage_layer_hr_module_branch_1_block_3_basic_bn_2/gamma", "shape": [48], "dtype": "float32"}, {"name": "stage4_stage_layer_hr_module_branch_1_block_3_basic_bn_2/beta", "shape": [48], "dtype": "float32"}, {"name": "stage4_stage_layer_hr_module_branch_1_block_3_basic_bn_2/moving_mean", "shape": [48], "dtype": "float32"}, {"name": "stage4_stage_layer_hr_module_branch_1_block_3_basic_bn_2/moving_variance", "shape": [48], "dtype": "float32"}, {"name": "stage4_stage_layer_hr_module_branch_1_block_3_basic_conv3x3_1/depthwise_kernel", "shape": [3, 3, 48, 1], "dtype": "float32"}, {"name": "stage4_stage_layer_hr_module_branch_1_block_3_basic_conv3x3_1/pointwise_kernel", "shape": [1, 1, 48, 48], "dtype": "float32"}, {"name": "stage4_stage_layer_hr_module_branch_1_block_3_basic_conv3x3_1/bias", "shape": [48], "dtype": "float32"}, {"name": "stage4_stage_layer_hr_module_branch_1_block_3_basic_conv3x3_2/depthwise_kernel", "shape": [3, 3, 48, 1], "dtype": "float32"}, {"name": "stage4_stage_layer_hr_module_branch_1_block_3_basic_conv3x3_2/pointwise_kernel", "shape": [1, 1, 48, 48], "dtype": "float32"}, {"name": "stage4_stage_layer_hr_module_branch_1_block_3_basic_conv3x3_2/bias", "shape": [48], "dtype": "float32"}, {"name": "stage4_stage_layer_hr_module_branch_2_block_0_basic_bn_1/gamma", "shape": [96], "dtype": "float32"}, {"name": "stage4_stage_layer_hr_module_branch_2_block_0_basic_bn_1/beta", "shape": [96], "dtype": "float32"}, {"name": "stage4_stage_layer_hr_module_branch_2_block_0_basic_bn_1/moving_mean", "shape": [96], "dtype": "float32"}, {"name": "stage4_stage_layer_hr_module_branch_2_block_0_basic_bn_1/moving_variance", "shape": [96], "dtype": "float32"}, {"name": "stage4_stage_layer_hr_module_branch_2_block_0_basic_bn_2/gamma", "shape": [96], "dtype": "float32"}, {"name": "stage4_stage_layer_hr_module_branch_2_block_0_basic_bn_2/beta", "shape": [96], "dtype": "float32"}, {"name": "stage4_stage_layer_hr_module_branch_2_block_0_basic_bn_2/moving_mean", "shape": [96], "dtype": "float32"}, {"name": "stage4_stage_layer_hr_module_branch_2_block_0_basic_bn_2/moving_variance", "shape": [96], "dtype": "float32"}, {"name": "stage4_stage_layer_hr_module_branch_2_block_0_basic_conv3x3_1/depthwise_kernel", "shape": [3, 3, 96, 1], "dtype": "float32"}, {"name": "stage4_stage_layer_hr_module_branch_2_block_0_basic_conv3x3_1/pointwise_kernel", "shape": [1, 1, 96, 96], "dtype": "float32"}, {"name": "stage4_stage_layer_hr_module_branch_2_block_0_basic_conv3x3_1/bias", "shape": [96], "dtype": "float32"}, {"name": "stage4_stage_layer_hr_module_branch_2_block_0_basic_conv3x3_2/depthwise_kernel", "shape": [3, 3, 96, 1], "dtype": "float32"}, {"name": "stage4_stage_layer_hr_module_branch_2_block_0_basic_conv3x3_2/pointwise_kernel", "shape": [1, 1, 96, 96], "dtype": "float32"}, {"name": "stage4_stage_layer_hr_module_branch_2_block_0_basic_conv3x3_2/bias", "shape": [96], "dtype": "float32"}, {"name": "stage4_stage_layer_hr_module_branch_2_block_1_basic_bn_1/gamma", "shape": [96], "dtype": "float32"}, {"name": "stage4_stage_layer_hr_module_branch_2_block_1_basic_bn_1/beta", "shape": [96], "dtype": "float32"}, {"name": "stage4_stage_layer_hr_module_branch_2_block_1_basic_bn_1/moving_mean", "shape": [96], "dtype": "float32"}, {"name": "stage4_stage_layer_hr_module_branch_2_block_1_basic_bn_1/moving_variance", "shape": [96], "dtype": "float32"}, {"name": "stage4_stage_layer_hr_module_branch_2_block_1_basic_bn_2/gamma", "shape": [96], "dtype": "float32"}, {"name": "stage4_stage_layer_hr_module_branch_2_block_1_basic_bn_2/beta", "shape": [96], "dtype": "float32"}, {"name": "stage4_stage_layer_hr_module_branch_2_block_1_basic_bn_2/moving_mean", "shape": [96], "dtype": "float32"}, {"name": "stage4_stage_layer_hr_module_branch_2_block_1_basic_bn_2/moving_variance", "shape": [96], "dtype": "float32"}, {"name": "stage4_stage_layer_hr_module_branch_2_block_1_basic_conv3x3_1/depthwise_kernel", "shape": [3, 3, 96, 1], "dtype": "float32"}, {"name": "stage4_stage_layer_hr_module_branch_2_block_1_basic_conv3x3_1/pointwise_kernel", "shape": [1, 1, 96, 96], "dtype": "float32"}, {"name": "stage4_stage_layer_hr_module_branch_2_block_1_basic_conv3x3_1/bias", "shape": [96], "dtype": "float32"}, {"name": "stage4_stage_layer_hr_module_branch_2_block_1_basic_conv3x3_2/depthwise_kernel", "shape": [3, 3, 96, 1], "dtype": "float32"}, {"name": "stage4_stage_layer_hr_module_branch_2_block_1_basic_conv3x3_2/pointwise_kernel", "shape": [1, 1, 96, 96], "dtype": "float32"}, {"name": "stage4_stage_layer_hr_module_branch_2_block_1_basic_conv3x3_2/bias", "shape": [96], "dtype": "float32"}, {"name": "stage4_stage_layer_hr_module_branch_2_block_2_basic_bn_1/gamma", "shape": [96], "dtype": "float32"}, {"name": "stage4_stage_layer_hr_module_branch_2_block_2_basic_bn_1/beta", "shape": [96], "dtype": "float32"}, {"name": "stage4_stage_layer_hr_module_branch_2_block_2_basic_bn_1/moving_mean", "shape": [96], "dtype": "float32"}, {"name": "stage4_stage_layer_hr_module_branch_2_block_2_basic_bn_1/moving_variance", "shape": [96], "dtype": "float32"}, {"name": "stage4_stage_layer_hr_module_branch_2_block_2_basic_bn_2/gamma", "shape": [96], "dtype": "float32"}, {"name": "stage4_stage_layer_hr_module_branch_2_block_2_basic_bn_2/beta", "shape": [96], "dtype": "float32"}, {"name": "stage4_stage_layer_hr_module_branch_2_block_2_basic_bn_2/moving_mean", "shape": [96], "dtype": "float32"}, {"name": "stage4_stage_layer_hr_module_branch_2_block_2_basic_bn_2/moving_variance", "shape": [96], "dtype": "float32"}, {"name": "stage4_stage_layer_hr_module_branch_2_block_2_basic_conv3x3_1/depthwise_kernel", "shape": [3, 3, 96, 1], "dtype": "float32"}, {"name": "stage4_stage_layer_hr_module_branch_2_block_2_basic_conv3x3_1/pointwise_kernel", "shape": [1, 1, 96, 96], "dtype": "float32"}, {"name": "stage4_stage_layer_hr_module_branch_2_block_2_basic_conv3x3_1/bias", "shape": [96], "dtype": "float32"}, {"name": "stage4_stage_layer_hr_module_branch_2_block_2_basic_conv3x3_2/depthwise_kernel", "shape": [3, 3, 96, 1], "dtype": "float32"}, {"name": "stage4_stage_layer_hr_module_branch_2_block_2_basic_conv3x3_2/pointwise_kernel", "shape": [1, 1, 96, 96], "dtype": "float32"}, {"name": "stage4_stage_layer_hr_module_branch_2_block_2_basic_conv3x3_2/bias", "shape": [96], "dtype": "float32"}, {"name": "stage4_stage_layer_hr_module_branch_2_block_3_basic_bn_1/gamma", "shape": [96], "dtype": "float32"}, {"name": "stage4_stage_layer_hr_module_branch_2_block_3_basic_bn_1/beta", "shape": [96], "dtype": "float32"}, {"name": "stage4_stage_layer_hr_module_branch_2_block_3_basic_bn_1/moving_mean", "shape": [96], "dtype": "float32"}, {"name": "stage4_stage_layer_hr_module_branch_2_block_3_basic_bn_1/moving_variance", "shape": [96], "dtype": "float32"}, {"name": "stage4_stage_layer_hr_module_branch_2_block_3_basic_bn_2/gamma", "shape": [96], "dtype": "float32"}, {"name": "stage4_stage_layer_hr_module_branch_2_block_3_basic_bn_2/beta", "shape": [96], "dtype": "float32"}, {"name": "stage4_stage_layer_hr_module_branch_2_block_3_basic_bn_2/moving_mean", "shape": [96], "dtype": "float32"}, {"name": "stage4_stage_layer_hr_module_branch_2_block_3_basic_bn_2/moving_variance", "shape": [96], "dtype": "float32"}, {"name": "stage4_stage_layer_hr_module_branch_2_block_3_basic_conv3x3_1/depthwise_kernel", "shape": [3, 3, 96, 1], "dtype": "float32"}, {"name": "stage4_stage_layer_hr_module_branch_2_block_3_basic_conv3x3_1/pointwise_kernel", "shape": [1, 1, 96, 96], "dtype": "float32"}, {"name": "stage4_stage_layer_hr_module_branch_2_block_3_basic_conv3x3_1/bias", "shape": [96], "dtype": "float32"}, {"name": "stage4_stage_layer_hr_module_branch_2_block_3_basic_conv3x3_2/depthwise_kernel", "shape": [3, 3, 96, 1], "dtype": "float32"}, {"name": "stage4_stage_layer_hr_module_branch_2_block_3_basic_conv3x3_2/pointwise_kernel", "shape": [1, 1, 96, 96], "dtype": "float32"}, {"name": "stage4_stage_layer_hr_module_branch_2_block_3_basic_conv3x3_2/bias", "shape": [96], "dtype": "float32"}, {"name": "stage4_stage_layer_hr_module_branch_3_block_0_basic_bn_1/gamma", "shape": [192], "dtype": "float32"}, {"name": "stage4_stage_layer_hr_module_branch_3_block_0_basic_bn_1/beta", "shape": [192], "dtype": "float32"}, {"name": "stage4_stage_layer_hr_module_branch_3_block_0_basic_bn_1/moving_mean", "shape": [192], "dtype": "float32"}, {"name": "stage4_stage_layer_hr_module_branch_3_block_0_basic_bn_1/moving_variance", "shape": [192], "dtype": "float32"}, {"name": "stage4_stage_layer_hr_module_branch_3_block_0_basic_bn_2/gamma", "shape": [192], "dtype": "float32"}, {"name": "stage4_stage_layer_hr_module_branch_3_block_0_basic_bn_2/beta", "shape": [192], "dtype": "float32"}, {"name": "stage4_stage_layer_hr_module_branch_3_block_0_basic_bn_2/moving_mean", "shape": [192], "dtype": "float32"}, {"name": "stage4_stage_layer_hr_module_branch_3_block_0_basic_bn_2/moving_variance", "shape": [192], "dtype": "float32"}, {"name": "stage4_stage_layer_hr_module_branch_3_block_0_basic_conv3x3_1/depthwise_kernel", "shape": [3, 3, 192, 1], "dtype": "float32"}, {"name": "stage4_stage_layer_hr_module_branch_3_block_0_basic_conv3x3_1/pointwise_kernel", "shape": [1, 1, 192, 192], "dtype": "float32"}, {"name": "stage4_stage_layer_hr_module_branch_3_block_0_basic_conv3x3_1/bias", "shape": [192], "dtype": "float32"}, {"name": "stage4_stage_layer_hr_module_branch_3_block_0_basic_conv3x3_2/depthwise_kernel", "shape": [3, 3, 192, 1], "dtype": "float32"}, {"name": "stage4_stage_layer_hr_module_branch_3_block_0_basic_conv3x3_2/pointwise_kernel", "shape": [1, 1, 192, 192], "dtype": "float32"}, {"name": "stage4_stage_layer_hr_module_branch_3_block_0_basic_conv3x3_2/bias", "shape": [192], "dtype": "float32"}, {"name": "stage4_stage_layer_hr_module_branch_3_block_1_basic_bn_1/gamma", "shape": [192], "dtype": "float32"}, {"name": "stage4_stage_layer_hr_module_branch_3_block_1_basic_bn_1/beta", "shape": [192], "dtype": "float32"}, {"name": "stage4_stage_layer_hr_module_branch_3_block_1_basic_bn_1/moving_mean", "shape": [192], "dtype": "float32"}, {"name": "stage4_stage_layer_hr_module_branch_3_block_1_basic_bn_1/moving_variance", "shape": [192], "dtype": "float32"}, {"name": "stage4_stage_layer_hr_module_branch_3_block_1_basic_bn_2/gamma", "shape": [192], "dtype": "float32"}, {"name": "stage4_stage_layer_hr_module_branch_3_block_1_basic_bn_2/beta", "shape": [192], "dtype": "float32"}, {"name": "stage4_stage_layer_hr_module_branch_3_block_1_basic_bn_2/moving_mean", "shape": [192], "dtype": "float32"}, {"name": "stage4_stage_layer_hr_module_branch_3_block_1_basic_bn_2/moving_variance", "shape": [192], "dtype": "float32"}, {"name": "stage4_stage_layer_hr_module_branch_3_block_1_basic_conv3x3_1/depthwise_kernel", "shape": [3, 3, 192, 1], "dtype": "float32"}, {"name": "stage4_stage_layer_hr_module_branch_3_block_1_basic_conv3x3_1/pointwise_kernel", "shape": [1, 1, 192, 192], "dtype": "float32"}, {"name": "stage4_stage_layer_hr_module_branch_3_block_1_basic_conv3x3_1/bias", "shape": [192], "dtype": "float32"}, {"name": "stage4_stage_layer_hr_module_branch_3_block_1_basic_conv3x3_2/depthwise_kernel", "shape": [3, 3, 192, 1], "dtype": "float32"}, {"name": "stage4_stage_layer_hr_module_branch_3_block_1_basic_conv3x3_2/pointwise_kernel", "shape": [1, 1, 192, 192], "dtype": "float32"}, {"name": "stage4_stage_layer_hr_module_branch_3_block_1_basic_conv3x3_2/bias", "shape": [192], "dtype": "float32"}, {"name": "stage4_stage_layer_hr_module_branch_3_block_2_basic_bn_1/gamma", "shape": [192], "dtype": "float32"}, {"name": "stage4_stage_layer_hr_module_branch_3_block_2_basic_bn_1/beta", "shape": [192], "dtype": "float32"}, {"name": "stage4_stage_layer_hr_module_branch_3_block_2_basic_bn_1/moving_mean", "shape": [192], "dtype": "float32"}, {"name": "stage4_stage_layer_hr_module_branch_3_block_2_basic_bn_1/moving_variance", "shape": [192], "dtype": "float32"}, {"name": "stage4_stage_layer_hr_module_branch_3_block_2_basic_bn_2/gamma", "shape": [192], "dtype": "float32"}, {"name": "stage4_stage_layer_hr_module_branch_3_block_2_basic_bn_2/beta", "shape": [192], "dtype": "float32"}, {"name": "stage4_stage_layer_hr_module_branch_3_block_2_basic_bn_2/moving_mean", "shape": [192], "dtype": "float32"}, {"name": "stage4_stage_layer_hr_module_branch_3_block_2_basic_bn_2/moving_variance", "shape": [192], "dtype": "float32"}, {"name": "stage4_stage_layer_hr_module_branch_3_block_2_basic_conv3x3_1/depthwise_kernel", "shape": [3, 3, 192, 1], "dtype": "float32"}, {"name": "stage4_stage_layer_hr_module_branch_3_block_2_basic_conv3x3_1/pointwise_kernel", "shape": [1, 1, 192, 192], "dtype": "float32"}, {"name": "stage4_stage_layer_hr_module_branch_3_block_2_basic_conv3x3_1/bias", "shape": [192], "dtype": "float32"}, {"name": "stage4_stage_layer_hr_module_branch_3_block_2_basic_conv3x3_2/depthwise_kernel", "shape": [3, 3, 192, 1], "dtype": "float32"}, {"name": "stage4_stage_layer_hr_module_branch_3_block_2_basic_conv3x3_2/pointwise_kernel", "shape": [1, 1, 192, 192], "dtype": "float32"}, {"name": "stage4_stage_layer_hr_module_branch_3_block_2_basic_conv3x3_2/bias", "shape": [192], "dtype": "float32"}, {"name": "stage4_stage_layer_hr_module_branch_3_block_3_basic_bn_1/gamma", "shape": [192], "dtype": "float32"}, {"name": "stage4_stage_layer_hr_module_branch_3_block_3_basic_bn_1/beta", "shape": [192], "dtype": "float32"}, {"name": "stage4_stage_layer_hr_module_branch_3_block_3_basic_bn_1/moving_mean", "shape": [192], "dtype": "float32"}, {"name": "stage4_stage_layer_hr_module_branch_3_block_3_basic_bn_1/moving_variance", "shape": [192], "dtype": "float32"}, {"name": "stage4_stage_layer_hr_module_branch_3_block_3_basic_bn_2/gamma", "shape": [192], "dtype": "float32"}, {"name": "stage4_stage_layer_hr_module_branch_3_block_3_basic_bn_2/beta", "shape": [192], "dtype": "float32"}, {"name": "stage4_stage_layer_hr_module_branch_3_block_3_basic_bn_2/moving_mean", "shape": [192], "dtype": "float32"}, {"name": "stage4_stage_layer_hr_module_branch_3_block_3_basic_bn_2/moving_variance", "shape": [192], "dtype": "float32"}, {"name": "stage4_stage_layer_hr_module_branch_3_block_3_basic_conv3x3_1/depthwise_kernel", "shape": [3, 3, 192, 1], "dtype": "float32"}, {"name": "stage4_stage_layer_hr_module_branch_3_block_3_basic_conv3x3_1/pointwise_kernel", "shape": [1, 1, 192, 192], "dtype": "float32"}, {"name": "stage4_stage_layer_hr_module_branch_3_block_3_basic_conv3x3_1/bias", "shape": [192], "dtype": "float32"}, {"name": "stage4_stage_layer_hr_module_branch_3_block_3_basic_conv3x3_2/depthwise_kernel", "shape": [3, 3, 192, 1], "dtype": "float32"}, {"name": "stage4_stage_layer_hr_module_branch_3_block_3_basic_conv3x3_2/pointwise_kernel", "shape": [1, 1, 192, 192], "dtype": "float32"}, {"name": "stage4_stage_layer_hr_module_branch_3_block_3_basic_conv3x3_2/bias", "shape": [192], "dtype": "float32"}, {"name": "stage4_stage_layer_hr_module_fuse_conv1x1_1_0/kernel", "shape": [1, 1, 48, 24], "dtype": "float32"}, {"name": "stage4_stage_layer_hr_module_fuse_conv1x1_1_0/bias", "shape": [24], "dtype": "float32"}, {"name": "stage4_stage_layer_hr_module_fuse_conv1x1_2_0/kernel", "shape": [1, 1, 96, 24], "dtype": "float32"}, {"name": "stage4_stage_layer_hr_module_fuse_conv1x1_2_0/bias", "shape": [24], "dtype": "float32"}, {"name": "stage4_stage_layer_hr_module_fuse_conv1x1_3_0/kernel", "shape": [1, 1, 192, 24], "dtype": "float32"}, {"name": "stage4_stage_layer_hr_module_fuse_conv1x1_3_0/bias", "shape": [24], "dtype": "float32"}, {"name": "stage4_transition_layer_branch3_bn/gamma", "shape": [192], "dtype": "float32"}, {"name": "stage4_transition_layer_branch3_bn/beta", "shape": [192], "dtype": "float32"}, {"name": "stage4_transition_layer_branch3_bn/moving_mean", "shape": [192], "dtype": "float32"}, {"name": "stage4_transition_layer_branch3_bn/moving_variance", "shape": [192], "dtype": "float32"}, {"name": "stage4_transition_layer_branch3_conv3x3/kernel", "shape": [3, 3, 96, 192], "dtype": "float32"}, {"name": "stage4_transition_layer_branch3_conv3x3/bias", "shape": [192], "dtype": "float32"}]}]}