{"modelTopology": {"keras_version": "2.1.6", "backend": "tensorflow", "model_config": {"class_name": "Model", "config": {"name": "model_1", "layers": [{"name": "input_1", "class_name": "InputLayer", "config": {"batch_input_shape": [null, 512, 512, 3], "dtype": "float32", "sparse": false, "name": "input_1"}, "inbound_nodes": []}, {"name": "lambda1", "class_name": "Lambda", "config": {"name": "lambda1", "trainable": false, "function": ["4wEAAAAAAAAAAQAAAAIAAABTAAAAcwgAAAB8AGQBGwBTACkCTmcAAAAAAOBvQKkAKQHaAXpyAQAA\nAHIBAAAA+kJDOlxVc2Vyc1xjeGhyelxpbnRlbFxGYWNlLWRldGVjdGlvbi13aXRoLW1vYmlsZW5l\ndC1zc2RcbW5fbW9kZWwucHnaCDxsYW1iZGE+lgEAAPMAAAAA\n", null, null], "function_type": "lambda", "output_shape": [512, 512, 3], "output_shape_type": "raw", "arguments": {}}, "inbound_nodes": [[["input_1", 0, 0, {}]]]}, {"name": "lambda2", "class_name": "Lambda", "config": {"name": "lambda2", "trainable": false, "function": ["4wEAAAAAAAAAAQAAAAIAAABTAAAAcwgAAAB8AGQBGABTACkCTmcAAAAAAADgP6kAKQHaAXpyAQAA\nAHIBAAAA+kJDOlxVc2Vyc1xjeGhyelxpbnRlbFxGYWNlLWRldGVjdGlvbi13aXRoLW1vYmlsZW5l\ndC1zc2RcbW5fbW9kZWwucHnaCDxsYW1iZGE+mQEAAPMAAAAA\n", null, null], "function_type": "lambda", "output_shape": [512, 512, 3], "output_shape_type": "raw", "arguments": {}}, "inbound_nodes": [[["lambda1", 0, 0, {}]]]}, {"name": "lambda3", "class_name": "Lambda", "config": {"name": "lambda3", "trainable": false, "function": ["4wEAAAAAAAAAAQAAAAIAAABTAAAAcwgAAAB8AGQBFABTACkCTmcAAAAAAAAAQKkAKQHaAXpyAQAA\nAHIBAAAA+kJDOlxVc2Vyc1xjeGhyelxpbnRlbFxGYWNlLWRldGVjdGlvbi13aXRoLW1vYmlsZW5l\ndC1zc2RcbW5fbW9kZWwucHnaCDxsYW1iZGE+nAEAAPMAAAAA\n", null, null], "function_type": "lambda", "output_shape": [512, 512, 3], "output_shape_type": "raw", "arguments": {}}, "inbound_nodes": [[["lambda2", 0, 0, {}]]]}, {"name": "conv1", "class_name": "Conv2D", "config": {"name": "conv1", "trainable": false, "filters": 32, "kernel_size": [3, 3], "strides": [2, 2], "padding": "same", "data_format": "channels_last", "dilation_rate": [1, 1], "activation": "linear", "use_bias": false, "kernel_initializer": {"class_name": "VarianceScaling", "config": {"scale": 1.0, "mode": "fan_avg", "distribution": "uniform", "seed": null}}, "bias_initializer": {"class_name": "Zeros", "config": {}}, "kernel_regularizer": null, "bias_regularizer": null, "activity_regularizer": null, "kernel_constraint": null, "bias_constraint": null}, "inbound_nodes": [[["lambda3", 0, 0, {}]]]}, {"name": "conv1_bn", "class_name": "BatchNormalization", "config": {"name": "conv1_bn", "trainable": false, "axis": -1, "momentum": 0.99, "epsilon": 0.001, "center": true, "scale": true, "beta_initializer": {"class_name": "Zeros", "config": {}}, "gamma_initializer": {"class_name": "Ones", "config": {}}, "moving_mean_initializer": {"class_name": "Zeros", "config": {}}, "moving_variance_initializer": {"class_name": "Ones", "config": {}}, "beta_regularizer": null, "gamma_regularizer": null, "beta_constraint": null, "gamma_constraint": null}, "inbound_nodes": [[["conv1", 0, 0, {}]]]}, {"name": "conv1_relu", "class_name": "Activation", "config": {"name": "conv1_relu", "trainable": false, "activation": "relu6"}, "inbound_nodes": [[["conv1_bn", 0, 0, {}]]]}, {"name": "conv_dw_1", "class_name": "DepthwiseConv2D", "config": {"name": "conv_dw_1", "trainable": false, "kernel_size": [3, 3], "strides": [1, 1], "padding": "same", "data_format": "channels_last", "dilation_rate": [1, 1], "activation": "linear", "use_bias": false, "bias_initializer": {"class_name": "Zeros", "config": {}}, "bias_regularizer": null, "activity_regularizer": null, "bias_constraint": null, "depth_multiplier": 1, "depthwise_initializer": {"class_name": "VarianceScaling", "config": {"scale": 1.0, "mode": "fan_avg", "distribution": "uniform", "seed": null}}, "depthwise_regularizer": null, "depthwise_constraint": null}, "inbound_nodes": [[["conv1_relu", 0, 0, {}]]]}, {"name": "conv_dw_1_bn", "class_name": "BatchNormalization", "config": {"name": "conv_dw_1_bn", "trainable": false, "axis": -1, "momentum": 0.99, "epsilon": 0.001, "center": true, "scale": true, "beta_initializer": {"class_name": "Zeros", "config": {}}, "gamma_initializer": {"class_name": "Ones", "config": {}}, "moving_mean_initializer": {"class_name": "Zeros", "config": {}}, "moving_variance_initializer": {"class_name": "Ones", "config": {}}, "beta_regularizer": null, "gamma_regularizer": null, "beta_constraint": null, "gamma_constraint": null}, "inbound_nodes": [[["conv_dw_1", 0, 0, {}]]]}, {"name": "conv_dw_1_relu", "class_name": "Activation", "config": {"name": "conv_dw_1_relu", "trainable": false, "activation": "relu6"}, "inbound_nodes": [[["conv_dw_1_bn", 0, 0, {}]]]}, {"name": "conv_pw_1", "class_name": "Conv2D", "config": {"name": "conv_pw_1", "trainable": false, "filters": 64, "kernel_size": [1, 1], "strides": [1, 1], "padding": "same", "data_format": "channels_last", "dilation_rate": [1, 1], "activation": "linear", "use_bias": false, "kernel_initializer": {"class_name": "VarianceScaling", "config": {"scale": 1.0, "mode": "fan_avg", "distribution": "uniform", "seed": null}}, "bias_initializer": {"class_name": "Zeros", "config": {}}, "kernel_regularizer": null, "bias_regularizer": null, "activity_regularizer": null, "kernel_constraint": null, "bias_constraint": null}, "inbound_nodes": [[["conv_dw_1_relu", 0, 0, {}]]]}, {"name": "conv_pw_1_bn", "class_name": "BatchNormalization", "config": {"name": "conv_pw_1_bn", "trainable": false, "axis": -1, "momentum": 0.99, "epsilon": 0.001, "center": true, "scale": true, "beta_initializer": {"class_name": "Zeros", "config": {}}, "gamma_initializer": {"class_name": "Ones", "config": {}}, "moving_mean_initializer": {"class_name": "Zeros", "config": {}}, "moving_variance_initializer": {"class_name": "Ones", "config": {}}, "beta_regularizer": null, "gamma_regularizer": null, "beta_constraint": null, "gamma_constraint": null}, "inbound_nodes": [[["conv_pw_1", 0, 0, {}]]]}, {"name": "conv_pw_1_relu", "class_name": "Activation", "config": {"name": "conv_pw_1_relu", "trainable": false, "activation": "relu6"}, "inbound_nodes": [[["conv_pw_1_bn", 0, 0, {}]]]}, {"name": "conv_dw_2", "class_name": "DepthwiseConv2D", "config": {"name": "conv_dw_2", "trainable": false, "kernel_size": [3, 3], "strides": [2, 2], "padding": "same", "data_format": "channels_last", "dilation_rate": [1, 1], "activation": "linear", "use_bias": false, "bias_initializer": {"class_name": "Zeros", "config": {}}, "bias_regularizer": null, "activity_regularizer": null, "bias_constraint": null, "depth_multiplier": 1, "depthwise_initializer": {"class_name": "VarianceScaling", "config": {"scale": 1.0, "mode": "fan_avg", "distribution": "uniform", "seed": null}}, "depthwise_regularizer": null, "depthwise_constraint": null}, "inbound_nodes": [[["conv_pw_1_relu", 0, 0, {}]]]}, {"name": "conv_dw_2_bn", "class_name": "BatchNormalization", "config": {"name": "conv_dw_2_bn", "trainable": false, "axis": -1, "momentum": 0.99, "epsilon": 0.001, "center": true, "scale": true, "beta_initializer": {"class_name": "Zeros", "config": {}}, "gamma_initializer": {"class_name": "Ones", "config": {}}, "moving_mean_initializer": {"class_name": "Zeros", "config": {}}, "moving_variance_initializer": {"class_name": "Ones", "config": {}}, "beta_regularizer": null, "gamma_regularizer": null, "beta_constraint": null, "gamma_constraint": null}, "inbound_nodes": [[["conv_dw_2", 0, 0, {}]]]}, {"name": "conv_dw_2_relu", "class_name": "Activation", "config": {"name": "conv_dw_2_relu", "trainable": false, "activation": "relu6"}, "inbound_nodes": [[["conv_dw_2_bn", 0, 0, {}]]]}, {"name": "conv_pw_2", "class_name": "Conv2D", "config": {"name": "conv_pw_2", "trainable": false, "filters": 128, "kernel_size": [1, 1], "strides": [1, 1], "padding": "same", "data_format": "channels_last", "dilation_rate": [1, 1], "activation": "linear", "use_bias": false, "kernel_initializer": {"class_name": "VarianceScaling", "config": {"scale": 1.0, "mode": "fan_avg", "distribution": "uniform", "seed": null}}, "bias_initializer": {"class_name": "Zeros", "config": {}}, "kernel_regularizer": null, "bias_regularizer": null, "activity_regularizer": null, "kernel_constraint": null, "bias_constraint": null}, "inbound_nodes": [[["conv_dw_2_relu", 0, 0, {}]]]}, {"name": "conv_pw_2_bn", "class_name": "BatchNormalization", "config": {"name": "conv_pw_2_bn", "trainable": false, "axis": -1, "momentum": 0.99, "epsilon": 0.001, "center": true, "scale": true, "beta_initializer": {"class_name": "Zeros", "config": {}}, "gamma_initializer": {"class_name": "Ones", "config": {}}, "moving_mean_initializer": {"class_name": "Zeros", "config": {}}, "moving_variance_initializer": {"class_name": "Ones", "config": {}}, "beta_regularizer": null, "gamma_regularizer": null, "beta_constraint": null, "gamma_constraint": null}, "inbound_nodes": [[["conv_pw_2", 0, 0, {}]]]}, {"name": "conv_pw_2_relu", "class_name": "Activation", "config": {"name": "conv_pw_2_relu", "trainable": false, "activation": "relu6"}, "inbound_nodes": [[["conv_pw_2_bn", 0, 0, {}]]]}, {"name": "conv_dw_3", "class_name": "DepthwiseConv2D", "config": {"name": "conv_dw_3", "trainable": false, "kernel_size": [3, 3], "strides": [1, 1], "padding": "same", "data_format": "channels_last", "dilation_rate": [1, 1], "activation": "linear", "use_bias": false, "bias_initializer": {"class_name": "Zeros", "config": {}}, "bias_regularizer": null, "activity_regularizer": null, "bias_constraint": null, "depth_multiplier": 1, "depthwise_initializer": {"class_name": "VarianceScaling", "config": {"scale": 1.0, "mode": "fan_avg", "distribution": "uniform", "seed": null}}, "depthwise_regularizer": null, "depthwise_constraint": null}, "inbound_nodes": [[["conv_pw_2_relu", 0, 0, {}]]]}, {"name": "conv_dw_3_bn", "class_name": "BatchNormalization", "config": {"name": "conv_dw_3_bn", "trainable": false, "axis": -1, "momentum": 0.99, "epsilon": 0.001, "center": true, "scale": true, "beta_initializer": {"class_name": "Zeros", "config": {}}, "gamma_initializer": {"class_name": "Ones", "config": {}}, "moving_mean_initializer": {"class_name": "Zeros", "config": {}}, "moving_variance_initializer": {"class_name": "Ones", "config": {}}, "beta_regularizer": null, "gamma_regularizer": null, "beta_constraint": null, "gamma_constraint": null}, "inbound_nodes": [[["conv_dw_3", 0, 0, {}]]]}, {"name": "conv_dw_3_relu", "class_name": "Activation", "config": {"name": "conv_dw_3_relu", "trainable": false, "activation": "relu6"}, "inbound_nodes": [[["conv_dw_3_bn", 0, 0, {}]]]}, {"name": "conv_pw_3", "class_name": "Conv2D", "config": {"name": "conv_pw_3", "trainable": false, "filters": 128, "kernel_size": [1, 1], "strides": [1, 1], "padding": "same", "data_format": "channels_last", "dilation_rate": [1, 1], "activation": "linear", "use_bias": false, "kernel_initializer": {"class_name": "VarianceScaling", "config": {"scale": 1.0, "mode": "fan_avg", "distribution": "uniform", "seed": null}}, "bias_initializer": {"class_name": "Zeros", "config": {}}, "kernel_regularizer": null, "bias_regularizer": null, "activity_regularizer": null, "kernel_constraint": null, "bias_constraint": null}, "inbound_nodes": [[["conv_dw_3_relu", 0, 0, {}]]]}, {"name": "conv_pw_3_bn", "class_name": "BatchNormalization", "config": {"name": "conv_pw_3_bn", "trainable": false, "axis": -1, "momentum": 0.99, "epsilon": 0.001, "center": true, "scale": true, "beta_initializer": {"class_name": "Zeros", "config": {}}, "gamma_initializer": {"class_name": "Ones", "config": {}}, "moving_mean_initializer": {"class_name": "Zeros", "config": {}}, "moving_variance_initializer": {"class_name": "Ones", "config": {}}, "beta_regularizer": null, "gamma_regularizer": null, "beta_constraint": null, "gamma_constraint": null}, "inbound_nodes": [[["conv_pw_3", 0, 0, {}]]]}, {"name": "conv_pw_3_relu", "class_name": "Activation", "config": {"name": "conv_pw_3_relu", "trainable": false, "activation": "relu6"}, "inbound_nodes": [[["conv_pw_3_bn", 0, 0, {}]]]}, {"name": "conv_dw_4", "class_name": "DepthwiseConv2D", "config": {"name": "conv_dw_4", "trainable": false, "kernel_size": [3, 3], "strides": [2, 2], "padding": "same", "data_format": "channels_last", "dilation_rate": [1, 1], "activation": "linear", "use_bias": false, "bias_initializer": {"class_name": "Zeros", "config": {}}, "bias_regularizer": null, "activity_regularizer": null, "bias_constraint": null, "depth_multiplier": 1, "depthwise_initializer": {"class_name": "VarianceScaling", "config": {"scale": 1.0, "mode": "fan_avg", "distribution": "uniform", "seed": null}}, "depthwise_regularizer": null, "depthwise_constraint": null}, "inbound_nodes": [[["conv_pw_3_relu", 0, 0, {}]]]}, {"name": "conv_dw_4_bn", "class_name": "BatchNormalization", "config": {"name": "conv_dw_4_bn", "trainable": false, "axis": -1, "momentum": 0.99, "epsilon": 0.001, "center": true, "scale": true, "beta_initializer": {"class_name": "Zeros", "config": {}}, "gamma_initializer": {"class_name": "Ones", "config": {}}, "moving_mean_initializer": {"class_name": "Zeros", "config": {}}, "moving_variance_initializer": {"class_name": "Ones", "config": {}}, "beta_regularizer": null, "gamma_regularizer": null, "beta_constraint": null, "gamma_constraint": null}, "inbound_nodes": [[["conv_dw_4", 0, 0, {}]]]}, {"name": "conv_dw_4_relu", "class_name": "Activation", "config": {"name": "conv_dw_4_relu", "trainable": false, "activation": "relu6"}, "inbound_nodes": [[["conv_dw_4_bn", 0, 0, {}]]]}, {"name": "conv_pw_4", "class_name": "Conv2D", "config": {"name": "conv_pw_4", "trainable": false, "filters": 256, "kernel_size": [1, 1], "strides": [1, 1], "padding": "same", "data_format": "channels_last", "dilation_rate": [1, 1], "activation": "linear", "use_bias": false, "kernel_initializer": {"class_name": "VarianceScaling", "config": {"scale": 1.0, "mode": "fan_avg", "distribution": "uniform", "seed": null}}, "bias_initializer": {"class_name": "Zeros", "config": {}}, "kernel_regularizer": null, "bias_regularizer": null, "activity_regularizer": null, "kernel_constraint": null, "bias_constraint": null}, "inbound_nodes": [[["conv_dw_4_relu", 0, 0, {}]]]}, {"name": "conv_pw_4_bn", "class_name": "BatchNormalization", "config": {"name": "conv_pw_4_bn", "trainable": false, "axis": -1, "momentum": 0.99, "epsilon": 0.001, "center": true, "scale": true, "beta_initializer": {"class_name": "Zeros", "config": {}}, "gamma_initializer": {"class_name": "Ones", "config": {}}, "moving_mean_initializer": {"class_name": "Zeros", "config": {}}, "moving_variance_initializer": {"class_name": "Ones", "config": {}}, "beta_regularizer": null, "gamma_regularizer": null, "beta_constraint": null, "gamma_constraint": null}, "inbound_nodes": [[["conv_pw_4", 0, 0, {}]]]}, {"name": "conv_pw_4_relu", "class_name": "Activation", "config": {"name": "conv_pw_4_relu", "trainable": false, "activation": "relu6"}, "inbound_nodes": [[["conv_pw_4_bn", 0, 0, {}]]]}, {"name": "conv_dw_5", "class_name": "DepthwiseConv2D", "config": {"name": "conv_dw_5", "trainable": false, "kernel_size": [3, 3], "strides": [1, 1], "padding": "same", "data_format": "channels_last", "dilation_rate": [1, 1], "activation": "linear", "use_bias": false, "bias_initializer": {"class_name": "Zeros", "config": {}}, "bias_regularizer": null, "activity_regularizer": null, "bias_constraint": null, "depth_multiplier": 1, "depthwise_initializer": {"class_name": "VarianceScaling", "config": {"scale": 1.0, "mode": "fan_avg", "distribution": "uniform", "seed": null}}, "depthwise_regularizer": null, "depthwise_constraint": null}, "inbound_nodes": [[["conv_pw_4_relu", 0, 0, {}]]]}, {"name": "conv_dw_5_bn", "class_name": "BatchNormalization", "config": {"name": "conv_dw_5_bn", "trainable": false, "axis": -1, "momentum": 0.99, "epsilon": 0.001, "center": true, "scale": true, "beta_initializer": {"class_name": "Zeros", "config": {}}, "gamma_initializer": {"class_name": "Ones", "config": {}}, "moving_mean_initializer": {"class_name": "Zeros", "config": {}}, "moving_variance_initializer": {"class_name": "Ones", "config": {}}, "beta_regularizer": null, "gamma_regularizer": null, "beta_constraint": null, "gamma_constraint": null}, "inbound_nodes": [[["conv_dw_5", 0, 0, {}]]]}, {"name": "conv_dw_5_relu", "class_name": "Activation", "config": {"name": "conv_dw_5_relu", "trainable": false, "activation": "relu6"}, "inbound_nodes": [[["conv_dw_5_bn", 0, 0, {}]]]}, {"name": "conv_pw_5", "class_name": "Conv2D", "config": {"name": "conv_pw_5", "trainable": false, "filters": 256, "kernel_size": [1, 1], "strides": [1, 1], "padding": "same", "data_format": "channels_last", "dilation_rate": [1, 1], "activation": "linear", "use_bias": false, "kernel_initializer": {"class_name": "VarianceScaling", "config": {"scale": 1.0, "mode": "fan_avg", "distribution": "uniform", "seed": null}}, "bias_initializer": {"class_name": "Zeros", "config": {}}, "kernel_regularizer": null, "bias_regularizer": null, "activity_regularizer": null, "kernel_constraint": null, "bias_constraint": null}, "inbound_nodes": [[["conv_dw_5_relu", 0, 0, {}]]]}, {"name": "conv_pw_5_bn", "class_name": "BatchNormalization", "config": {"name": "conv_pw_5_bn", "trainable": false, "axis": -1, "momentum": 0.99, "epsilon": 0.001, "center": true, "scale": true, "beta_initializer": {"class_name": "Zeros", "config": {}}, "gamma_initializer": {"class_name": "Ones", "config": {}}, "moving_mean_initializer": {"class_name": "Zeros", "config": {}}, "moving_variance_initializer": {"class_name": "Ones", "config": {}}, "beta_regularizer": null, "gamma_regularizer": null, "beta_constraint": null, "gamma_constraint": null}, "inbound_nodes": [[["conv_pw_5", 0, 0, {}]]]}, {"name": "conv_pw_5_relu", "class_name": "Activation", "config": {"name": "conv_pw_5_relu", "trainable": false, "activation": "relu6"}, "inbound_nodes": [[["conv_pw_5_bn", 0, 0, {}]]]}, {"name": "conv_dw_6", "class_name": "DepthwiseConv2D", "config": {"name": "conv_dw_6", "trainable": false, "kernel_size": [3, 3], "strides": [2, 2], "padding": "same", "data_format": "channels_last", "dilation_rate": [1, 1], "activation": "linear", "use_bias": false, "bias_initializer": {"class_name": "Zeros", "config": {}}, "bias_regularizer": null, "activity_regularizer": null, "bias_constraint": null, "depth_multiplier": 1, "depthwise_initializer": {"class_name": "VarianceScaling", "config": {"scale": 1.0, "mode": "fan_avg", "distribution": "uniform", "seed": null}}, "depthwise_regularizer": null, "depthwise_constraint": null}, "inbound_nodes": [[["conv_pw_5_relu", 0, 0, {}]]]}, {"name": "conv_dw_6_bn", "class_name": "BatchNormalization", "config": {"name": "conv_dw_6_bn", "trainable": false, "axis": -1, "momentum": 0.99, "epsilon": 0.001, "center": true, "scale": true, "beta_initializer": {"class_name": "Zeros", "config": {}}, "gamma_initializer": {"class_name": "Ones", "config": {}}, "moving_mean_initializer": {"class_name": "Zeros", "config": {}}, "moving_variance_initializer": {"class_name": "Ones", "config": {}}, "beta_regularizer": null, "gamma_regularizer": null, "beta_constraint": null, "gamma_constraint": null}, "inbound_nodes": [[["conv_dw_6", 0, 0, {}]]]}, {"name": "conv_dw_6_relu", "class_name": "Activation", "config": {"name": "conv_dw_6_relu", "trainable": false, "activation": "relu6"}, "inbound_nodes": [[["conv_dw_6_bn", 0, 0, {}]]]}, {"name": "conv_pw_6", "class_name": "Conv2D", "config": {"name": "conv_pw_6", "trainable": false, "filters": 512, "kernel_size": [1, 1], "strides": [1, 1], "padding": "same", "data_format": "channels_last", "dilation_rate": [1, 1], "activation": "linear", "use_bias": false, "kernel_initializer": {"class_name": "VarianceScaling", "config": {"scale": 1.0, "mode": "fan_avg", "distribution": "uniform", "seed": null}}, "bias_initializer": {"class_name": "Zeros", "config": {}}, "kernel_regularizer": null, "bias_regularizer": null, "activity_regularizer": null, "kernel_constraint": null, "bias_constraint": null}, "inbound_nodes": [[["conv_dw_6_relu", 0, 0, {}]]]}, {"name": "conv_pw_6_bn", "class_name": "BatchNormalization", "config": {"name": "conv_pw_6_bn", "trainable": false, "axis": -1, "momentum": 0.99, "epsilon": 0.001, "center": true, "scale": true, "beta_initializer": {"class_name": "Zeros", "config": {}}, "gamma_initializer": {"class_name": "Ones", "config": {}}, "moving_mean_initializer": {"class_name": "Zeros", "config": {}}, "moving_variance_initializer": {"class_name": "Ones", "config": {}}, "beta_regularizer": null, "gamma_regularizer": null, "beta_constraint": null, "gamma_constraint": null}, "inbound_nodes": [[["conv_pw_6", 0, 0, {}]]]}, {"name": "conv_pw_6_relu", "class_name": "Activation", "config": {"name": "conv_pw_6_relu", "trainable": false, "activation": "relu6"}, "inbound_nodes": [[["conv_pw_6_bn", 0, 0, {}]]]}, {"name": "conv_dw_7", "class_name": "DepthwiseConv2D", "config": {"name": "conv_dw_7", "trainable": false, "kernel_size": [3, 3], "strides": [1, 1], "padding": "same", "data_format": "channels_last", "dilation_rate": [1, 1], "activation": "linear", "use_bias": false, "bias_initializer": {"class_name": "Zeros", "config": {}}, "bias_regularizer": null, "activity_regularizer": null, "bias_constraint": null, "depth_multiplier": 1, "depthwise_initializer": {"class_name": "VarianceScaling", "config": {"scale": 1.0, "mode": "fan_avg", "distribution": "uniform", "seed": null}}, "depthwise_regularizer": null, "depthwise_constraint": null}, "inbound_nodes": [[["conv_pw_6_relu", 0, 0, {}]]]}, {"name": "conv_dw_7_bn", "class_name": "BatchNormalization", "config": {"name": "conv_dw_7_bn", "trainable": false, "axis": -1, "momentum": 0.99, "epsilon": 0.001, "center": true, "scale": true, "beta_initializer": {"class_name": "Zeros", "config": {}}, "gamma_initializer": {"class_name": "Ones", "config": {}}, "moving_mean_initializer": {"class_name": "Zeros", "config": {}}, "moving_variance_initializer": {"class_name": "Ones", "config": {}}, "beta_regularizer": null, "gamma_regularizer": null, "beta_constraint": null, "gamma_constraint": null}, "inbound_nodes": [[["conv_dw_7", 0, 0, {}]]]}, {"name": "conv_dw_7_relu", "class_name": "Activation", "config": {"name": "conv_dw_7_relu", "trainable": false, "activation": "relu6"}, "inbound_nodes": [[["conv_dw_7_bn", 0, 0, {}]]]}, {"name": "conv_pw_7", "class_name": "Conv2D", "config": {"name": "conv_pw_7", "trainable": false, "filters": 512, "kernel_size": [1, 1], "strides": [1, 1], "padding": "same", "data_format": "channels_last", "dilation_rate": [1, 1], "activation": "linear", "use_bias": false, "kernel_initializer": {"class_name": "VarianceScaling", "config": {"scale": 1.0, "mode": "fan_avg", "distribution": "uniform", "seed": null}}, "bias_initializer": {"class_name": "Zeros", "config": {}}, "kernel_regularizer": null, "bias_regularizer": null, "activity_regularizer": null, "kernel_constraint": null, "bias_constraint": null}, "inbound_nodes": [[["conv_dw_7_relu", 0, 0, {}]]]}, {"name": "conv_pw_7_bn", "class_name": "BatchNormalization", "config": {"name": "conv_pw_7_bn", "trainable": false, "axis": -1, "momentum": 0.99, "epsilon": 0.001, "center": true, "scale": true, "beta_initializer": {"class_name": "Zeros", "config": {}}, "gamma_initializer": {"class_name": "Ones", "config": {}}, "moving_mean_initializer": {"class_name": "Zeros", "config": {}}, "moving_variance_initializer": {"class_name": "Ones", "config": {}}, "beta_regularizer": null, "gamma_regularizer": null, "beta_constraint": null, "gamma_constraint": null}, "inbound_nodes": [[["conv_pw_7", 0, 0, {}]]]}, {"name": "conv_pw_7_relu", "class_name": "Activation", "config": {"name": "conv_pw_7_relu", "trainable": false, "activation": "relu6"}, "inbound_nodes": [[["conv_pw_7_bn", 0, 0, {}]]]}, {"name": "conv_dw_8", "class_name": "DepthwiseConv2D", "config": {"name": "conv_dw_8", "trainable": false, "kernel_size": [3, 3], "strides": [1, 1], "padding": "same", "data_format": "channels_last", "dilation_rate": [1, 1], "activation": "linear", "use_bias": false, "bias_initializer": {"class_name": "Zeros", "config": {}}, "bias_regularizer": null, "activity_regularizer": null, "bias_constraint": null, "depth_multiplier": 1, "depthwise_initializer": {"class_name": "VarianceScaling", "config": {"scale": 1.0, "mode": "fan_avg", "distribution": "uniform", "seed": null}}, "depthwise_regularizer": null, "depthwise_constraint": null}, "inbound_nodes": [[["conv_pw_7_relu", 0, 0, {}]]]}, {"name": "conv_dw_8_bn", "class_name": "BatchNormalization", "config": {"name": "conv_dw_8_bn", "trainable": false, "axis": -1, "momentum": 0.99, "epsilon": 0.001, "center": true, "scale": true, "beta_initializer": {"class_name": "Zeros", "config": {}}, "gamma_initializer": {"class_name": "Ones", "config": {}}, "moving_mean_initializer": {"class_name": "Zeros", "config": {}}, "moving_variance_initializer": {"class_name": "Ones", "config": {}}, "beta_regularizer": null, "gamma_regularizer": null, "beta_constraint": null, "gamma_constraint": null}, "inbound_nodes": [[["conv_dw_8", 0, 0, {}]]]}, {"name": "conv_dw_8_relu", "class_name": "Activation", "config": {"name": "conv_dw_8_relu", "trainable": false, "activation": "relu6"}, "inbound_nodes": [[["conv_dw_8_bn", 0, 0, {}]]]}, {"name": "conv_pw_8", "class_name": "Conv2D", "config": {"name": "conv_pw_8", "trainable": false, "filters": 512, "kernel_size": [1, 1], "strides": [1, 1], "padding": "same", "data_format": "channels_last", "dilation_rate": [1, 1], "activation": "linear", "use_bias": false, "kernel_initializer": {"class_name": "VarianceScaling", "config": {"scale": 1.0, "mode": "fan_avg", "distribution": "uniform", "seed": null}}, "bias_initializer": {"class_name": "Zeros", "config": {}}, "kernel_regularizer": null, "bias_regularizer": null, "activity_regularizer": null, "kernel_constraint": null, "bias_constraint": null}, "inbound_nodes": [[["conv_dw_8_relu", 0, 0, {}]]]}, {"name": "conv_pw_8_bn", "class_name": "BatchNormalization", "config": {"name": "conv_pw_8_bn", "trainable": false, "axis": -1, "momentum": 0.99, "epsilon": 0.001, "center": true, "scale": true, "beta_initializer": {"class_name": "Zeros", "config": {}}, "gamma_initializer": {"class_name": "Ones", "config": {}}, "moving_mean_initializer": {"class_name": "Zeros", "config": {}}, "moving_variance_initializer": {"class_name": "Ones", "config": {}}, "beta_regularizer": null, "gamma_regularizer": null, "beta_constraint": null, "gamma_constraint": null}, "inbound_nodes": [[["conv_pw_8", 0, 0, {}]]]}, {"name": "conv_pw_8_relu", "class_name": "Activation", "config": {"name": "conv_pw_8_relu", "trainable": false, "activation": "relu6"}, "inbound_nodes": [[["conv_pw_8_bn", 0, 0, {}]]]}, {"name": "conv_dw_9", "class_name": "DepthwiseConv2D", "config": {"name": "conv_dw_9", "trainable": false, "kernel_size": [3, 3], "strides": [1, 1], "padding": "same", "data_format": "channels_last", "dilation_rate": [1, 1], "activation": "linear", "use_bias": false, "bias_initializer": {"class_name": "Zeros", "config": {}}, "bias_regularizer": null, "activity_regularizer": null, "bias_constraint": null, "depth_multiplier": 1, "depthwise_initializer": {"class_name": "VarianceScaling", "config": {"scale": 1.0, "mode": "fan_avg", "distribution": "uniform", "seed": null}}, "depthwise_regularizer": null, "depthwise_constraint": null}, "inbound_nodes": [[["conv_pw_8_relu", 0, 0, {}]]]}, {"name": "conv_dw_9_bn", "class_name": "BatchNormalization", "config": {"name": "conv_dw_9_bn", "trainable": false, "axis": -1, "momentum": 0.99, "epsilon": 0.001, "center": true, "scale": true, "beta_initializer": {"class_name": "Zeros", "config": {}}, "gamma_initializer": {"class_name": "Ones", "config": {}}, "moving_mean_initializer": {"class_name": "Zeros", "config": {}}, "moving_variance_initializer": {"class_name": "Ones", "config": {}}, "beta_regularizer": null, "gamma_regularizer": null, "beta_constraint": null, "gamma_constraint": null}, "inbound_nodes": [[["conv_dw_9", 0, 0, {}]]]}, {"name": "conv_dw_9_relu", "class_name": "Activation", "config": {"name": "conv_dw_9_relu", "trainable": false, "activation": "relu6"}, "inbound_nodes": [[["conv_dw_9_bn", 0, 0, {}]]]}, {"name": "conv_pw_9", "class_name": "Conv2D", "config": {"name": "conv_pw_9", "trainable": false, "filters": 512, "kernel_size": [1, 1], "strides": [1, 1], "padding": "same", "data_format": "channels_last", "dilation_rate": [1, 1], "activation": "linear", "use_bias": false, "kernel_initializer": {"class_name": "VarianceScaling", "config": {"scale": 1.0, "mode": "fan_avg", "distribution": "uniform", "seed": null}}, "bias_initializer": {"class_name": "Zeros", "config": {}}, "kernel_regularizer": null, "bias_regularizer": null, "activity_regularizer": null, "kernel_constraint": null, "bias_constraint": null}, "inbound_nodes": [[["conv_dw_9_relu", 0, 0, {}]]]}, {"name": "conv_pw_9_bn", "class_name": "BatchNormalization", "config": {"name": "conv_pw_9_bn", "trainable": false, "axis": -1, "momentum": 0.99, "epsilon": 0.001, "center": true, "scale": true, "beta_initializer": {"class_name": "Zeros", "config": {}}, "gamma_initializer": {"class_name": "Ones", "config": {}}, "moving_mean_initializer": {"class_name": "Zeros", "config": {}}, "moving_variance_initializer": {"class_name": "Ones", "config": {}}, "beta_regularizer": null, "gamma_regularizer": null, "beta_constraint": null, "gamma_constraint": null}, "inbound_nodes": [[["conv_pw_9", 0, 0, {}]]]}, {"name": "conv_pw_9_relu", "class_name": "Activation", "config": {"name": "conv_pw_9_relu", "trainable": false, "activation": "relu6"}, "inbound_nodes": [[["conv_pw_9_bn", 0, 0, {}]]]}, {"name": "conv_dw_10", "class_name": "DepthwiseConv2D", "config": {"name": "conv_dw_10", "trainable": false, "kernel_size": [3, 3], "strides": [1, 1], "padding": "same", "data_format": "channels_last", "dilation_rate": [1, 1], "activation": "linear", "use_bias": false, "bias_initializer": {"class_name": "Zeros", "config": {}}, "bias_regularizer": null, "activity_regularizer": null, "bias_constraint": null, "depth_multiplier": 1, "depthwise_initializer": {"class_name": "VarianceScaling", "config": {"scale": 1.0, "mode": "fan_avg", "distribution": "uniform", "seed": null}}, "depthwise_regularizer": null, "depthwise_constraint": null}, "inbound_nodes": [[["conv_pw_9_relu", 0, 0, {}]]]}, {"name": "conv_dw_10_bn", "class_name": "BatchNormalization", "config": {"name": "conv_dw_10_bn", "trainable": false, "axis": -1, "momentum": 0.99, "epsilon": 0.001, "center": true, "scale": true, "beta_initializer": {"class_name": "Zeros", "config": {}}, "gamma_initializer": {"class_name": "Ones", "config": {}}, "moving_mean_initializer": {"class_name": "Zeros", "config": {}}, "moving_variance_initializer": {"class_name": "Ones", "config": {}}, "beta_regularizer": null, "gamma_regularizer": null, "beta_constraint": null, "gamma_constraint": null}, "inbound_nodes": [[["conv_dw_10", 0, 0, {}]]]}, {"name": "conv_dw_10_relu", "class_name": "Activation", "config": {"name": "conv_dw_10_relu", "trainable": false, "activation": "relu6"}, "inbound_nodes": [[["conv_dw_10_bn", 0, 0, {}]]]}, {"name": "conv_pw_10", "class_name": "Conv2D", "config": {"name": "conv_pw_10", "trainable": false, "filters": 512, "kernel_size": [1, 1], "strides": [1, 1], "padding": "same", "data_format": "channels_last", "dilation_rate": [1, 1], "activation": "linear", "use_bias": false, "kernel_initializer": {"class_name": "VarianceScaling", "config": {"scale": 1.0, "mode": "fan_avg", "distribution": "uniform", "seed": null}}, "bias_initializer": {"class_name": "Zeros", "config": {}}, "kernel_regularizer": null, "bias_regularizer": null, "activity_regularizer": null, "kernel_constraint": null, "bias_constraint": null}, "inbound_nodes": [[["conv_dw_10_relu", 0, 0, {}]]]}, {"name": "conv_pw_10_bn", "class_name": "BatchNormalization", "config": {"name": "conv_pw_10_bn", "trainable": false, "axis": -1, "momentum": 0.99, "epsilon": 0.001, "center": true, "scale": true, "beta_initializer": {"class_name": "Zeros", "config": {}}, "gamma_initializer": {"class_name": "Ones", "config": {}}, "moving_mean_initializer": {"class_name": "Zeros", "config": {}}, "moving_variance_initializer": {"class_name": "Ones", "config": {}}, "beta_regularizer": null, "gamma_regularizer": null, "beta_constraint": null, "gamma_constraint": null}, "inbound_nodes": [[["conv_pw_10", 0, 0, {}]]]}, {"name": "conv_pw_10_relu", "class_name": "Activation", "config": {"name": "conv_pw_10_relu", "trainable": false, "activation": "relu6"}, "inbound_nodes": [[["conv_pw_10_bn", 0, 0, {}]]]}, {"name": "conv_dw_11", "class_name": "DepthwiseConv2D", "config": {"name": "conv_dw_11", "trainable": false, "kernel_size": [3, 3], "strides": [1, 1], "padding": "same", "data_format": "channels_last", "dilation_rate": [1, 1], "activation": "linear", "use_bias": false, "bias_initializer": {"class_name": "Zeros", "config": {}}, "bias_regularizer": null, "activity_regularizer": null, "bias_constraint": null, "depth_multiplier": 1, "depthwise_initializer": {"class_name": "VarianceScaling", "config": {"scale": 1.0, "mode": "fan_avg", "distribution": "uniform", "seed": null}}, "depthwise_regularizer": null, "depthwise_constraint": null}, "inbound_nodes": [[["conv_pw_10_relu", 0, 0, {}]]]}, {"name": "conv_dw_11_bn", "class_name": "BatchNormalization", "config": {"name": "conv_dw_11_bn", "trainable": false, "axis": -1, "momentum": 0.99, "epsilon": 0.001, "center": true, "scale": true, "beta_initializer": {"class_name": "Zeros", "config": {}}, "gamma_initializer": {"class_name": "Ones", "config": {}}, "moving_mean_initializer": {"class_name": "Zeros", "config": {}}, "moving_variance_initializer": {"class_name": "Ones", "config": {}}, "beta_regularizer": null, "gamma_regularizer": null, "beta_constraint": null, "gamma_constraint": null}, "inbound_nodes": [[["conv_dw_11", 0, 0, {}]]]}, {"name": "conv_dw_11_relu", "class_name": "Activation", "config": {"name": "conv_dw_11_relu", "trainable": false, "activation": "relu6"}, "inbound_nodes": [[["conv_dw_11_bn", 0, 0, {}]]]}, {"name": "conv_pw_11", "class_name": "Conv2D", "config": {"name": "conv_pw_11", "trainable": false, "filters": 512, "kernel_size": [1, 1], "strides": [1, 1], "padding": "same", "data_format": "channels_last", "dilation_rate": [1, 1], "activation": "linear", "use_bias": false, "kernel_initializer": {"class_name": "VarianceScaling", "config": {"scale": 1.0, "mode": "fan_avg", "distribution": "uniform", "seed": null}}, "bias_initializer": {"class_name": "Zeros", "config": {}}, "kernel_regularizer": null, "bias_regularizer": null, "activity_regularizer": null, "kernel_constraint": null, "bias_constraint": null}, "inbound_nodes": [[["conv_dw_11_relu", 0, 0, {}]]]}, {"name": "conv_pw_11_bn", "class_name": "BatchNormalization", "config": {"name": "conv_pw_11_bn", "trainable": false, "axis": -1, "momentum": 0.99, "epsilon": 0.001, "center": true, "scale": true, "beta_initializer": {"class_name": "Zeros", "config": {}}, "gamma_initializer": {"class_name": "Ones", "config": {}}, "moving_mean_initializer": {"class_name": "Zeros", "config": {}}, "moving_variance_initializer": {"class_name": "Ones", "config": {}}, "beta_regularizer": null, "gamma_regularizer": null, "beta_constraint": null, "gamma_constraint": null}, "inbound_nodes": [[["conv_pw_11", 0, 0, {}]]]}, {"name": "conv_pw_11_relu", "class_name": "Activation", "config": {"name": "conv_pw_11_relu", "trainable": false, "activation": "relu6"}, "inbound_nodes": [[["conv_pw_11_bn", 0, 0, {}]]]}, {"name": "conv_dw_12", "class_name": "DepthwiseConv2D", "config": {"name": "conv_dw_12", "trainable": false, "kernel_size": [3, 3], "strides": [2, 2], "padding": "same", "data_format": "channels_last", "dilation_rate": [1, 1], "activation": "linear", "use_bias": false, "bias_initializer": {"class_name": "Zeros", "config": {}}, "bias_regularizer": null, "activity_regularizer": null, "bias_constraint": null, "depth_multiplier": 1, "depthwise_initializer": {"class_name": "VarianceScaling", "config": {"scale": 1.0, "mode": "fan_avg", "distribution": "uniform", "seed": null}}, "depthwise_regularizer": null, "depthwise_constraint": null}, "inbound_nodes": [[["conv_pw_11_relu", 0, 0, {}]]]}, {"name": "conv_dw_12_bn", "class_name": "BatchNormalization", "config": {"name": "conv_dw_12_bn", "trainable": false, "axis": -1, "momentum": 0.99, "epsilon": 0.001, "center": true, "scale": true, "beta_initializer": {"class_name": "Zeros", "config": {}}, "gamma_initializer": {"class_name": "Ones", "config": {}}, "moving_mean_initializer": {"class_name": "Zeros", "config": {}}, "moving_variance_initializer": {"class_name": "Ones", "config": {}}, "beta_regularizer": null, "gamma_regularizer": null, "beta_constraint": null, "gamma_constraint": null}, "inbound_nodes": [[["conv_dw_12", 0, 0, {}]]]}, {"name": "conv_dw_12_relu", "class_name": "Activation", "config": {"name": "conv_dw_12_relu", "trainable": false, "activation": "relu6"}, "inbound_nodes": [[["conv_dw_12_bn", 0, 0, {}]]]}, {"name": "conv_pw_12", "class_name": "Conv2D", "config": {"name": "conv_pw_12", "trainable": false, "filters": 1024, "kernel_size": [1, 1], "strides": [1, 1], "padding": "same", "data_format": "channels_last", "dilation_rate": [1, 1], "activation": "linear", "use_bias": false, "kernel_initializer": {"class_name": "VarianceScaling", "config": {"scale": 1.0, "mode": "fan_avg", "distribution": "uniform", "seed": null}}, "bias_initializer": {"class_name": "Zeros", "config": {}}, "kernel_regularizer": null, "bias_regularizer": null, "activity_regularizer": null, "kernel_constraint": null, "bias_constraint": null}, "inbound_nodes": [[["conv_dw_12_relu", 0, 0, {}]]]}, {"name": "conv_pw_12_bn", "class_name": "BatchNormalization", "config": {"name": "conv_pw_12_bn", "trainable": false, "axis": -1, "momentum": 0.99, "epsilon": 0.001, "center": true, "scale": true, "beta_initializer": {"class_name": "Zeros", "config": {}}, "gamma_initializer": {"class_name": "Ones", "config": {}}, "moving_mean_initializer": {"class_name": "Zeros", "config": {}}, "moving_variance_initializer": {"class_name": "Ones", "config": {}}, "beta_regularizer": null, "gamma_regularizer": null, "beta_constraint": null, "gamma_constraint": null}, "inbound_nodes": [[["conv_pw_12", 0, 0, {}]]]}, {"name": "conv_pw_12_relu", "class_name": "Activation", "config": {"name": "conv_pw_12_relu", "trainable": false, "activation": "relu6"}, "inbound_nodes": [[["conv_pw_12_bn", 0, 0, {}]]]}, {"name": "conv_dw_13", "class_name": "DepthwiseConv2D", "config": {"name": "conv_dw_13", "trainable": false, "kernel_size": [3, 3], "strides": [1, 1], "padding": "same", "data_format": "channels_last", "dilation_rate": [1, 1], "activation": "linear", "use_bias": false, "bias_initializer": {"class_name": "Zeros", "config": {}}, "bias_regularizer": null, "activity_regularizer": null, "bias_constraint": null, "depth_multiplier": 1, "depthwise_initializer": {"class_name": "VarianceScaling", "config": {"scale": 1.0, "mode": "fan_avg", "distribution": "uniform", "seed": null}}, "depthwise_regularizer": null, "depthwise_constraint": null}, "inbound_nodes": [[["conv_pw_12_relu", 0, 0, {}]]]}, {"name": "conv_dw_13_bn", "class_name": "BatchNormalization", "config": {"name": "conv_dw_13_bn", "trainable": false, "axis": -1, "momentum": 0.99, "epsilon": 0.001, "center": true, "scale": true, "beta_initializer": {"class_name": "Zeros", "config": {}}, "gamma_initializer": {"class_name": "Ones", "config": {}}, "moving_mean_initializer": {"class_name": "Zeros", "config": {}}, "moving_variance_initializer": {"class_name": "Ones", "config": {}}, "beta_regularizer": null, "gamma_regularizer": null, "beta_constraint": null, "gamma_constraint": null}, "inbound_nodes": [[["conv_dw_13", 0, 0, {}]]]}, {"name": "conv_dw_13_relu", "class_name": "Activation", "config": {"name": "conv_dw_13_relu", "trainable": false, "activation": "relu6"}, "inbound_nodes": [[["conv_dw_13_bn", 0, 0, {}]]]}, {"name": "conv_pw_13", "class_name": "Conv2D", "config": {"name": "conv_pw_13", "trainable": false, "filters": 1024, "kernel_size": [1, 1], "strides": [1, 1], "padding": "same", "data_format": "channels_last", "dilation_rate": [1, 1], "activation": "linear", "use_bias": false, "kernel_initializer": {"class_name": "VarianceScaling", "config": {"scale": 1.0, "mode": "fan_avg", "distribution": "uniform", "seed": null}}, "bias_initializer": {"class_name": "Zeros", "config": {}}, "kernel_regularizer": null, "bias_regularizer": null, "activity_regularizer": null, "kernel_constraint": null, "bias_constraint": null}, "inbound_nodes": [[["conv_dw_13_relu", 0, 0, {}]]]}, {"name": "conv_pw_13_bn", "class_name": "BatchNormalization", "config": {"name": "conv_pw_13_bn", "trainable": false, "axis": -1, "momentum": 0.99, "epsilon": 0.001, "center": true, "scale": true, "beta_initializer": {"class_name": "Zeros", "config": {}}, "gamma_initializer": {"class_name": "Ones", "config": {}}, "moving_mean_initializer": {"class_name": "Zeros", "config": {}}, "moving_variance_initializer": {"class_name": "Ones", "config": {}}, "beta_regularizer": null, "gamma_regularizer": null, "beta_constraint": null, "gamma_constraint": null}, "inbound_nodes": [[["conv_pw_13", 0, 0, {}]]]}, {"name": "conv_pw_13_relu", "class_name": "Activation", "config": {"name": "conv_pw_13_relu", "trainable": false, "activation": "relu6"}, "inbound_nodes": [[["conv_pw_13_bn", 0, 0, {}]]]}, {"name": "detection_conv6_1", "class_name": "Conv2D", "config": {"name": "detection_conv6_1", "trainable": true, "filters": 256, "kernel_size": [1, 1], "strides": [1, 1], "padding": "same", "data_format": "channels_last", "dilation_rate": [1, 1], "activation": "linear", "use_bias": true, "kernel_initializer": {"class_name": "VarianceScaling", "config": {"scale": 1.0, "mode": "fan_avg", "distribution": "uniform", "seed": null}}, "bias_initializer": {"class_name": "Zeros", "config": {}}, "kernel_regularizer": null, "bias_regularizer": null, "activity_regularizer": null, "kernel_constraint": null, "bias_constraint": null}, "inbound_nodes": [[["conv_pw_13_relu", 0, 0, {}]]]}, {"name": "detection_conv6_1_bn", "class_name": "BatchNormalization", "config": {"name": "detection_conv6_1_bn", "trainable": true, "axis": -1, "momentum": 0.99, "epsilon": 0.001, "center": true, "scale": true, "beta_initializer": {"class_name": "Zeros", "config": {}}, "gamma_initializer": {"class_name": "Ones", "config": {}}, "moving_mean_initializer": {"class_name": "Zeros", "config": {}}, "moving_variance_initializer": {"class_name": "Ones", "config": {}}, "beta_regularizer": null, "gamma_regularizer": null, "beta_constraint": null, "gamma_constraint": null}, "inbound_nodes": [[["detection_conv6_1", 0, 0, {}]]]}, {"name": "detection_conv6_1_nonlin", "class_name": "Lambda", "config": {"name": "detection_conv6_1_nonlin", "trainable": true, "function": ["4wEAAAAAAAAAAQAAAAIAAABTAAAAcwwAAAB0AGoBagJ8AIMBUwApAU4pA9oCdGbaAm5u2gRyZWx1\nKQHaAXipAHIFAAAA+kJDOlxVc2Vyc1xjeGhyelxpbnRlbFxGYWNlLWRldGVjdGlvbi13aXRoLW1v\nYmlsZW5ldC1zc2RcbW5fbW9kZWwucHnaCDxsYW1iZGE+IQEAAPMAAAAA\n", null, null], "function_type": "lambda", "output_shape": null, "output_shape_type": "raw", "arguments": {}}, "inbound_nodes": [[["detection_conv6_1_bn", 0, 0, {}]]]}, {"name": "detection_conv6_2_conv_dw_1", "class_name": "DepthwiseConv2D", "config": {"name": "detection_conv6_2_conv_dw_1", "trainable": true, "kernel_size": [3, 3], "strides": [2, 2], "padding": "same", "data_format": "channels_last", "dilation_rate": [1, 1], "activation": "linear", "use_bias": false, "bias_initializer": {"class_name": "Zeros", "config": {}}, "bias_regularizer": null, "activity_regularizer": null, "bias_constraint": null, "depth_multiplier": 1, "depthwise_initializer": {"class_name": "VarianceScaling", "config": {"scale": 1.0, "mode": "fan_avg", "distribution": "uniform", "seed": null}}, "depthwise_regularizer": null, "depthwise_constraint": null}, "inbound_nodes": [[["detection_conv6_1_nonlin", 0, 0, {}]]]}, {"name": "detection_conv6_2_conv_dw_1_bn", "class_name": "BatchNormalization", "config": {"name": "detection_conv6_2_conv_dw_1_bn", "trainable": true, "axis": -1, "momentum": 0.99, "epsilon": 0.001, "center": true, "scale": true, "beta_initializer": {"class_name": "Zeros", "config": {}}, "gamma_initializer": {"class_name": "Ones", "config": {}}, "moving_mean_initializer": {"class_name": "Zeros", "config": {}}, "moving_variance_initializer": {"class_name": "Ones", "config": {}}, "beta_regularizer": null, "gamma_regularizer": null, "beta_constraint": null, "gamma_constraint": null}, "inbound_nodes": [[["detection_conv6_2_conv_dw_1", 0, 0, {}]]]}, {"name": "detection_conv6_2_conv_dw_1_relu", "class_name": "Activation", "config": {"name": "detection_conv6_2_conv_dw_1_relu", "trainable": true, "activation": "relu6"}, "inbound_nodes": [[["detection_conv6_2_conv_dw_1_bn", 0, 0, {}]]]}, {"name": "detection_conv6_2_conv_pw_1", "class_name": "Conv2D", "config": {"name": "detection_conv6_2_conv_pw_1", "trainable": true, "filters": 512, "kernel_size": [1, 1], "strides": [1, 1], "padding": "same", "data_format": "channels_last", "dilation_rate": [1, 1], "activation": "linear", "use_bias": false, "kernel_initializer": {"class_name": "VarianceScaling", "config": {"scale": 1.0, "mode": "fan_avg", "distribution": "uniform", "seed": null}}, "bias_initializer": {"class_name": "Zeros", "config": {}}, "kernel_regularizer": null, "bias_regularizer": null, "activity_regularizer": null, "kernel_constraint": null, "bias_constraint": null}, "inbound_nodes": [[["detection_conv6_2_conv_dw_1_relu", 0, 0, {}]]]}, {"name": "detection_conv6_2_conv_pw_1_bn", "class_name": "BatchNormalization", "config": {"name": "detection_conv6_2_conv_pw_1_bn", "trainable": true, "axis": -1, "momentum": 0.99, "epsilon": 0.001, "center": true, "scale": true, "beta_initializer": {"class_name": "Zeros", "config": {}}, "gamma_initializer": {"class_name": "Ones", "config": {}}, "moving_mean_initializer": {"class_name": "Zeros", "config": {}}, "moving_variance_initializer": {"class_name": "Ones", "config": {}}, "beta_regularizer": null, "gamma_regularizer": null, "beta_constraint": null, "gamma_constraint": null}, "inbound_nodes": [[["detection_conv6_2_conv_pw_1", 0, 0, {}]]]}, {"name": "detection_conv6_2_conv_pw_1_relu", "class_name": "Activation", "config": {"name": "detection_conv6_2_conv_pw_1_relu", "trainable": true, "activation": "relu6"}, "inbound_nodes": [[["detection_conv6_2_conv_pw_1_bn", 0, 0, {}]]]}, {"name": "detection_conv7_1", "class_name": "Conv2D", "config": {"name": "detection_conv7_1", "trainable": true, "filters": 128, "kernel_size": [1, 1], "strides": [1, 1], "padding": "same", "data_format": "channels_last", "dilation_rate": [1, 1], "activation": "linear", "use_bias": true, "kernel_initializer": {"class_name": "VarianceScaling", "config": {"scale": 1.0, "mode": "fan_avg", "distribution": "uniform", "seed": null}}, "bias_initializer": {"class_name": "Zeros", "config": {}}, "kernel_regularizer": null, "bias_regularizer": null, "activity_regularizer": null, "kernel_constraint": null, "bias_constraint": null}, "inbound_nodes": [[["detection_conv6_2_conv_pw_1_relu", 0, 0, {}]]]}, {"name": "detection_conv7_1_bn", "class_name": "BatchNormalization", "config": {"name": "detection_conv7_1_bn", "trainable": true, "axis": -1, "momentum": 0.99, "epsilon": 0.001, "center": true, "scale": true, "beta_initializer": {"class_name": "Zeros", "config": {}}, "gamma_initializer": {"class_name": "Ones", "config": {}}, "moving_mean_initializer": {"class_name": "Zeros", "config": {}}, "moving_variance_initializer": {"class_name": "Ones", "config": {}}, "beta_regularizer": null, "gamma_regularizer": null, "beta_constraint": null, "gamma_constraint": null}, "inbound_nodes": [[["detection_conv7_1", 0, 0, {}]]]}, {"name": "detection_conv7_1_nonlin", "class_name": "Lambda", "config": {"name": "detection_conv7_1_nonlin", "trainable": true, "function": ["4wEAAAAAAAAAAQAAAAIAAABTAAAAcwwAAAB0AGoBagJ8AIMBUwApAU4pA9oCdGbaAm5u2gRyZWx1\nKQHaAXipAHIFAAAA+kJDOlxVc2Vyc1xjeGhyelxpbnRlbFxGYWNlLWRldGVjdGlvbi13aXRoLW1v\nYmlsZW5ldC1zc2RcbW5fbW9kZWwucHnaCDxsYW1iZGE+IQEAAPMAAAAA\n", null, null], "function_type": "lambda", "output_shape": null, "output_shape_type": "raw", "arguments": {}}, "inbound_nodes": [[["detection_conv7_1_bn", 0, 0, {}]]]}, {"name": "detection_conv7_2_conv_dw_2", "class_name": "DepthwiseConv2D", "config": {"name": "detection_conv7_2_conv_dw_2", "trainable": true, "kernel_size": [3, 3], "strides": [2, 2], "padding": "same", "data_format": "channels_last", "dilation_rate": [1, 1], "activation": "linear", "use_bias": false, "bias_initializer": {"class_name": "Zeros", "config": {}}, "bias_regularizer": null, "activity_regularizer": null, "bias_constraint": null, "depth_multiplier": 1, "depthwise_initializer": {"class_name": "VarianceScaling", "config": {"scale": 1.0, "mode": "fan_avg", "distribution": "uniform", "seed": null}}, "depthwise_regularizer": null, "depthwise_constraint": null}, "inbound_nodes": [[["detection_conv7_1_nonlin", 0, 0, {}]]]}, {"name": "detection_conv7_2_conv_dw_2_bn", "class_name": "BatchNormalization", "config": {"name": "detection_conv7_2_conv_dw_2_bn", "trainable": true, "axis": -1, "momentum": 0.99, "epsilon": 0.001, "center": true, "scale": true, "beta_initializer": {"class_name": "Zeros", "config": {}}, "gamma_initializer": {"class_name": "Ones", "config": {}}, "moving_mean_initializer": {"class_name": "Zeros", "config": {}}, "moving_variance_initializer": {"class_name": "Ones", "config": {}}, "beta_regularizer": null, "gamma_regularizer": null, "beta_constraint": null, "gamma_constraint": null}, "inbound_nodes": [[["detection_conv7_2_conv_dw_2", 0, 0, {}]]]}, {"name": "detection_conv7_2_conv_dw_2_relu", "class_name": "Activation", "config": {"name": "detection_conv7_2_conv_dw_2_relu", "trainable": true, "activation": "relu6"}, "inbound_nodes": [[["detection_conv7_2_conv_dw_2_bn", 0, 0, {}]]]}, {"name": "detection_conv7_2_conv_pw_2", "class_name": "Conv2D", "config": {"name": "detection_conv7_2_conv_pw_2", "trainable": true, "filters": 256, "kernel_size": [1, 1], "strides": [1, 1], "padding": "same", "data_format": "channels_last", "dilation_rate": [1, 1], "activation": "linear", "use_bias": false, "kernel_initializer": {"class_name": "VarianceScaling", "config": {"scale": 1.0, "mode": "fan_avg", "distribution": "uniform", "seed": null}}, "bias_initializer": {"class_name": "Zeros", "config": {}}, "kernel_regularizer": null, "bias_regularizer": null, "activity_regularizer": null, "kernel_constraint": null, "bias_constraint": null}, "inbound_nodes": [[["detection_conv7_2_conv_dw_2_relu", 0, 0, {}]]]}, {"name": "detection_conv7_2_conv_pw_2_bn", "class_name": "BatchNormalization", "config": {"name": "detection_conv7_2_conv_pw_2_bn", "trainable": true, "axis": -1, "momentum": 0.99, "epsilon": 0.001, "center": true, "scale": true, "beta_initializer": {"class_name": "Zeros", "config": {}}, "gamma_initializer": {"class_name": "Ones", "config": {}}, "moving_mean_initializer": {"class_name": "Zeros", "config": {}}, "moving_variance_initializer": {"class_name": "Ones", "config": {}}, "beta_regularizer": null, "gamma_regularizer": null, "beta_constraint": null, "gamma_constraint": null}, "inbound_nodes": [[["detection_conv7_2_conv_pw_2", 0, 0, {}]]]}, {"name": "detection_conv7_2_conv_pw_2_relu", "class_name": "Activation", "config": {"name": "detection_conv7_2_conv_pw_2_relu", "trainable": true, "activation": "relu6"}, "inbound_nodes": [[["detection_conv7_2_conv_pw_2_bn", 0, 0, {}]]]}, {"name": "detection_conv8_1", "class_name": "Conv2D", "config": {"name": "detection_conv8_1", "trainable": true, "filters": 128, "kernel_size": [1, 1], "strides": [1, 1], "padding": "same", "data_format": "channels_last", "dilation_rate": [1, 1], "activation": "linear", "use_bias": true, "kernel_initializer": {"class_name": "VarianceScaling", "config": {"scale": 1.0, "mode": "fan_avg", "distribution": "uniform", "seed": null}}, "bias_initializer": {"class_name": "Zeros", "config": {}}, "kernel_regularizer": null, "bias_regularizer": null, "activity_regularizer": null, "kernel_constraint": null, "bias_constraint": null}, "inbound_nodes": [[["detection_conv7_2_conv_pw_2_relu", 0, 0, {}]]]}, {"name": "detection_conv8_1_bn", "class_name": "BatchNormalization", "config": {"name": "detection_conv8_1_bn", "trainable": true, "axis": -1, "momentum": 0.99, "epsilon": 0.001, "center": true, "scale": true, "beta_initializer": {"class_name": "Zeros", "config": {}}, "gamma_initializer": {"class_name": "Ones", "config": {}}, "moving_mean_initializer": {"class_name": "Zeros", "config": {}}, "moving_variance_initializer": {"class_name": "Ones", "config": {}}, "beta_regularizer": null, "gamma_regularizer": null, "beta_constraint": null, "gamma_constraint": null}, "inbound_nodes": [[["detection_conv8_1", 0, 0, {}]]]}, {"name": "detection_conv8_1_nonlin", "class_name": "Lambda", "config": {"name": "detection_conv8_1_nonlin", "trainable": true, "function": ["4wEAAAAAAAAAAQAAAAIAAABTAAAAcwwAAAB0AGoBagJ8AIMBUwApAU4pA9oCdGbaAm5u2gRyZWx1\nKQHaAXipAHIFAAAA+kJDOlxVc2Vyc1xjeGhyelxpbnRlbFxGYWNlLWRldGVjdGlvbi13aXRoLW1v\nYmlsZW5ldC1zc2RcbW5fbW9kZWwucHnaCDxsYW1iZGE+IQEAAPMAAAAA\n", null, null], "function_type": "lambda", "output_shape": null, "output_shape_type": "raw", "arguments": {}}, "inbound_nodes": [[["detection_conv8_1_bn", 0, 0, {}]]]}, {"name": "detection_conv8_2_conv_dw_3", "class_name": "DepthwiseConv2D", "config": {"name": "detection_conv8_2_conv_dw_3", "trainable": true, "kernel_size": [3, 3], "strides": [2, 2], "padding": "same", "data_format": "channels_last", "dilation_rate": [1, 1], "activation": "linear", "use_bias": false, "bias_initializer": {"class_name": "Zeros", "config": {}}, "bias_regularizer": null, "activity_regularizer": null, "bias_constraint": null, "depth_multiplier": 1, "depthwise_initializer": {"class_name": "VarianceScaling", "config": {"scale": 1.0, "mode": "fan_avg", "distribution": "uniform", "seed": null}}, "depthwise_regularizer": null, "depthwise_constraint": null}, "inbound_nodes": [[["detection_conv8_1_nonlin", 0, 0, {}]]]}, {"name": "detection_conv8_2_conv_dw_3_bn", "class_name": "BatchNormalization", "config": {"name": "detection_conv8_2_conv_dw_3_bn", "trainable": true, "axis": -1, "momentum": 0.99, "epsilon": 0.001, "center": true, "scale": true, "beta_initializer": {"class_name": "Zeros", "config": {}}, "gamma_initializer": {"class_name": "Ones", "config": {}}, "moving_mean_initializer": {"class_name": "Zeros", "config": {}}, "moving_variance_initializer": {"class_name": "Ones", "config": {}}, "beta_regularizer": null, "gamma_regularizer": null, "beta_constraint": null, "gamma_constraint": null}, "inbound_nodes": [[["detection_conv8_2_conv_dw_3", 0, 0, {}]]]}, {"name": "detection_conv8_2_conv_dw_3_relu", "class_name": "Activation", "config": {"name": "detection_conv8_2_conv_dw_3_relu", "trainable": true, "activation": "relu6"}, "inbound_nodes": [[["detection_conv8_2_conv_dw_3_bn", 0, 0, {}]]]}, {"name": "detection_conv8_2_conv_pw_3", "class_name": "Conv2D", "config": {"name": "detection_conv8_2_conv_pw_3", "trainable": true, "filters": 256, "kernel_size": [1, 1], "strides": [1, 1], "padding": "same", "data_format": "channels_last", "dilation_rate": [1, 1], "activation": "linear", "use_bias": false, "kernel_initializer": {"class_name": "VarianceScaling", "config": {"scale": 1.0, "mode": "fan_avg", "distribution": "uniform", "seed": null}}, "bias_initializer": {"class_name": "Zeros", "config": {}}, "kernel_regularizer": null, "bias_regularizer": null, "activity_regularizer": null, "kernel_constraint": null, "bias_constraint": null}, "inbound_nodes": [[["detection_conv8_2_conv_dw_3_relu", 0, 0, {}]]]}, {"name": "detection_conv8_2_conv_pw_3_bn", "class_name": "BatchNormalization", "config": {"name": "detection_conv8_2_conv_pw_3_bn", "trainable": true, "axis": -1, "momentum": 0.99, "epsilon": 0.001, "center": true, "scale": true, "beta_initializer": {"class_name": "Zeros", "config": {}}, "gamma_initializer": {"class_name": "Ones", "config": {}}, "moving_mean_initializer": {"class_name": "Zeros", "config": {}}, "moving_variance_initializer": {"class_name": "Ones", "config": {}}, "beta_regularizer": null, "gamma_regularizer": null, "beta_constraint": null, "gamma_constraint": null}, "inbound_nodes": [[["detection_conv8_2_conv_pw_3", 0, 0, {}]]]}, {"name": "detection_conv8_2_conv_pw_3_relu", "class_name": "Activation", "config": {"name": "detection_conv8_2_conv_pw_3_relu", "trainable": true, "activation": "relu6"}, "inbound_nodes": [[["detection_conv8_2_conv_pw_3_bn", 0, 0, {}]]]}, {"name": "detection_conv9_1", "class_name": "Conv2D", "config": {"name": "detection_conv9_1", "trainable": true, "filters": 64, "kernel_size": [1, 1], "strides": [1, 1], "padding": "same", "data_format": "channels_last", "dilation_rate": [1, 1], "activation": "linear", "use_bias": true, "kernel_initializer": {"class_name": "VarianceScaling", "config": {"scale": 1.0, "mode": "fan_avg", "distribution": "uniform", "seed": null}}, "bias_initializer": {"class_name": "Zeros", "config": {}}, "kernel_regularizer": null, "bias_regularizer": null, "activity_regularizer": null, "kernel_constraint": null, "bias_constraint": null}, "inbound_nodes": [[["detection_conv8_2_conv_pw_3_relu", 0, 0, {}]]]}, {"name": "detection_conv9_1_bn", "class_name": "BatchNormalization", "config": {"name": "detection_conv9_1_bn", "trainable": true, "axis": -1, "momentum": 0.99, "epsilon": 0.001, "center": true, "scale": true, "beta_initializer": {"class_name": "Zeros", "config": {}}, "gamma_initializer": {"class_name": "Ones", "config": {}}, "moving_mean_initializer": {"class_name": "Zeros", "config": {}}, "moving_variance_initializer": {"class_name": "Ones", "config": {}}, "beta_regularizer": null, "gamma_regularizer": null, "beta_constraint": null, "gamma_constraint": null}, "inbound_nodes": [[["detection_conv9_1", 0, 0, {}]]]}, {"name": "detection_conv9_1_nonlin", "class_name": "Lambda", "config": {"name": "detection_conv9_1_nonlin", "trainable": true, "function": ["4wEAAAAAAAAAAQAAAAIAAABTAAAAcwwAAAB0AGoBagJ8AIMBUwApAU4pA9oCdGbaAm5u2gRyZWx1\nKQHaAXipAHIFAAAA+kJDOlxVc2Vyc1xjeGhyelxpbnRlbFxGYWNlLWRldGVjdGlvbi13aXRoLW1v\nYmlsZW5ldC1zc2RcbW5fbW9kZWwucHnaCDxsYW1iZGE+IQEAAPMAAAAA\n", null, null], "function_type": "lambda", "output_shape": null, "output_shape_type": "raw", "arguments": {}}, "inbound_nodes": [[["detection_conv9_1_bn", 0, 0, {}]]]}, {"name": "detection_conv9_2_conv_dw_4", "class_name": "DepthwiseConv2D", "config": {"name": "detection_conv9_2_conv_dw_4", "trainable": true, "kernel_size": [3, 3], "strides": [2, 2], "padding": "same", "data_format": "channels_last", "dilation_rate": [1, 1], "activation": "linear", "use_bias": false, "bias_initializer": {"class_name": "Zeros", "config": {}}, "bias_regularizer": null, "activity_regularizer": null, "bias_constraint": null, "depth_multiplier": 1, "depthwise_initializer": {"class_name": "VarianceScaling", "config": {"scale": 1.0, "mode": "fan_avg", "distribution": "uniform", "seed": null}}, "depthwise_regularizer": null, "depthwise_constraint": null}, "inbound_nodes": [[["detection_conv9_1_nonlin", 0, 0, {}]]]}, {"name": "detection_conv9_2_conv_dw_4_bn", "class_name": "BatchNormalization", "config": {"name": "detection_conv9_2_conv_dw_4_bn", "trainable": true, "axis": -1, "momentum": 0.99, "epsilon": 0.001, "center": true, "scale": true, "beta_initializer": {"class_name": "Zeros", "config": {}}, "gamma_initializer": {"class_name": "Ones", "config": {}}, "moving_mean_initializer": {"class_name": "Zeros", "config": {}}, "moving_variance_initializer": {"class_name": "Ones", "config": {}}, "beta_regularizer": null, "gamma_regularizer": null, "beta_constraint": null, "gamma_constraint": null}, "inbound_nodes": [[["detection_conv9_2_conv_dw_4", 0, 0, {}]]]}, {"name": "detection_conv9_2_conv_dw_4_relu", "class_name": "Activation", "config": {"name": "detection_conv9_2_conv_dw_4_relu", "trainable": true, "activation": "relu6"}, "inbound_nodes": [[["detection_conv9_2_conv_dw_4_bn", 0, 0, {}]]]}, {"name": "detection_conv9_2_conv_pw_4", "class_name": "Conv2D", "config": {"name": "detection_conv9_2_conv_pw_4", "trainable": true, "filters": 256, "kernel_size": [1, 1], "strides": [1, 1], "padding": "same", "data_format": "channels_last", "dilation_rate": [1, 1], "activation": "linear", "use_bias": false, "kernel_initializer": {"class_name": "VarianceScaling", "config": {"scale": 1.0, "mode": "fan_avg", "distribution": "uniform", "seed": null}}, "bias_initializer": {"class_name": "Zeros", "config": {}}, "kernel_regularizer": null, "bias_regularizer": null, "activity_regularizer": null, "kernel_constraint": null, "bias_constraint": null}, "inbound_nodes": [[["detection_conv9_2_conv_dw_4_relu", 0, 0, {}]]]}, {"name": "detection_conv9_2_conv_pw_4_bn", "class_name": "BatchNormalization", "config": {"name": "detection_conv9_2_conv_pw_4_bn", "trainable": true, "axis": -1, "momentum": 0.99, "epsilon": 0.001, "center": true, "scale": true, "beta_initializer": {"class_name": "Zeros", "config": {}}, "gamma_initializer": {"class_name": "Ones", "config": {}}, "moving_mean_initializer": {"class_name": "Zeros", "config": {}}, "moving_variance_initializer": {"class_name": "Ones", "config": {}}, "beta_regularizer": null, "gamma_regularizer": null, "beta_constraint": null, "gamma_constraint": null}, "inbound_nodes": [[["detection_conv9_2_conv_pw_4", 0, 0, {}]]]}, {"name": "detection_conv4_3_norm", "class_name": "L2Normalization", "config": {"name": "detection_conv4_3_norm", "trainable": true}, "inbound_nodes": [[["conv_pw_11_relu", 0, 0, {}]]]}, {"name": "detection_conv9_2_conv_pw_4_relu", "class_name": "Activation", "config": {"name": "detection_conv9_2_conv_pw_4_relu", "trainable": true, "activation": "relu6"}, "inbound_nodes": [[["detection_conv9_2_conv_pw_4_bn", 0, 0, {}]]]}, {"name": "detection_conv4_3_norm_mbox_conf_conv_dw_1", "class_name": "DepthwiseConv2D", "config": {"name": "detection_conv4_3_norm_mbox_conf_conv_dw_1", "trainable": true, "kernel_size": [3, 3], "strides": [1, 1], "padding": "same", "data_format": "channels_last", "dilation_rate": [1, 1], "activation": "linear", "use_bias": false, "bias_initializer": {"class_name": "Zeros", "config": {}}, "bias_regularizer": null, "activity_regularizer": null, "bias_constraint": null, "depth_multiplier": 1, "depthwise_initializer": {"class_name": "VarianceScaling", "config": {"scale": 1.0, "mode": "fan_avg", "distribution": "uniform", "seed": null}}, "depthwise_regularizer": null, "depthwise_constraint": null}, "inbound_nodes": [[["detection_conv4_3_norm", 0, 0, {}]]]}, {"name": "detection_fc7_mbox_conf_conv_dw_2", "class_name": "DepthwiseConv2D", "config": {"name": "detection_fc7_mbox_conf_conv_dw_2", "trainable": true, "kernel_size": [3, 3], "strides": [1, 1], "padding": "same", "data_format": "channels_last", "dilation_rate": [1, 1], "activation": "linear", "use_bias": false, "bias_initializer": {"class_name": "Zeros", "config": {}}, "bias_regularizer": null, "activity_regularizer": null, "bias_constraint": null, "depth_multiplier": 1, "depthwise_initializer": {"class_name": "VarianceScaling", "config": {"scale": 1.0, "mode": "fan_avg", "distribution": "uniform", "seed": null}}, "depthwise_regularizer": null, "depthwise_constraint": null}, "inbound_nodes": [[["conv_pw_13_relu", 0, 0, {}]]]}, {"name": "detection_conv6_2_mbox_conf_conv_dw_3", "class_name": "DepthwiseConv2D", "config": {"name": "detection_conv6_2_mbox_conf_conv_dw_3", "trainable": true, "kernel_size": [3, 3], "strides": [1, 1], "padding": "same", "data_format": "channels_last", "dilation_rate": [1, 1], "activation": "linear", "use_bias": false, "bias_initializer": {"class_name": "Zeros", "config": {}}, "bias_regularizer": null, "activity_regularizer": null, "bias_constraint": null, "depth_multiplier": 1, "depthwise_initializer": {"class_name": "VarianceScaling", "config": {"scale": 1.0, "mode": "fan_avg", "distribution": "uniform", "seed": null}}, "depthwise_regularizer": null, "depthwise_constraint": null}, "inbound_nodes": [[["detection_conv6_2_conv_pw_1_relu", 0, 0, {}]]]}, {"name": "detection_conv7_2_mbox_conf_conv_dw_4", "class_name": "DepthwiseConv2D", "config": {"name": "detection_conv7_2_mbox_conf_conv_dw_4", "trainable": true, "kernel_size": [3, 3], "strides": [1, 1], "padding": "same", "data_format": "channels_last", "dilation_rate": [1, 1], "activation": "linear", "use_bias": false, "bias_initializer": {"class_name": "Zeros", "config": {}}, "bias_regularizer": null, "activity_regularizer": null, "bias_constraint": null, "depth_multiplier": 1, "depthwise_initializer": {"class_name": "VarianceScaling", "config": {"scale": 1.0, "mode": "fan_avg", "distribution": "uniform", "seed": null}}, "depthwise_regularizer": null, "depthwise_constraint": null}, "inbound_nodes": [[["detection_conv7_2_conv_pw_2_relu", 0, 0, {}]]]}, {"name": "detection_conv8_2_mbox_conf_conv_dw_5", "class_name": "DepthwiseConv2D", "config": {"name": "detection_conv8_2_mbox_conf_conv_dw_5", "trainable": true, "kernel_size": [3, 3], "strides": [1, 1], "padding": "same", "data_format": "channels_last", "dilation_rate": [1, 1], "activation": "linear", "use_bias": false, "bias_initializer": {"class_name": "Zeros", "config": {}}, "bias_regularizer": null, "activity_regularizer": null, "bias_constraint": null, "depth_multiplier": 1, "depthwise_initializer": {"class_name": "VarianceScaling", "config": {"scale": 1.0, "mode": "fan_avg", "distribution": "uniform", "seed": null}}, "depthwise_regularizer": null, "depthwise_constraint": null}, "inbound_nodes": [[["detection_conv8_2_conv_pw_3_relu", 0, 0, {}]]]}, {"name": "detection_conv9_2_mbox_conf_conv_dw_6", "class_name": "DepthwiseConv2D", "config": {"name": "detection_conv9_2_mbox_conf_conv_dw_6", "trainable": true, "kernel_size": [3, 3], "strides": [1, 1], "padding": "same", "data_format": "channels_last", "dilation_rate": [1, 1], "activation": "linear", "use_bias": false, "bias_initializer": {"class_name": "Zeros", "config": {}}, "bias_regularizer": null, "activity_regularizer": null, "bias_constraint": null, "depth_multiplier": 1, "depthwise_initializer": {"class_name": "VarianceScaling", "config": {"scale": 1.0, "mode": "fan_avg", "distribution": "uniform", "seed": null}}, "depthwise_regularizer": null, "depthwise_constraint": null}, "inbound_nodes": [[["detection_conv9_2_conv_pw_4_relu", 0, 0, {}]]]}, {"name": "detection_conv4_3_norm_mbox_conf_conv_dw_1_bn", "class_name": "BatchNormalization", "config": {"name": "detection_conv4_3_norm_mbox_conf_conv_dw_1_bn", "trainable": true, "axis": -1, "momentum": 0.99, "epsilon": 0.001, "center": true, "scale": true, "beta_initializer": {"class_name": "Zeros", "config": {}}, "gamma_initializer": {"class_name": "Ones", "config": {}}, "moving_mean_initializer": {"class_name": "Zeros", "config": {}}, "moving_variance_initializer": {"class_name": "Ones", "config": {}}, "beta_regularizer": null, "gamma_regularizer": null, "beta_constraint": null, "gamma_constraint": null}, "inbound_nodes": [[["detection_conv4_3_norm_mbox_conf_conv_dw_1", 0, 0, {}]]]}, {"name": "detection_fc7_mbox_conf_conv_dw_2_bn", "class_name": "BatchNormalization", "config": {"name": "detection_fc7_mbox_conf_conv_dw_2_bn", "trainable": true, "axis": -1, "momentum": 0.99, "epsilon": 0.001, "center": true, "scale": true, "beta_initializer": {"class_name": "Zeros", "config": {}}, "gamma_initializer": {"class_name": "Ones", "config": {}}, "moving_mean_initializer": {"class_name": "Zeros", "config": {}}, "moving_variance_initializer": {"class_name": "Ones", "config": {}}, "beta_regularizer": null, "gamma_regularizer": null, "beta_constraint": null, "gamma_constraint": null}, "inbound_nodes": [[["detection_fc7_mbox_conf_conv_dw_2", 0, 0, {}]]]}, {"name": "detection_conv6_2_mbox_conf_conv_dw_3_bn", "class_name": "BatchNormalization", "config": {"name": "detection_conv6_2_mbox_conf_conv_dw_3_bn", "trainable": true, "axis": -1, "momentum": 0.99, "epsilon": 0.001, "center": true, "scale": true, "beta_initializer": {"class_name": "Zeros", "config": {}}, "gamma_initializer": {"class_name": "Ones", "config": {}}, "moving_mean_initializer": {"class_name": "Zeros", "config": {}}, "moving_variance_initializer": {"class_name": "Ones", "config": {}}, "beta_regularizer": null, "gamma_regularizer": null, "beta_constraint": null, "gamma_constraint": null}, "inbound_nodes": [[["detection_conv6_2_mbox_conf_conv_dw_3", 0, 0, {}]]]}, {"name": "detection_conv7_2_mbox_conf_conv_dw_4_bn", "class_name": "BatchNormalization", "config": {"name": "detection_conv7_2_mbox_conf_conv_dw_4_bn", "trainable": true, "axis": -1, "momentum": 0.99, "epsilon": 0.001, "center": true, "scale": true, "beta_initializer": {"class_name": "Zeros", "config": {}}, "gamma_initializer": {"class_name": "Ones", "config": {}}, "moving_mean_initializer": {"class_name": "Zeros", "config": {}}, "moving_variance_initializer": {"class_name": "Ones", "config": {}}, "beta_regularizer": null, "gamma_regularizer": null, "beta_constraint": null, "gamma_constraint": null}, "inbound_nodes": [[["detection_conv7_2_mbox_conf_conv_dw_4", 0, 0, {}]]]}, {"name": "detection_conv8_2_mbox_conf_conv_dw_5_bn", "class_name": "BatchNormalization", "config": {"name": "detection_conv8_2_mbox_conf_conv_dw_5_bn", "trainable": true, "axis": -1, "momentum": 0.99, "epsilon": 0.001, "center": true, "scale": true, "beta_initializer": {"class_name": "Zeros", "config": {}}, "gamma_initializer": {"class_name": "Ones", "config": {}}, "moving_mean_initializer": {"class_name": "Zeros", "config": {}}, "moving_variance_initializer": {"class_name": "Ones", "config": {}}, "beta_regularizer": null, "gamma_regularizer": null, "beta_constraint": null, "gamma_constraint": null}, "inbound_nodes": [[["detection_conv8_2_mbox_conf_conv_dw_5", 0, 0, {}]]]}, {"name": "detection_conv9_2_mbox_conf_conv_dw_6_bn", "class_name": "BatchNormalization", "config": {"name": "detection_conv9_2_mbox_conf_conv_dw_6_bn", "trainable": true, "axis": -1, "momentum": 0.99, "epsilon": 0.001, "center": true, "scale": true, "beta_initializer": {"class_name": "Zeros", "config": {}}, "gamma_initializer": {"class_name": "Ones", "config": {}}, "moving_mean_initializer": {"class_name": "Zeros", "config": {}}, "moving_variance_initializer": {"class_name": "Ones", "config": {}}, "beta_regularizer": null, "gamma_regularizer": null, "beta_constraint": null, "gamma_constraint": null}, "inbound_nodes": [[["detection_conv9_2_mbox_conf_conv_dw_6", 0, 0, {}]]]}, {"name": "detection_conv4_3_norm_mbox_loc_conv_dw_1", "class_name": "DepthwiseConv2D", "config": {"name": "detection_conv4_3_norm_mbox_loc_conv_dw_1", "trainable": true, "kernel_size": [3, 3], "strides": [1, 1], "padding": "same", "data_format": "channels_last", "dilation_rate": [1, 1], "activation": "linear", "use_bias": false, "bias_initializer": {"class_name": "Zeros", "config": {}}, "bias_regularizer": null, "activity_regularizer": null, "bias_constraint": null, "depth_multiplier": 1, "depthwise_initializer": {"class_name": "VarianceScaling", "config": {"scale": 1.0, "mode": "fan_avg", "distribution": "uniform", "seed": null}}, "depthwise_regularizer": null, "depthwise_constraint": null}, "inbound_nodes": [[["detection_conv4_3_norm", 0, 0, {}]]]}, {"name": "detection_fc7_mbox_loc_conv_dw_2", "class_name": "DepthwiseConv2D", "config": {"name": "detection_fc7_mbox_loc_conv_dw_2", "trainable": true, "kernel_size": [3, 3], "strides": [1, 1], "padding": "same", "data_format": "channels_last", "dilation_rate": [1, 1], "activation": "linear", "use_bias": false, "bias_initializer": {"class_name": "Zeros", "config": {}}, "bias_regularizer": null, "activity_regularizer": null, "bias_constraint": null, "depth_multiplier": 1, "depthwise_initializer": {"class_name": "VarianceScaling", "config": {"scale": 1.0, "mode": "fan_avg", "distribution": "uniform", "seed": null}}, "depthwise_regularizer": null, "depthwise_constraint": null}, "inbound_nodes": [[["conv_pw_13_relu", 0, 0, {}]]]}, {"name": "detection_conv6_2_mbox_loc_conv_dw_3", "class_name": "DepthwiseConv2D", "config": {"name": "detection_conv6_2_mbox_loc_conv_dw_3", "trainable": true, "kernel_size": [3, 3], "strides": [1, 1], "padding": "same", "data_format": "channels_last", "dilation_rate": [1, 1], "activation": "linear", "use_bias": false, "bias_initializer": {"class_name": "Zeros", "config": {}}, "bias_regularizer": null, "activity_regularizer": null, "bias_constraint": null, "depth_multiplier": 1, "depthwise_initializer": {"class_name": "VarianceScaling", "config": {"scale": 1.0, "mode": "fan_avg", "distribution": "uniform", "seed": null}}, "depthwise_regularizer": null, "depthwise_constraint": null}, "inbound_nodes": [[["detection_conv6_2_conv_pw_1_relu", 0, 0, {}]]]}, {"name": "detection_conv7_2_mbox_loc_conv_dw_4", "class_name": "DepthwiseConv2D", "config": {"name": "detection_conv7_2_mbox_loc_conv_dw_4", "trainable": true, "kernel_size": [3, 3], "strides": [1, 1], "padding": "same", "data_format": "channels_last", "dilation_rate": [1, 1], "activation": "linear", "use_bias": false, "bias_initializer": {"class_name": "Zeros", "config": {}}, "bias_regularizer": null, "activity_regularizer": null, "bias_constraint": null, "depth_multiplier": 1, "depthwise_initializer": {"class_name": "VarianceScaling", "config": {"scale": 1.0, "mode": "fan_avg", "distribution": "uniform", "seed": null}}, "depthwise_regularizer": null, "depthwise_constraint": null}, "inbound_nodes": [[["detection_conv7_2_conv_pw_2_relu", 0, 0, {}]]]}, {"name": "detection_conv8_2_mbox_loc_conv_dw_5", "class_name": "DepthwiseConv2D", "config": {"name": "detection_conv8_2_mbox_loc_conv_dw_5", "trainable": true, "kernel_size": [3, 3], "strides": [1, 1], "padding": "same", "data_format": "channels_last", "dilation_rate": [1, 1], "activation": "linear", "use_bias": false, "bias_initializer": {"class_name": "Zeros", "config": {}}, "bias_regularizer": null, "activity_regularizer": null, "bias_constraint": null, "depth_multiplier": 1, "depthwise_initializer": {"class_name": "VarianceScaling", "config": {"scale": 1.0, "mode": "fan_avg", "distribution": "uniform", "seed": null}}, "depthwise_regularizer": null, "depthwise_constraint": null}, "inbound_nodes": [[["detection_conv8_2_conv_pw_3_relu", 0, 0, {}]]]}, {"name": "detection_conv9_2_mbox_loc_conv_dw_5", "class_name": "DepthwiseConv2D", "config": {"name": "detection_conv9_2_mbox_loc_conv_dw_5", "trainable": true, "kernel_size": [3, 3], "strides": [1, 1], "padding": "same", "data_format": "channels_last", "dilation_rate": [1, 1], "activation": "linear", "use_bias": false, "bias_initializer": {"class_name": "Zeros", "config": {}}, "bias_regularizer": null, "activity_regularizer": null, "bias_constraint": null, "depth_multiplier": 1, "depthwise_initializer": {"class_name": "VarianceScaling", "config": {"scale": 1.0, "mode": "fan_avg", "distribution": "uniform", "seed": null}}, "depthwise_regularizer": null, "depthwise_constraint": null}, "inbound_nodes": [[["detection_conv9_2_conv_pw_4_relu", 0, 0, {}]]]}, {"name": "detection_conv4_3_norm_mbox_conf_conv_dw_1_relu", "class_name": "Activation", "config": {"name": "detection_conv4_3_norm_mbox_conf_conv_dw_1_relu", "trainable": true, "activation": "relu6"}, "inbound_nodes": [[["detection_conv4_3_norm_mbox_conf_conv_dw_1_bn", 0, 0, {}]]]}, {"name": "detection_fc7_mbox_conf_conv_dw_2_relu", "class_name": "Activation", "config": {"name": "detection_fc7_mbox_conf_conv_dw_2_relu", "trainable": true, "activation": "relu6"}, "inbound_nodes": [[["detection_fc7_mbox_conf_conv_dw_2_bn", 0, 0, {}]]]}, {"name": "detection_conv6_2_mbox_conf_conv_dw_3_relu", "class_name": "Activation", "config": {"name": "detection_conv6_2_mbox_conf_conv_dw_3_relu", "trainable": true, "activation": "relu6"}, "inbound_nodes": [[["detection_conv6_2_mbox_conf_conv_dw_3_bn", 0, 0, {}]]]}, {"name": "detection_conv7_2_mbox_conf_conv_dw_4_relu", "class_name": "Activation", "config": {"name": "detection_conv7_2_mbox_conf_conv_dw_4_relu", "trainable": true, "activation": "relu6"}, "inbound_nodes": [[["detection_conv7_2_mbox_conf_conv_dw_4_bn", 0, 0, {}]]]}, {"name": "detection_conv8_2_mbox_conf_conv_dw_5_relu", "class_name": "Activation", "config": {"name": "detection_conv8_2_mbox_conf_conv_dw_5_relu", "trainable": true, "activation": "relu6"}, "inbound_nodes": [[["detection_conv8_2_mbox_conf_conv_dw_5_bn", 0, 0, {}]]]}, {"name": "detection_conv9_2_mbox_conf_conv_dw_6_relu", "class_name": "Activation", "config": {"name": "detection_conv9_2_mbox_conf_conv_dw_6_relu", "trainable": true, "activation": "relu6"}, "inbound_nodes": [[["detection_conv9_2_mbox_conf_conv_dw_6_bn", 0, 0, {}]]]}, {"name": "detection_conv4_3_norm_mbox_loc_conv_dw_1_bn", "class_name": "BatchNormalization", "config": {"name": "detection_conv4_3_norm_mbox_loc_conv_dw_1_bn", "trainable": true, "axis": -1, "momentum": 0.99, "epsilon": 0.001, "center": true, "scale": true, "beta_initializer": {"class_name": "Zeros", "config": {}}, "gamma_initializer": {"class_name": "Ones", "config": {}}, "moving_mean_initializer": {"class_name": "Zeros", "config": {}}, "moving_variance_initializer": {"class_name": "Ones", "config": {}}, "beta_regularizer": null, "gamma_regularizer": null, "beta_constraint": null, "gamma_constraint": null}, "inbound_nodes": [[["detection_conv4_3_norm_mbox_loc_conv_dw_1", 0, 0, {}]]]}, {"name": "detection_fc7_mbox_loc_conv_dw_2_bn", "class_name": "BatchNormalization", "config": {"name": "detection_fc7_mbox_loc_conv_dw_2_bn", "trainable": true, "axis": -1, "momentum": 0.99, "epsilon": 0.001, "center": true, "scale": true, "beta_initializer": {"class_name": "Zeros", "config": {}}, "gamma_initializer": {"class_name": "Ones", "config": {}}, "moving_mean_initializer": {"class_name": "Zeros", "config": {}}, "moving_variance_initializer": {"class_name": "Ones", "config": {}}, "beta_regularizer": null, "gamma_regularizer": null, "beta_constraint": null, "gamma_constraint": null}, "inbound_nodes": [[["detection_fc7_mbox_loc_conv_dw_2", 0, 0, {}]]]}, {"name": "detection_conv6_2_mbox_loc_conv_dw_3_bn", "class_name": "BatchNormalization", "config": {"name": "detection_conv6_2_mbox_loc_conv_dw_3_bn", "trainable": true, "axis": -1, "momentum": 0.99, "epsilon": 0.001, "center": true, "scale": true, "beta_initializer": {"class_name": "Zeros", "config": {}}, "gamma_initializer": {"class_name": "Ones", "config": {}}, "moving_mean_initializer": {"class_name": "Zeros", "config": {}}, "moving_variance_initializer": {"class_name": "Ones", "config": {}}, "beta_regularizer": null, "gamma_regularizer": null, "beta_constraint": null, "gamma_constraint": null}, "inbound_nodes": [[["detection_conv6_2_mbox_loc_conv_dw_3", 0, 0, {}]]]}, {"name": "detection_conv7_2_mbox_loc_conv_dw_4_bn", "class_name": "BatchNormalization", "config": {"name": "detection_conv7_2_mbox_loc_conv_dw_4_bn", "trainable": true, "axis": -1, "momentum": 0.99, "epsilon": 0.001, "center": true, "scale": true, "beta_initializer": {"class_name": "Zeros", "config": {}}, "gamma_initializer": {"class_name": "Ones", "config": {}}, "moving_mean_initializer": {"class_name": "Zeros", "config": {}}, "moving_variance_initializer": {"class_name": "Ones", "config": {}}, "beta_regularizer": null, "gamma_regularizer": null, "beta_constraint": null, "gamma_constraint": null}, "inbound_nodes": [[["detection_conv7_2_mbox_loc_conv_dw_4", 0, 0, {}]]]}, {"name": "detection_conv8_2_mbox_loc_conv_dw_5_bn", "class_name": "BatchNormalization", "config": {"name": "detection_conv8_2_mbox_loc_conv_dw_5_bn", "trainable": true, "axis": -1, "momentum": 0.99, "epsilon": 0.001, "center": true, "scale": true, "beta_initializer": {"class_name": "Zeros", "config": {}}, "gamma_initializer": {"class_name": "Ones", "config": {}}, "moving_mean_initializer": {"class_name": "Zeros", "config": {}}, "moving_variance_initializer": {"class_name": "Ones", "config": {}}, "beta_regularizer": null, "gamma_regularizer": null, "beta_constraint": null, "gamma_constraint": null}, "inbound_nodes": [[["detection_conv8_2_mbox_loc_conv_dw_5", 0, 0, {}]]]}, {"name": "detection_conv9_2_mbox_loc_conv_dw_5_bn", "class_name": "BatchNormalization", "config": {"name": "detection_conv9_2_mbox_loc_conv_dw_5_bn", "trainable": true, "axis": -1, "momentum": 0.99, "epsilon": 0.001, "center": true, "scale": true, "beta_initializer": {"class_name": "Zeros", "config": {}}, "gamma_initializer": {"class_name": "Ones", "config": {}}, "moving_mean_initializer": {"class_name": "Zeros", "config": {}}, "moving_variance_initializer": {"class_name": "Ones", "config": {}}, "beta_regularizer": null, "gamma_regularizer": null, "beta_constraint": null, "gamma_constraint": null}, "inbound_nodes": [[["detection_conv9_2_mbox_loc_conv_dw_5", 0, 0, {}]]]}, {"name": "detection_conv4_3_norm_mbox_conf_conv_pw_1", "class_name": "Conv2D", "config": {"name": "detection_conv4_3_norm_mbox_conf_conv_pw_1", "trainable": true, "filters": 8, "kernel_size": [1, 1], "strides": [1, 1], "padding": "same", "data_format": "channels_last", "dilation_rate": [1, 1], "activation": "linear", "use_bias": false, "kernel_initializer": {"class_name": "VarianceScaling", "config": {"scale": 1.0, "mode": "fan_avg", "distribution": "uniform", "seed": null}}, "bias_initializer": {"class_name": "Zeros", "config": {}}, "kernel_regularizer": null, "bias_regularizer": null, "activity_regularizer": null, "kernel_constraint": null, "bias_constraint": null}, "inbound_nodes": [[["detection_conv4_3_norm_mbox_conf_conv_dw_1_relu", 0, 0, {}]]]}, {"name": "detection_fc7_mbox_conf_conv_pw_2", "class_name": "Conv2D", "config": {"name": "detection_fc7_mbox_conf_conv_pw_2", "trainable": true, "filters": 12, "kernel_size": [1, 1], "strides": [1, 1], "padding": "same", "data_format": "channels_last", "dilation_rate": [1, 1], "activation": "linear", "use_bias": false, "kernel_initializer": {"class_name": "VarianceScaling", "config": {"scale": 1.0, "mode": "fan_avg", "distribution": "uniform", "seed": null}}, "bias_initializer": {"class_name": "Zeros", "config": {}}, "kernel_regularizer": null, "bias_regularizer": null, "activity_regularizer": null, "kernel_constraint": null, "bias_constraint": null}, "inbound_nodes": [[["detection_fc7_mbox_conf_conv_dw_2_relu", 0, 0, {}]]]}, {"name": "detection_conv6_2_mbox_conf_conv_pw_3", "class_name": "Conv2D", "config": {"name": "detection_conv6_2_mbox_conf_conv_pw_3", "trainable": true, "filters": 12, "kernel_size": [1, 1], "strides": [1, 1], "padding": "same", "data_format": "channels_last", "dilation_rate": [1, 1], "activation": "linear", "use_bias": false, "kernel_initializer": {"class_name": "VarianceScaling", "config": {"scale": 1.0, "mode": "fan_avg", "distribution": "uniform", "seed": null}}, "bias_initializer": {"class_name": "Zeros", "config": {}}, "kernel_regularizer": null, "bias_regularizer": null, "activity_regularizer": null, "kernel_constraint": null, "bias_constraint": null}, "inbound_nodes": [[["detection_conv6_2_mbox_conf_conv_dw_3_relu", 0, 0, {}]]]}, {"name": "detection_conv7_2_mbox_conf_conv_pw_4", "class_name": "Conv2D", "config": {"name": "detection_conv7_2_mbox_conf_conv_pw_4", "trainable": true, "filters": 12, "kernel_size": [1, 1], "strides": [1, 1], "padding": "same", "data_format": "channels_last", "dilation_rate": [1, 1], "activation": "linear", "use_bias": false, "kernel_initializer": {"class_name": "VarianceScaling", "config": {"scale": 1.0, "mode": "fan_avg", "distribution": "uniform", "seed": null}}, "bias_initializer": {"class_name": "Zeros", "config": {}}, "kernel_regularizer": null, "bias_regularizer": null, "activity_regularizer": null, "kernel_constraint": null, "bias_constraint": null}, "inbound_nodes": [[["detection_conv7_2_mbox_conf_conv_dw_4_relu", 0, 0, {}]]]}, {"name": "detection_conv8_2_mbox_conf_conv_pw_5", "class_name": "Conv2D", "config": {"name": "detection_conv8_2_mbox_conf_conv_pw_5", "trainable": true, "filters": 8, "kernel_size": [1, 1], "strides": [1, 1], "padding": "same", "data_format": "channels_last", "dilation_rate": [1, 1], "activation": "linear", "use_bias": false, "kernel_initializer": {"class_name": "VarianceScaling", "config": {"scale": 1.0, "mode": "fan_avg", "distribution": "uniform", "seed": null}}, "bias_initializer": {"class_name": "Zeros", "config": {}}, "kernel_regularizer": null, "bias_regularizer": null, "activity_regularizer": null, "kernel_constraint": null, "bias_constraint": null}, "inbound_nodes": [[["detection_conv8_2_mbox_conf_conv_dw_5_relu", 0, 0, {}]]]}, {"name": "detection_conv9_2_mbox_conf_conv_pw_6", "class_name": "Conv2D", "config": {"name": "detection_conv9_2_mbox_conf_conv_pw_6", "trainable": true, "filters": 8, "kernel_size": [1, 1], "strides": [1, 1], "padding": "same", "data_format": "channels_last", "dilation_rate": [1, 1], "activation": "linear", "use_bias": false, "kernel_initializer": {"class_name": "VarianceScaling", "config": {"scale": 1.0, "mode": "fan_avg", "distribution": "uniform", "seed": null}}, "bias_initializer": {"class_name": "Zeros", "config": {}}, "kernel_regularizer": null, "bias_regularizer": null, "activity_regularizer": null, "kernel_constraint": null, "bias_constraint": null}, "inbound_nodes": [[["detection_conv9_2_mbox_conf_conv_dw_6_relu", 0, 0, {}]]]}, {"name": "detection_conv4_3_norm_mbox_loc_conv_dw_1_relu", "class_name": "Activation", "config": {"name": "detection_conv4_3_norm_mbox_loc_conv_dw_1_relu", "trainable": true, "activation": "relu6"}, "inbound_nodes": [[["detection_conv4_3_norm_mbox_loc_conv_dw_1_bn", 0, 0, {}]]]}, {"name": "detection_fc7_mbox_loc_conv_dw_2_relu", "class_name": "Activation", "config": {"name": "detection_fc7_mbox_loc_conv_dw_2_relu", "trainable": true, "activation": "relu6"}, "inbound_nodes": [[["detection_fc7_mbox_loc_conv_dw_2_bn", 0, 0, {}]]]}, {"name": "detection_conv6_2_mbox_loc_conv_dw_3_relu", "class_name": "Activation", "config": {"name": "detection_conv6_2_mbox_loc_conv_dw_3_relu", "trainable": true, "activation": "relu6"}, "inbound_nodes": [[["detection_conv6_2_mbox_loc_conv_dw_3_bn", 0, 0, {}]]]}, {"name": "detection_conv7_2_mbox_loc_conv_dw_4_relu", "class_name": "Activation", "config": {"name": "detection_conv7_2_mbox_loc_conv_dw_4_relu", "trainable": true, "activation": "relu6"}, "inbound_nodes": [[["detection_conv7_2_mbox_loc_conv_dw_4_bn", 0, 0, {}]]]}, {"name": "detection_conv8_2_mbox_loc_conv_dw_5_relu", "class_name": "Activation", "config": {"name": "detection_conv8_2_mbox_loc_conv_dw_5_relu", "trainable": true, "activation": "relu6"}, "inbound_nodes": [[["detection_conv8_2_mbox_loc_conv_dw_5_bn", 0, 0, {}]]]}, {"name": "detection_conv9_2_mbox_loc_conv_dw_5_relu", "class_name": "Activation", "config": {"name": "detection_conv9_2_mbox_loc_conv_dw_5_relu", "trainable": true, "activation": "relu6"}, "inbound_nodes": [[["detection_conv9_2_mbox_loc_conv_dw_5_bn", 0, 0, {}]]]}, {"name": "detection_conv4_3_norm_mbox_conf_conv_pw_1_bn", "class_name": "BatchNormalization", "config": {"name": "detection_conv4_3_norm_mbox_conf_conv_pw_1_bn", "trainable": true, "axis": -1, "momentum": 0.99, "epsilon": 0.001, "center": true, "scale": true, "beta_initializer": {"class_name": "Zeros", "config": {}}, "gamma_initializer": {"class_name": "Ones", "config": {}}, "moving_mean_initializer": {"class_name": "Zeros", "config": {}}, "moving_variance_initializer": {"class_name": "Ones", "config": {}}, "beta_regularizer": null, "gamma_regularizer": null, "beta_constraint": null, "gamma_constraint": null}, "inbound_nodes": [[["detection_conv4_3_norm_mbox_conf_conv_pw_1", 0, 0, {}]]]}, {"name": "detection_fc7_mbox_conf_conv_pw_2_bn", "class_name": "BatchNormalization", "config": {"name": "detection_fc7_mbox_conf_conv_pw_2_bn", "trainable": true, "axis": -1, "momentum": 0.99, "epsilon": 0.001, "center": true, "scale": true, "beta_initializer": {"class_name": "Zeros", "config": {}}, "gamma_initializer": {"class_name": "Ones", "config": {}}, "moving_mean_initializer": {"class_name": "Zeros", "config": {}}, "moving_variance_initializer": {"class_name": "Ones", "config": {}}, "beta_regularizer": null, "gamma_regularizer": null, "beta_constraint": null, "gamma_constraint": null}, "inbound_nodes": [[["detection_fc7_mbox_conf_conv_pw_2", 0, 0, {}]]]}, {"name": "detection_conv6_2_mbox_conf_conv_pw_3_bn", "class_name": "BatchNormalization", "config": {"name": "detection_conv6_2_mbox_conf_conv_pw_3_bn", "trainable": true, "axis": -1, "momentum": 0.99, "epsilon": 0.001, "center": true, "scale": true, "beta_initializer": {"class_name": "Zeros", "config": {}}, "gamma_initializer": {"class_name": "Ones", "config": {}}, "moving_mean_initializer": {"class_name": "Zeros", "config": {}}, "moving_variance_initializer": {"class_name": "Ones", "config": {}}, "beta_regularizer": null, "gamma_regularizer": null, "beta_constraint": null, "gamma_constraint": null}, "inbound_nodes": [[["detection_conv6_2_mbox_conf_conv_pw_3", 0, 0, {}]]]}, {"name": "detection_conv7_2_mbox_conf_conv_pw_4_bn", "class_name": "BatchNormalization", "config": {"name": "detection_conv7_2_mbox_conf_conv_pw_4_bn", "trainable": true, "axis": -1, "momentum": 0.99, "epsilon": 0.001, "center": true, "scale": true, "beta_initializer": {"class_name": "Zeros", "config": {}}, "gamma_initializer": {"class_name": "Ones", "config": {}}, "moving_mean_initializer": {"class_name": "Zeros", "config": {}}, "moving_variance_initializer": {"class_name": "Ones", "config": {}}, "beta_regularizer": null, "gamma_regularizer": null, "beta_constraint": null, "gamma_constraint": null}, "inbound_nodes": [[["detection_conv7_2_mbox_conf_conv_pw_4", 0, 0, {}]]]}, {"name": "detection_conv8_2_mbox_conf_conv_pw_5_bn", "class_name": "BatchNormalization", "config": {"name": "detection_conv8_2_mbox_conf_conv_pw_5_bn", "trainable": true, "axis": -1, "momentum": 0.99, "epsilon": 0.001, "center": true, "scale": true, "beta_initializer": {"class_name": "Zeros", "config": {}}, "gamma_initializer": {"class_name": "Ones", "config": {}}, "moving_mean_initializer": {"class_name": "Zeros", "config": {}}, "moving_variance_initializer": {"class_name": "Ones", "config": {}}, "beta_regularizer": null, "gamma_regularizer": null, "beta_constraint": null, "gamma_constraint": null}, "inbound_nodes": [[["detection_conv8_2_mbox_conf_conv_pw_5", 0, 0, {}]]]}, {"name": "detection_conv9_2_mbox_conf_conv_pw_6_bn", "class_name": "BatchNormalization", "config": {"name": "detection_conv9_2_mbox_conf_conv_pw_6_bn", "trainable": true, "axis": -1, "momentum": 0.99, "epsilon": 0.001, "center": true, "scale": true, "beta_initializer": {"class_name": "Zeros", "config": {}}, "gamma_initializer": {"class_name": "Ones", "config": {}}, "moving_mean_initializer": {"class_name": "Zeros", "config": {}}, "moving_variance_initializer": {"class_name": "Ones", "config": {}}, "beta_regularizer": null, "gamma_regularizer": null, "beta_constraint": null, "gamma_constraint": null}, "inbound_nodes": [[["detection_conv9_2_mbox_conf_conv_pw_6", 0, 0, {}]]]}, {"name": "detection_conv4_3_norm_mbox_loc_conv_pw_1", "class_name": "Conv2D", "config": {"name": "detection_conv4_3_norm_mbox_loc_conv_pw_1", "trainable": true, "filters": 16, "kernel_size": [1, 1], "strides": [1, 1], "padding": "same", "data_format": "channels_last", "dilation_rate": [1, 1], "activation": "linear", "use_bias": false, "kernel_initializer": {"class_name": "VarianceScaling", "config": {"scale": 1.0, "mode": "fan_avg", "distribution": "uniform", "seed": null}}, "bias_initializer": {"class_name": "Zeros", "config": {}}, "kernel_regularizer": null, "bias_regularizer": null, "activity_regularizer": null, "kernel_constraint": null, "bias_constraint": null}, "inbound_nodes": [[["detection_conv4_3_norm_mbox_loc_conv_dw_1_relu", 0, 0, {}]]]}, {"name": "detection_fc7_mbox_loc_conv_pw_2", "class_name": "Conv2D", "config": {"name": "detection_fc7_mbox_loc_conv_pw_2", "trainable": true, "filters": 24, "kernel_size": [1, 1], "strides": [1, 1], "padding": "same", "data_format": "channels_last", "dilation_rate": [1, 1], "activation": "linear", "use_bias": false, "kernel_initializer": {"class_name": "VarianceScaling", "config": {"scale": 1.0, "mode": "fan_avg", "distribution": "uniform", "seed": null}}, "bias_initializer": {"class_name": "Zeros", "config": {}}, "kernel_regularizer": null, "bias_regularizer": null, "activity_regularizer": null, "kernel_constraint": null, "bias_constraint": null}, "inbound_nodes": [[["detection_fc7_mbox_loc_conv_dw_2_relu", 0, 0, {}]]]}, {"name": "detection_conv6_2_mbox_loc_conv_pw_3", "class_name": "Conv2D", "config": {"name": "detection_conv6_2_mbox_loc_conv_pw_3", "trainable": true, "filters": 24, "kernel_size": [1, 1], "strides": [1, 1], "padding": "same", "data_format": "channels_last", "dilation_rate": [1, 1], "activation": "linear", "use_bias": false, "kernel_initializer": {"class_name": "VarianceScaling", "config": {"scale": 1.0, "mode": "fan_avg", "distribution": "uniform", "seed": null}}, "bias_initializer": {"class_name": "Zeros", "config": {}}, "kernel_regularizer": null, "bias_regularizer": null, "activity_regularizer": null, "kernel_constraint": null, "bias_constraint": null}, "inbound_nodes": [[["detection_conv6_2_mbox_loc_conv_dw_3_relu", 0, 0, {}]]]}, {"name": "detection_conv7_2_mbox_loc_conv_pw_4", "class_name": "Conv2D", "config": {"name": "detection_conv7_2_mbox_loc_conv_pw_4", "trainable": true, "filters": 24, "kernel_size": [1, 1], "strides": [1, 1], "padding": "same", "data_format": "channels_last", "dilation_rate": [1, 1], "activation": "linear", "use_bias": false, "kernel_initializer": {"class_name": "VarianceScaling", "config": {"scale": 1.0, "mode": "fan_avg", "distribution": "uniform", "seed": null}}, "bias_initializer": {"class_name": "Zeros", "config": {}}, "kernel_regularizer": null, "bias_regularizer": null, "activity_regularizer": null, "kernel_constraint": null, "bias_constraint": null}, "inbound_nodes": [[["detection_conv7_2_mbox_loc_conv_dw_4_relu", 0, 0, {}]]]}, {"name": "detection_conv8_2_mbox_loc_conv_pw_5", "class_name": "Conv2D", "config": {"name": "detection_conv8_2_mbox_loc_conv_pw_5", "trainable": true, "filters": 16, "kernel_size": [1, 1], "strides": [1, 1], "padding": "same", "data_format": "channels_last", "dilation_rate": [1, 1], "activation": "linear", "use_bias": false, "kernel_initializer": {"class_name": "VarianceScaling", "config": {"scale": 1.0, "mode": "fan_avg", "distribution": "uniform", "seed": null}}, "bias_initializer": {"class_name": "Zeros", "config": {}}, "kernel_regularizer": null, "bias_regularizer": null, "activity_regularizer": null, "kernel_constraint": null, "bias_constraint": null}, "inbound_nodes": [[["detection_conv8_2_mbox_loc_conv_dw_5_relu", 0, 0, {}]]]}, {"name": "detection_conv9_2_mbox_loc_conv_pw_5", "class_name": "Conv2D", "config": {"name": "detection_conv9_2_mbox_loc_conv_pw_5", "trainable": true, "filters": 16, "kernel_size": [1, 1], "strides": [1, 1], "padding": "same", "data_format": "channels_last", "dilation_rate": [1, 1], "activation": "linear", "use_bias": false, "kernel_initializer": {"class_name": "VarianceScaling", "config": {"scale": 1.0, "mode": "fan_avg", "distribution": "uniform", "seed": null}}, "bias_initializer": {"class_name": "Zeros", "config": {}}, "kernel_regularizer": null, "bias_regularizer": null, "activity_regularizer": null, "kernel_constraint": null, "bias_constraint": null}, "inbound_nodes": [[["detection_conv9_2_mbox_loc_conv_dw_5_relu", 0, 0, {}]]]}, {"name": "detection_conv4_3_norm_mbox_conf_conv_pw_1_relu", "class_name": "Activation", "config": {"name": "detection_conv4_3_norm_mbox_conf_conv_pw_1_relu", "trainable": true, "activation": "relu6"}, "inbound_nodes": [[["detection_conv4_3_norm_mbox_conf_conv_pw_1_bn", 0, 0, {}]]]}, {"name": "detection_fc7_mbox_conf_conv_pw_2_relu", "class_name": "Activation", "config": {"name": "detection_fc7_mbox_conf_conv_pw_2_relu", "trainable": true, "activation": "relu6"}, "inbound_nodes": [[["detection_fc7_mbox_conf_conv_pw_2_bn", 0, 0, {}]]]}, {"name": "detection_conv6_2_mbox_conf_conv_pw_3_relu", "class_name": "Activation", "config": {"name": "detection_conv6_2_mbox_conf_conv_pw_3_relu", "trainable": true, "activation": "relu6"}, "inbound_nodes": [[["detection_conv6_2_mbox_conf_conv_pw_3_bn", 0, 0, {}]]]}, {"name": "detection_conv7_2_mbox_conf_conv_pw_4_relu", "class_name": "Activation", "config": {"name": "detection_conv7_2_mbox_conf_conv_pw_4_relu", "trainable": true, "activation": "relu6"}, "inbound_nodes": [[["detection_conv7_2_mbox_conf_conv_pw_4_bn", 0, 0, {}]]]}, {"name": "detection_conv8_2_mbox_conf_conv_pw_5_relu", "class_name": "Activation", "config": {"name": "detection_conv8_2_mbox_conf_conv_pw_5_relu", "trainable": true, "activation": "relu6"}, "inbound_nodes": [[["detection_conv8_2_mbox_conf_conv_pw_5_bn", 0, 0, {}]]]}, {"name": "detection_conv9_2_mbox_conf_conv_pw_6_relu", "class_name": "Activation", "config": {"name": "detection_conv9_2_mbox_conf_conv_pw_6_relu", "trainable": true, "activation": "relu6"}, "inbound_nodes": [[["detection_conv9_2_mbox_conf_conv_pw_6_bn", 0, 0, {}]]]}, {"name": "detection_conv4_3_norm_mbox_loc_conv_pw_1_bn", "class_name": "BatchNormalization", "config": {"name": "detection_conv4_3_norm_mbox_loc_conv_pw_1_bn", "trainable": true, "axis": -1, "momentum": 0.99, "epsilon": 0.001, "center": true, "scale": true, "beta_initializer": {"class_name": "Zeros", "config": {}}, "gamma_initializer": {"class_name": "Ones", "config": {}}, "moving_mean_initializer": {"class_name": "Zeros", "config": {}}, "moving_variance_initializer": {"class_name": "Ones", "config": {}}, "beta_regularizer": null, "gamma_regularizer": null, "beta_constraint": null, "gamma_constraint": null}, "inbound_nodes": [[["detection_conv4_3_norm_mbox_loc_conv_pw_1", 0, 0, {}]]]}, {"name": "detection_fc7_mbox_loc_conv_pw_2_bn", "class_name": "BatchNormalization", "config": {"name": "detection_fc7_mbox_loc_conv_pw_2_bn", "trainable": true, "axis": -1, "momentum": 0.99, "epsilon": 0.001, "center": true, "scale": true, "beta_initializer": {"class_name": "Zeros", "config": {}}, "gamma_initializer": {"class_name": "Ones", "config": {}}, "moving_mean_initializer": {"class_name": "Zeros", "config": {}}, "moving_variance_initializer": {"class_name": "Ones", "config": {}}, "beta_regularizer": null, "gamma_regularizer": null, "beta_constraint": null, "gamma_constraint": null}, "inbound_nodes": [[["detection_fc7_mbox_loc_conv_pw_2", 0, 0, {}]]]}, {"name": "detection_conv6_2_mbox_loc_conv_pw_3_bn", "class_name": "BatchNormalization", "config": {"name": "detection_conv6_2_mbox_loc_conv_pw_3_bn", "trainable": true, "axis": -1, "momentum": 0.99, "epsilon": 0.001, "center": true, "scale": true, "beta_initializer": {"class_name": "Zeros", "config": {}}, "gamma_initializer": {"class_name": "Ones", "config": {}}, "moving_mean_initializer": {"class_name": "Zeros", "config": {}}, "moving_variance_initializer": {"class_name": "Ones", "config": {}}, "beta_regularizer": null, "gamma_regularizer": null, "beta_constraint": null, "gamma_constraint": null}, "inbound_nodes": [[["detection_conv6_2_mbox_loc_conv_pw_3", 0, 0, {}]]]}, {"name": "detection_conv7_2_mbox_loc_conv_pw_4_bn", "class_name": "BatchNormalization", "config": {"name": "detection_conv7_2_mbox_loc_conv_pw_4_bn", "trainable": true, "axis": -1, "momentum": 0.99, "epsilon": 0.001, "center": true, "scale": true, "beta_initializer": {"class_name": "Zeros", "config": {}}, "gamma_initializer": {"class_name": "Ones", "config": {}}, "moving_mean_initializer": {"class_name": "Zeros", "config": {}}, "moving_variance_initializer": {"class_name": "Ones", "config": {}}, "beta_regularizer": null, "gamma_regularizer": null, "beta_constraint": null, "gamma_constraint": null}, "inbound_nodes": [[["detection_conv7_2_mbox_loc_conv_pw_4", 0, 0, {}]]]}, {"name": "detection_conv8_2_mbox_loc_conv_pw_5_bn", "class_name": "BatchNormalization", "config": {"name": "detection_conv8_2_mbox_loc_conv_pw_5_bn", "trainable": true, "axis": -1, "momentum": 0.99, "epsilon": 0.001, "center": true, "scale": true, "beta_initializer": {"class_name": "Zeros", "config": {}}, "gamma_initializer": {"class_name": "Ones", "config": {}}, "moving_mean_initializer": {"class_name": "Zeros", "config": {}}, "moving_variance_initializer": {"class_name": "Ones", "config": {}}, "beta_regularizer": null, "gamma_regularizer": null, "beta_constraint": null, "gamma_constraint": null}, "inbound_nodes": [[["detection_conv8_2_mbox_loc_conv_pw_5", 0, 0, {}]]]}, {"name": "detection_conv9_2_mbox_loc_conv_pw_5_bn", "class_name": "BatchNormalization", "config": {"name": "detection_conv9_2_mbox_loc_conv_pw_5_bn", "trainable": true, "axis": -1, "momentum": 0.99, "epsilon": 0.001, "center": true, "scale": true, "beta_initializer": {"class_name": "Zeros", "config": {}}, "gamma_initializer": {"class_name": "Ones", "config": {}}, "moving_mean_initializer": {"class_name": "Zeros", "config": {}}, "moving_variance_initializer": {"class_name": "Ones", "config": {}}, "beta_regularizer": null, "gamma_regularizer": null, "beta_constraint": null, "gamma_constraint": null}, "inbound_nodes": [[["detection_conv9_2_mbox_loc_conv_pw_5", 0, 0, {}]]]}, {"name": "detection_conv4_3_norm_mbox_conf_reshape", "class_name": "Reshape", "config": {"name": "detection_conv4_3_norm_mbox_conf_reshape", "trainable": true, "target_shape": [-1, 2]}, "inbound_nodes": [[["detection_conv4_3_norm_mbox_conf_conv_pw_1_relu", 0, 0, {}]]]}, {"name": "detection_fc7_mbox_conf_reshape", "class_name": "Reshape", "config": {"name": "detection_fc7_mbox_conf_reshape", "trainable": true, "target_shape": [-1, 2]}, "inbound_nodes": [[["detection_fc7_mbox_conf_conv_pw_2_relu", 0, 0, {}]]]}, {"name": "detection_conv6_2_mbox_conf_reshape", "class_name": "Reshape", "config": {"name": "detection_conv6_2_mbox_conf_reshape", "trainable": true, "target_shape": [-1, 2]}, "inbound_nodes": [[["detection_conv6_2_mbox_conf_conv_pw_3_relu", 0, 0, {}]]]}, {"name": "detection_conv7_2_mbox_conf_reshape", "class_name": "Reshape", "config": {"name": "detection_conv7_2_mbox_conf_reshape", "trainable": true, "target_shape": [-1, 2]}, "inbound_nodes": [[["detection_conv7_2_mbox_conf_conv_pw_4_relu", 0, 0, {}]]]}, {"name": "detection_conv8_2_mbox_conf_reshape", "class_name": "Reshape", "config": {"name": "detection_conv8_2_mbox_conf_reshape", "trainable": true, "target_shape": [-1, 2]}, "inbound_nodes": [[["detection_conv8_2_mbox_conf_conv_pw_5_relu", 0, 0, {}]]]}, {"name": "detection_conv9_2_mbox_conf_reshape", "class_name": "Reshape", "config": {"name": "detection_conv9_2_mbox_conf_reshape", "trainable": true, "target_shape": [-1, 2]}, "inbound_nodes": [[["detection_conv9_2_mbox_conf_conv_pw_6_relu", 0, 0, {}]]]}, {"name": "detection_conv4_3_norm_mbox_loc_conv_pw_1_relu", "class_name": "Activation", "config": {"name": "detection_conv4_3_norm_mbox_loc_conv_pw_1_relu", "trainable": true, "activation": "relu6"}, "inbound_nodes": [[["detection_conv4_3_norm_mbox_loc_conv_pw_1_bn", 0, 0, {}]]]}, {"name": "detection_fc7_mbox_loc_conv_pw_2_relu", "class_name": "Activation", "config": {"name": "detection_fc7_mbox_loc_conv_pw_2_relu", "trainable": true, "activation": "relu6"}, "inbound_nodes": [[["detection_fc7_mbox_loc_conv_pw_2_bn", 0, 0, {}]]]}, {"name": "detection_conv6_2_mbox_loc_conv_pw_3_relu", "class_name": "Activation", "config": {"name": "detection_conv6_2_mbox_loc_conv_pw_3_relu", "trainable": true, "activation": "relu6"}, "inbound_nodes": [[["detection_conv6_2_mbox_loc_conv_pw_3_bn", 0, 0, {}]]]}, {"name": "detection_conv7_2_mbox_loc_conv_pw_4_relu", "class_name": "Activation", "config": {"name": "detection_conv7_2_mbox_loc_conv_pw_4_relu", "trainable": true, "activation": "relu6"}, "inbound_nodes": [[["detection_conv7_2_mbox_loc_conv_pw_4_bn", 0, 0, {}]]]}, {"name": "detection_conv8_2_mbox_loc_conv_pw_5_relu", "class_name": "Activation", "config": {"name": "detection_conv8_2_mbox_loc_conv_pw_5_relu", "trainable": true, "activation": "relu6"}, "inbound_nodes": [[["detection_conv8_2_mbox_loc_conv_pw_5_bn", 0, 0, {}]]]}, {"name": "detection_conv9_2_mbox_loc_conv_pw_5_relu", "class_name": "Activation", "config": {"name": "detection_conv9_2_mbox_loc_conv_pw_5_relu", "trainable": true, "activation": "relu6"}, "inbound_nodes": [[["detection_conv9_2_mbox_loc_conv_pw_5_bn", 0, 0, {}]]]}, {"name": "detection_conv4_3_norm_mbox_priorbox", "class_name": "AnchorBoxes", "config": {"name": "detection_conv4_3_norm_mbox_priorbox", "trainable": true}, "inbound_nodes": [[["detection_conv4_3_norm", 0, 0, {}]]]}, {"name": "detection_fc7_mbox_priorbox", "class_name": "AnchorBoxes", "config": {"name": "detection_fc7_mbox_priorbox", "trainable": true}, "inbound_nodes": [[["conv_pw_13_relu", 0, 0, {}]]]}, {"name": "detection_conv6_2_mbox_priorbox", "class_name": "AnchorBoxes", "config": {"name": "detection_conv6_2_mbox_priorbox", "trainable": true}, "inbound_nodes": [[["detection_conv6_2_conv_pw_1_relu", 0, 0, {}]]]}, {"name": "detection_conv7_2_mbox_priorbox", "class_name": "AnchorBoxes", "config": {"name": "detection_conv7_2_mbox_priorbox", "trainable": true}, "inbound_nodes": [[["detection_conv7_2_conv_pw_2_relu", 0, 0, {}]]]}, {"name": "detection_conv8_2_mbox_priorbox", "class_name": "AnchorBoxes", "config": {"name": "detection_conv8_2_mbox_priorbox", "trainable": true}, "inbound_nodes": [[["detection_conv8_2_conv_pw_3_relu", 0, 0, {}]]]}, {"name": "detection_conv9_2_mbox_priorbox", "class_name": "AnchorBoxes", "config": {"name": "detection_conv9_2_mbox_priorbox", "trainable": true}, "inbound_nodes": [[["detection_conv9_2_conv_pw_4_relu", 0, 0, {}]]]}, {"name": "detection_mbox_conf", "class_name": "Concatenate", "config": {"name": "detection_mbox_conf", "trainable": true, "axis": 1}, "inbound_nodes": [[["detection_conv4_3_norm_mbox_conf_reshape", 0, 0, {}], ["detection_fc7_mbox_conf_reshape", 0, 0, {}], ["detection_conv6_2_mbox_conf_reshape", 0, 0, {}], ["detection_conv7_2_mbox_conf_reshape", 0, 0, {}], ["detection_conv8_2_mbox_conf_reshape", 0, 0, {}], ["detection_conv9_2_mbox_conf_reshape", 0, 0, {}]]]}, {"name": "detection_conv4_3_norm_mbox_loc_reshape", "class_name": "Reshape", "config": {"name": "detection_conv4_3_norm_mbox_loc_reshape", "trainable": true, "target_shape": [-1, 4]}, "inbound_nodes": [[["detection_conv4_3_norm_mbox_loc_conv_pw_1_relu", 0, 0, {}]]]}, {"name": "detection_fc7_mbox_loc_reshape", "class_name": "Reshape", "config": {"name": "detection_fc7_mbox_loc_reshape", "trainable": true, "target_shape": [-1, 4]}, "inbound_nodes": [[["detection_fc7_mbox_loc_conv_pw_2_relu", 0, 0, {}]]]}, {"name": "detection_conv6_2_mbox_loc_reshape", "class_name": "Reshape", "config": {"name": "detection_conv6_2_mbox_loc_reshape", "trainable": true, "target_shape": [-1, 4]}, "inbound_nodes": [[["detection_conv6_2_mbox_loc_conv_pw_3_relu", 0, 0, {}]]]}, {"name": "detection_conv7_2_mbox_loc_reshape", "class_name": "Reshape", "config": {"name": "detection_conv7_2_mbox_loc_reshape", "trainable": true, "target_shape": [-1, 4]}, "inbound_nodes": [[["detection_conv7_2_mbox_loc_conv_pw_4_relu", 0, 0, {}]]]}, {"name": "detection_conv8_2_mbox_loc_reshape", "class_name": "Reshape", "config": {"name": "detection_conv8_2_mbox_loc_reshape", "trainable": true, "target_shape": [-1, 4]}, "inbound_nodes": [[["detection_conv8_2_mbox_loc_conv_pw_5_relu", 0, 0, {}]]]}, {"name": "detection_conv9_2_mbox_loc_reshape", "class_name": "Reshape", "config": {"name": "detection_conv9_2_mbox_loc_reshape", "trainable": true, "target_shape": [-1, 4]}, "inbound_nodes": [[["detection_conv9_2_mbox_loc_conv_pw_5_relu", 0, 0, {}]]]}, {"name": "detection_conv4_3_norm_mbox_priorbox_reshape", "class_name": "Reshape", "config": {"name": "detection_conv4_3_norm_mbox_priorbox_reshape", "trainable": true, "target_shape": [-1, 8]}, "inbound_nodes": [[["detection_conv4_3_norm_mbox_priorbox", 0, 0, {}]]]}, {"name": "detection_fc7_mbox_priorbox_reshape", "class_name": "Reshape", "config": {"name": "detection_fc7_mbox_priorbox_reshape", "trainable": true, "target_shape": [-1, 8]}, "inbound_nodes": [[["detection_fc7_mbox_priorbox", 0, 0, {}]]]}, {"name": "detection_conv6_2_mbox_priorbox_reshape", "class_name": "Reshape", "config": {"name": "detection_conv6_2_mbox_priorbox_reshape", "trainable": true, "target_shape": [-1, 8]}, "inbound_nodes": [[["detection_conv6_2_mbox_priorbox", 0, 0, {}]]]}, {"name": "detection_conv7_2_mbox_priorbox_reshape", "class_name": "Reshape", "config": {"name": "detection_conv7_2_mbox_priorbox_reshape", "trainable": true, "target_shape": [-1, 8]}, "inbound_nodes": [[["detection_conv7_2_mbox_priorbox", 0, 0, {}]]]}, {"name": "detection_conv8_2_mbox_priorbox_reshape", "class_name": "Reshape", "config": {"name": "detection_conv8_2_mbox_priorbox_reshape", "trainable": true, "target_shape": [-1, 8]}, "inbound_nodes": [[["detection_conv8_2_mbox_priorbox", 0, 0, {}]]]}, {"name": "detection_conv9_2_mbox_priorbox_reshape", "class_name": "Reshape", "config": {"name": "detection_conv9_2_mbox_priorbox_reshape", "trainable": true, "target_shape": [-1, 8]}, "inbound_nodes": [[["detection_conv9_2_mbox_priorbox", 0, 0, {}]]]}, {"name": "detection_mbox_conf_softmax", "class_name": "Activation", "config": {"name": "detection_mbox_conf_softmax", "trainable": true, "activation": "softmax"}, "inbound_nodes": [[["detection_mbox_conf", 0, 0, {}]]]}, {"name": "detection_mbox_loc", "class_name": "Concatenate", "config": {"name": "detection_mbox_loc", "trainable": true, "axis": 1}, "inbound_nodes": [[["detection_conv4_3_norm_mbox_loc_reshape", 0, 0, {}], ["detection_fc7_mbox_loc_reshape", 0, 0, {}], ["detection_conv6_2_mbox_loc_reshape", 0, 0, {}], ["detection_conv7_2_mbox_loc_reshape", 0, 0, {}], ["detection_conv8_2_mbox_loc_reshape", 0, 0, {}], ["detection_conv9_2_mbox_loc_reshape", 0, 0, {}]]]}, {"name": "detection_mbox_priorbox", "class_name": "Concatenate", "config": {"name": "detection_mbox_priorbox", "trainable": true, "axis": 1}, "inbound_nodes": [[["detection_conv4_3_norm_mbox_priorbox_reshape", 0, 0, {}], ["detection_fc7_mbox_priorbox_reshape", 0, 0, {}], ["detection_conv6_2_mbox_priorbox_reshape", 0, 0, {}], ["detection_conv7_2_mbox_priorbox_reshape", 0, 0, {}], ["detection_conv8_2_mbox_priorbox_reshape", 0, 0, {}], ["detection_conv9_2_mbox_priorbox_reshape", 0, 0, {}]]]}, {"name": "detection_predictions", "class_name": "Concatenate", "config": {"name": "detection_predictions", "trainable": true, "axis": 2}, "inbound_nodes": [[["detection_mbox_conf_softmax", 0, 0, {}], ["detection_mbox_loc", 0, 0, {}], ["detection_mbox_priorbox", 0, 0, {}]]]}], "input_layers": [["input_1", 0, 0]], "output_layers": [["detection_predictions", 0, 0]]}}, "training_config": {"optimizer_config": {"class_name": "Adam", "config": {"lr": 0.0020000000949949026, "beta_1": 0.8999999761581421, "beta_2": 0.9990000128746033, "decay": 0.0, "epsilon": 1e-06, "amsgrad": false}}, "loss": "compute_loss", "metrics": [], "sample_weight_mode": null, "loss_weights": null}}, "weightsManifest": [{"paths": ["group1-shard1of4", "group1-shard2of4", "group1-shard3of4", "group1-shard4of4"], "weights": [{"name": "conv1/kernel", "shape": [3, 3, 3, 32], "dtype": "float32"}, {"name": "conv1_bn/gamma", "shape": [32], "dtype": "float32"}, {"name": "conv1_bn/beta", "shape": [32], "dtype": "float32"}, {"name": "conv1_bn/moving_mean", "shape": [32], "dtype": "float32"}, {"name": "conv1_bn/moving_variance", "shape": [32], "dtype": "float32"}, {"name": "conv_dw_1/depthwise_kernel", "shape": [3, 3, 32, 1], "dtype": "float32"}, {"name": "conv_dw_10/depthwise_kernel", "shape": [3, 3, 512, 1], "dtype": "float32"}, {"name": "conv_dw_10_bn/gamma", "shape": [512], "dtype": "float32"}, {"name": "conv_dw_10_bn/beta", "shape": [512], "dtype": "float32"}, {"name": "conv_dw_10_bn/moving_mean", "shape": [512], "dtype": "float32"}, {"name": "conv_dw_10_bn/moving_variance", "shape": [512], "dtype": "float32"}, {"name": "conv_dw_11/depthwise_kernel", "shape": [3, 3, 512, 1], "dtype": "float32"}, {"name": "conv_dw_11_bn/gamma", "shape": [512], "dtype": "float32"}, {"name": "conv_dw_11_bn/beta", "shape": [512], "dtype": "float32"}, {"name": "conv_dw_11_bn/moving_mean", "shape": [512], "dtype": "float32"}, {"name": "conv_dw_11_bn/moving_variance", "shape": [512], "dtype": "float32"}, {"name": "conv_dw_12/depthwise_kernel", "shape": [3, 3, 512, 1], "dtype": "float32"}, {"name": "conv_dw_12_bn/gamma", "shape": [512], "dtype": "float32"}, {"name": "conv_dw_12_bn/beta", "shape": [512], "dtype": "float32"}, {"name": "conv_dw_12_bn/moving_mean", "shape": [512], "dtype": "float32"}, {"name": "conv_dw_12_bn/moving_variance", "shape": [512], "dtype": "float32"}, {"name": "conv_dw_13/depthwise_kernel", "shape": [3, 3, 1024, 1], "dtype": "float32"}, {"name": "conv_dw_13_bn/gamma", "shape": [1024], "dtype": "float32"}, {"name": "conv_dw_13_bn/beta", "shape": [1024], "dtype": "float32"}, {"name": "conv_dw_13_bn/moving_mean", "shape": [1024], "dtype": "float32"}, {"name": "conv_dw_13_bn/moving_variance", "shape": [1024], "dtype": "float32"}, {"name": "conv_dw_1_bn/gamma", "shape": [32], "dtype": "float32"}, {"name": "conv_dw_1_bn/beta", "shape": [32], "dtype": "float32"}, {"name": "conv_dw_1_bn/moving_mean", "shape": [32], "dtype": "float32"}, {"name": "conv_dw_1_bn/moving_variance", "shape": [32], "dtype": "float32"}, {"name": "conv_dw_2/depthwise_kernel", "shape": [3, 3, 64, 1], "dtype": "float32"}, {"name": "conv_dw_2_bn/gamma", "shape": [64], "dtype": "float32"}, {"name": "conv_dw_2_bn/beta", "shape": [64], "dtype": "float32"}, {"name": "conv_dw_2_bn/moving_mean", "shape": [64], "dtype": "float32"}, {"name": "conv_dw_2_bn/moving_variance", "shape": [64], "dtype": "float32"}, {"name": "conv_dw_3/depthwise_kernel", "shape": [3, 3, 128, 1], "dtype": "float32"}, {"name": "conv_dw_3_bn/gamma", "shape": [128], "dtype": "float32"}, {"name": "conv_dw_3_bn/beta", "shape": [128], "dtype": "float32"}, {"name": "conv_dw_3_bn/moving_mean", "shape": [128], "dtype": "float32"}, {"name": "conv_dw_3_bn/moving_variance", "shape": [128], "dtype": "float32"}, {"name": "conv_dw_4/depthwise_kernel", "shape": [3, 3, 128, 1], "dtype": "float32"}, {"name": "conv_dw_4_bn/gamma", "shape": [128], "dtype": "float32"}, {"name": "conv_dw_4_bn/beta", "shape": [128], "dtype": "float32"}, {"name": "conv_dw_4_bn/moving_mean", "shape": [128], "dtype": "float32"}, {"name": "conv_dw_4_bn/moving_variance", "shape": [128], "dtype": "float32"}, {"name": "conv_dw_5/depthwise_kernel", "shape": [3, 3, 256, 1], "dtype": "float32"}, {"name": "conv_dw_5_bn/gamma", "shape": [256], "dtype": "float32"}, {"name": "conv_dw_5_bn/beta", "shape": [256], "dtype": "float32"}, {"name": "conv_dw_5_bn/moving_mean", "shape": [256], "dtype": "float32"}, {"name": "conv_dw_5_bn/moving_variance", "shape": [256], "dtype": "float32"}, {"name": "conv_dw_6/depthwise_kernel", "shape": [3, 3, 256, 1], "dtype": "float32"}, {"name": "conv_dw_6_bn/gamma", "shape": [256], "dtype": "float32"}, {"name": "conv_dw_6_bn/beta", "shape": [256], "dtype": "float32"}, {"name": "conv_dw_6_bn/moving_mean", "shape": [256], "dtype": "float32"}, {"name": "conv_dw_6_bn/moving_variance", "shape": [256], "dtype": "float32"}, {"name": "conv_dw_7/depthwise_kernel", "shape": [3, 3, 512, 1], "dtype": "float32"}, {"name": "conv_dw_7_bn/gamma", "shape": [512], "dtype": "float32"}, {"name": "conv_dw_7_bn/beta", "shape": [512], "dtype": "float32"}, {"name": "conv_dw_7_bn/moving_mean", "shape": [512], "dtype": "float32"}, {"name": "conv_dw_7_bn/moving_variance", "shape": [512], "dtype": "float32"}, {"name": "conv_dw_8/depthwise_kernel", "shape": [3, 3, 512, 1], "dtype": "float32"}, {"name": "conv_dw_8_bn/gamma", "shape": [512], "dtype": "float32"}, {"name": "conv_dw_8_bn/beta", "shape": [512], "dtype": "float32"}, {"name": "conv_dw_8_bn/moving_mean", "shape": [512], "dtype": "float32"}, {"name": "conv_dw_8_bn/moving_variance", "shape": [512], "dtype": "float32"}, {"name": "conv_dw_9/depthwise_kernel", "shape": [3, 3, 512, 1], "dtype": "float32"}, {"name": "conv_dw_9_bn/gamma", "shape": [512], "dtype": "float32"}, {"name": "conv_dw_9_bn/beta", "shape": [512], "dtype": "float32"}, {"name": "conv_dw_9_bn/moving_mean", "shape": [512], "dtype": "float32"}, {"name": "conv_dw_9_bn/moving_variance", "shape": [512], "dtype": "float32"}, {"name": "conv_pw_1/kernel", "shape": [1, 1, 32, 64], "dtype": "float32"}, {"name": "conv_pw_10/kernel", "shape": [1, 1, 512, 512], "dtype": "float32"}, {"name": "conv_pw_10_bn/gamma", "shape": [512], "dtype": "float32"}, {"name": "conv_pw_10_bn/beta", "shape": [512], "dtype": "float32"}, {"name": "conv_pw_10_bn/moving_mean", "shape": [512], "dtype": "float32"}, {"name": "conv_pw_10_bn/moving_variance", "shape": [512], "dtype": "float32"}, {"name": "conv_pw_11/kernel", "shape": [1, 1, 512, 512], "dtype": "float32"}, {"name": "conv_pw_11_bn/gamma", "shape": [512], "dtype": "float32"}, {"name": "conv_pw_11_bn/beta", "shape": [512], "dtype": "float32"}, {"name": "conv_pw_11_bn/moving_mean", "shape": [512], "dtype": "float32"}, {"name": "conv_pw_11_bn/moving_variance", "shape": [512], "dtype": "float32"}, {"name": "conv_pw_12/kernel", "shape": [1, 1, 512, 1024], "dtype": "float32"}, {"name": "conv_pw_12_bn/gamma", "shape": [1024], "dtype": "float32"}, {"name": "conv_pw_12_bn/beta", "shape": [1024], "dtype": "float32"}, {"name": "conv_pw_12_bn/moving_mean", "shape": [1024], "dtype": "float32"}, {"name": "conv_pw_12_bn/moving_variance", "shape": [1024], "dtype": "float32"}, {"name": "conv_pw_13/kernel", "shape": [1, 1, 1024, 1024], "dtype": "float32"}, {"name": "conv_pw_13_bn/gamma", "shape": [1024], "dtype": "float32"}, {"name": "conv_pw_13_bn/beta", "shape": [1024], "dtype": "float32"}, {"name": "conv_pw_13_bn/moving_mean", "shape": [1024], "dtype": "float32"}, {"name": "conv_pw_13_bn/moving_variance", "shape": [1024], "dtype": "float32"}, {"name": "conv_pw_1_bn/gamma", "shape": [64], "dtype": "float32"}, {"name": "conv_pw_1_bn/beta", "shape": [64], "dtype": "float32"}, {"name": "conv_pw_1_bn/moving_mean", "shape": [64], "dtype": "float32"}, {"name": "conv_pw_1_bn/moving_variance", "shape": [64], "dtype": "float32"}, {"name": "conv_pw_2/kernel", "shape": [1, 1, 64, 128], "dtype": "float32"}, {"name": "conv_pw_2_bn/gamma", "shape": [128], "dtype": "float32"}, {"name": "conv_pw_2_bn/beta", "shape": [128], "dtype": "float32"}, {"name": "conv_pw_2_bn/moving_mean", "shape": [128], "dtype": "float32"}, {"name": "conv_pw_2_bn/moving_variance", "shape": [128], "dtype": "float32"}, {"name": "conv_pw_3/kernel", "shape": [1, 1, 128, 128], "dtype": "float32"}, {"name": "conv_pw_3_bn/gamma", "shape": [128], "dtype": "float32"}, {"name": "conv_pw_3_bn/beta", "shape": [128], "dtype": "float32"}, {"name": "conv_pw_3_bn/moving_mean", "shape": [128], "dtype": "float32"}, {"name": "conv_pw_3_bn/moving_variance", "shape": [128], "dtype": "float32"}, {"name": "conv_pw_4/kernel", "shape": [1, 1, 128, 256], "dtype": "float32"}, {"name": "conv_pw_4_bn/gamma", "shape": [256], "dtype": "float32"}, {"name": "conv_pw_4_bn/beta", "shape": [256], "dtype": "float32"}, {"name": "conv_pw_4_bn/moving_mean", "shape": [256], "dtype": "float32"}, {"name": "conv_pw_4_bn/moving_variance", "shape": [256], "dtype": "float32"}, {"name": "conv_pw_5/kernel", "shape": [1, 1, 256, 256], "dtype": "float32"}, {"name": "conv_pw_5_bn/gamma", "shape": [256], "dtype": "float32"}, {"name": "conv_pw_5_bn/beta", "shape": [256], "dtype": "float32"}, {"name": "conv_pw_5_bn/moving_mean", "shape": [256], "dtype": "float32"}, {"name": "conv_pw_5_bn/moving_variance", "shape": [256], "dtype": "float32"}, {"name": "conv_pw_6/kernel", "shape": [1, 1, 256, 512], "dtype": "float32"}, {"name": "conv_pw_6_bn/gamma", "shape": [512], "dtype": "float32"}, {"name": "conv_pw_6_bn/beta", "shape": [512], "dtype": "float32"}, {"name": "conv_pw_6_bn/moving_mean", "shape": [512], "dtype": "float32"}, {"name": "conv_pw_6_bn/moving_variance", "shape": [512], "dtype": "float32"}, {"name": "conv_pw_7/kernel", "shape": [1, 1, 512, 512], "dtype": "float32"}, {"name": "conv_pw_7_bn/gamma", "shape": [512], "dtype": "float32"}, {"name": "conv_pw_7_bn/beta", "shape": [512], "dtype": "float32"}, {"name": "conv_pw_7_bn/moving_mean", "shape": [512], "dtype": "float32"}, {"name": "conv_pw_7_bn/moving_variance", "shape": [512], "dtype": "float32"}, {"name": "conv_pw_8/kernel", "shape": [1, 1, 512, 512], "dtype": "float32"}, {"name": "conv_pw_8_bn/gamma", "shape": [512], "dtype": "float32"}, {"name": "conv_pw_8_bn/beta", "shape": [512], "dtype": "float32"}, {"name": "conv_pw_8_bn/moving_mean", "shape": [512], "dtype": "float32"}, {"name": "conv_pw_8_bn/moving_variance", "shape": [512], "dtype": "float32"}, {"name": "conv_pw_9/kernel", "shape": [1, 1, 512, 512], "dtype": "float32"}, {"name": "conv_pw_9_bn/gamma", "shape": [512], "dtype": "float32"}, {"name": "conv_pw_9_bn/beta", "shape": [512], "dtype": "float32"}, {"name": "conv_pw_9_bn/moving_mean", "shape": [512], "dtype": "float32"}, {"name": "conv_pw_9_bn/moving_variance", "shape": [512], "dtype": "float32"}, {"name": "detection_conv4_3_norm/detection_conv4_3_norm_gamma", "shape": [512], "dtype": "float32"}, {"name": "detection_conv4_3_norm_mbox_conf_conv_dw_1/depthwise_kernel", "shape": [3, 3, 512, 1], "dtype": "float32"}, {"name": "detection_conv4_3_norm_mbox_conf_conv_dw_1_bn/gamma", "shape": [512], "dtype": "float32"}, {"name": "detection_conv4_3_norm_mbox_conf_conv_dw_1_bn/beta", "shape": [512], "dtype": "float32"}, {"name": "detection_conv4_3_norm_mbox_conf_conv_dw_1_bn/moving_mean", "shape": [512], "dtype": "float32"}, {"name": "detection_conv4_3_norm_mbox_conf_conv_dw_1_bn/moving_variance", "shape": [512], "dtype": "float32"}, {"name": "detection_conv4_3_norm_mbox_conf_conv_pw_1/kernel", "shape": [1, 1, 512, 8], "dtype": "float32"}, {"name": "detection_conv4_3_norm_mbox_conf_conv_pw_1_bn/gamma", "shape": [8], "dtype": "float32"}, {"name": "detection_conv4_3_norm_mbox_conf_conv_pw_1_bn/beta", "shape": [8], "dtype": "float32"}, {"name": "detection_conv4_3_norm_mbox_conf_conv_pw_1_bn/moving_mean", "shape": [8], "dtype": "float32"}, {"name": "detection_conv4_3_norm_mbox_conf_conv_pw_1_bn/moving_variance", "shape": [8], "dtype": "float32"}, {"name": "detection_conv4_3_norm_mbox_loc_conv_dw_1/depthwise_kernel", "shape": [3, 3, 512, 1], "dtype": "float32"}, {"name": "detection_conv4_3_norm_mbox_loc_conv_dw_1_bn/gamma", "shape": [512], "dtype": "float32"}, {"name": "detection_conv4_3_norm_mbox_loc_conv_dw_1_bn/beta", "shape": [512], "dtype": "float32"}, {"name": "detection_conv4_3_norm_mbox_loc_conv_dw_1_bn/moving_mean", "shape": [512], "dtype": "float32"}, {"name": "detection_conv4_3_norm_mbox_loc_conv_dw_1_bn/moving_variance", "shape": [512], "dtype": "float32"}, {"name": "detection_conv4_3_norm_mbox_loc_conv_pw_1/kernel", "shape": [1, 1, 512, 16], "dtype": "float32"}, {"name": "detection_conv4_3_norm_mbox_loc_conv_pw_1_bn/gamma", "shape": [16], "dtype": "float32"}, {"name": "detection_conv4_3_norm_mbox_loc_conv_pw_1_bn/beta", "shape": [16], "dtype": "float32"}, {"name": "detection_conv4_3_norm_mbox_loc_conv_pw_1_bn/moving_mean", "shape": [16], "dtype": "float32"}, {"name": "detection_conv4_3_norm_mbox_loc_conv_pw_1_bn/moving_variance", "shape": [16], "dtype": "float32"}, {"name": "detection_conv6_1/kernel", "shape": [1, 1, 1024, 256], "dtype": "float32"}, {"name": "detection_conv6_1/bias", "shape": [256], "dtype": "float32"}, {"name": "detection_conv6_1_bn/gamma", "shape": [256], "dtype": "float32"}, {"name": "detection_conv6_1_bn/beta", "shape": [256], "dtype": "float32"}, {"name": "detection_conv6_1_bn/moving_mean", "shape": [256], "dtype": "float32"}, {"name": "detection_conv6_1_bn/moving_variance", "shape": [256], "dtype": "float32"}, {"name": "detection_conv6_2_conv_dw_1/depthwise_kernel", "shape": [3, 3, 256, 1], "dtype": "float32"}, {"name": "detection_conv6_2_conv_dw_1_bn/gamma", "shape": [256], "dtype": "float32"}, {"name": "detection_conv6_2_conv_dw_1_bn/beta", "shape": [256], "dtype": "float32"}, {"name": "detection_conv6_2_conv_dw_1_bn/moving_mean", "shape": [256], "dtype": "float32"}, {"name": "detection_conv6_2_conv_dw_1_bn/moving_variance", "shape": [256], "dtype": "float32"}, {"name": "detection_conv6_2_conv_pw_1/kernel", "shape": [1, 1, 256, 512], "dtype": "float32"}, {"name": "detection_conv6_2_conv_pw_1_bn/gamma", "shape": [512], "dtype": "float32"}, {"name": "detection_conv6_2_conv_pw_1_bn/beta", "shape": [512], "dtype": "float32"}, {"name": "detection_conv6_2_conv_pw_1_bn/moving_mean", "shape": [512], "dtype": "float32"}, {"name": "detection_conv6_2_conv_pw_1_bn/moving_variance", "shape": [512], "dtype": "float32"}, {"name": "detection_conv6_2_mbox_conf_conv_dw_3/depthwise_kernel", "shape": [3, 3, 512, 1], "dtype": "float32"}, {"name": "detection_conv6_2_mbox_conf_conv_dw_3_bn/gamma", "shape": [512], "dtype": "float32"}, {"name": "detection_conv6_2_mbox_conf_conv_dw_3_bn/beta", "shape": [512], "dtype": "float32"}, {"name": "detection_conv6_2_mbox_conf_conv_dw_3_bn/moving_mean", "shape": [512], "dtype": "float32"}, {"name": "detection_conv6_2_mbox_conf_conv_dw_3_bn/moving_variance", "shape": [512], "dtype": "float32"}, {"name": "detection_conv6_2_mbox_conf_conv_pw_3/kernel", "shape": [1, 1, 512, 12], "dtype": "float32"}, {"name": "detection_conv6_2_mbox_conf_conv_pw_3_bn/gamma", "shape": [12], "dtype": "float32"}, {"name": "detection_conv6_2_mbox_conf_conv_pw_3_bn/beta", "shape": [12], "dtype": "float32"}, {"name": "detection_conv6_2_mbox_conf_conv_pw_3_bn/moving_mean", "shape": [12], "dtype": "float32"}, {"name": "detection_conv6_2_mbox_conf_conv_pw_3_bn/moving_variance", "shape": [12], "dtype": "float32"}, {"name": "detection_conv6_2_mbox_loc_conv_dw_3/depthwise_kernel", "shape": [3, 3, 512, 1], "dtype": "float32"}, {"name": "detection_conv6_2_mbox_loc_conv_dw_3_bn/gamma", "shape": [512], "dtype": "float32"}, {"name": "detection_conv6_2_mbox_loc_conv_dw_3_bn/beta", "shape": [512], "dtype": "float32"}, {"name": "detection_conv6_2_mbox_loc_conv_dw_3_bn/moving_mean", "shape": [512], "dtype": "float32"}, {"name": "detection_conv6_2_mbox_loc_conv_dw_3_bn/moving_variance", "shape": [512], "dtype": "float32"}, {"name": "detection_conv6_2_mbox_loc_conv_pw_3/kernel", "shape": [1, 1, 512, 24], "dtype": "float32"}, {"name": "detection_conv6_2_mbox_loc_conv_pw_3_bn/gamma", "shape": [24], "dtype": "float32"}, {"name": "detection_conv6_2_mbox_loc_conv_pw_3_bn/beta", "shape": [24], "dtype": "float32"}, {"name": "detection_conv6_2_mbox_loc_conv_pw_3_bn/moving_mean", "shape": [24], "dtype": "float32"}, {"name": "detection_conv6_2_mbox_loc_conv_pw_3_bn/moving_variance", "shape": [24], "dtype": "float32"}, {"name": "detection_conv7_1/kernel", "shape": [1, 1, 512, 128], "dtype": "float32"}, {"name": "detection_conv7_1/bias", "shape": [128], "dtype": "float32"}, {"name": "detection_conv7_1_bn/gamma", "shape": [128], "dtype": "float32"}, {"name": "detection_conv7_1_bn/beta", "shape": [128], "dtype": "float32"}, {"name": "detection_conv7_1_bn/moving_mean", "shape": [128], "dtype": "float32"}, {"name": "detection_conv7_1_bn/moving_variance", "shape": [128], "dtype": "float32"}, {"name": "detection_conv7_2_conv_dw_2/depthwise_kernel", "shape": [3, 3, 128, 1], "dtype": "float32"}, {"name": "detection_conv7_2_conv_dw_2_bn/gamma", "shape": [128], "dtype": "float32"}, {"name": "detection_conv7_2_conv_dw_2_bn/beta", "shape": [128], "dtype": "float32"}, {"name": "detection_conv7_2_conv_dw_2_bn/moving_mean", "shape": [128], "dtype": "float32"}, {"name": "detection_conv7_2_conv_dw_2_bn/moving_variance", "shape": [128], "dtype": "float32"}, {"name": "detection_conv7_2_conv_pw_2/kernel", "shape": [1, 1, 128, 256], "dtype": "float32"}, {"name": "detection_conv7_2_conv_pw_2_bn/gamma", "shape": [256], "dtype": "float32"}, {"name": "detection_conv7_2_conv_pw_2_bn/beta", "shape": [256], "dtype": "float32"}, {"name": "detection_conv7_2_conv_pw_2_bn/moving_mean", "shape": [256], "dtype": "float32"}, {"name": "detection_conv7_2_conv_pw_2_bn/moving_variance", "shape": [256], "dtype": "float32"}, {"name": "detection_conv7_2_mbox_conf_conv_dw_4/depthwise_kernel", "shape": [3, 3, 256, 1], "dtype": "float32"}, {"name": "detection_conv7_2_mbox_conf_conv_dw_4_bn/gamma", "shape": [256], "dtype": "float32"}, {"name": "detection_conv7_2_mbox_conf_conv_dw_4_bn/beta", "shape": [256], "dtype": "float32"}, {"name": "detection_conv7_2_mbox_conf_conv_dw_4_bn/moving_mean", "shape": [256], "dtype": "float32"}, {"name": "detection_conv7_2_mbox_conf_conv_dw_4_bn/moving_variance", "shape": [256], "dtype": "float32"}, {"name": "detection_conv7_2_mbox_conf_conv_pw_4/kernel", "shape": [1, 1, 256, 12], "dtype": "float32"}, {"name": "detection_conv7_2_mbox_conf_conv_pw_4_bn/gamma", "shape": [12], "dtype": "float32"}, {"name": "detection_conv7_2_mbox_conf_conv_pw_4_bn/beta", "shape": [12], "dtype": "float32"}, {"name": "detection_conv7_2_mbox_conf_conv_pw_4_bn/moving_mean", "shape": [12], "dtype": "float32"}, {"name": "detection_conv7_2_mbox_conf_conv_pw_4_bn/moving_variance", "shape": [12], "dtype": "float32"}, {"name": "detection_conv7_2_mbox_loc_conv_dw_4/depthwise_kernel", "shape": [3, 3, 256, 1], "dtype": "float32"}, {"name": "detection_conv7_2_mbox_loc_conv_dw_4_bn/gamma", "shape": [256], "dtype": "float32"}, {"name": "detection_conv7_2_mbox_loc_conv_dw_4_bn/beta", "shape": [256], "dtype": "float32"}, {"name": "detection_conv7_2_mbox_loc_conv_dw_4_bn/moving_mean", "shape": [256], "dtype": "float32"}, {"name": "detection_conv7_2_mbox_loc_conv_dw_4_bn/moving_variance", "shape": [256], "dtype": "float32"}, {"name": "detection_conv7_2_mbox_loc_conv_pw_4/kernel", "shape": [1, 1, 256, 24], "dtype": "float32"}, {"name": "detection_conv7_2_mbox_loc_conv_pw_4_bn/gamma", "shape": [24], "dtype": "float32"}, {"name": "detection_conv7_2_mbox_loc_conv_pw_4_bn/beta", "shape": [24], "dtype": "float32"}, {"name": "detection_conv7_2_mbox_loc_conv_pw_4_bn/moving_mean", "shape": [24], "dtype": "float32"}, {"name": "detection_conv7_2_mbox_loc_conv_pw_4_bn/moving_variance", "shape": [24], "dtype": "float32"}, {"name": "detection_conv8_1/kernel", "shape": [1, 1, 256, 128], "dtype": "float32"}, {"name": "detection_conv8_1/bias", "shape": [128], "dtype": "float32"}, {"name": "detection_conv8_1_bn/gamma", "shape": [128], "dtype": "float32"}, {"name": "detection_conv8_1_bn/beta", "shape": [128], "dtype": "float32"}, {"name": "detection_conv8_1_bn/moving_mean", "shape": [128], "dtype": "float32"}, {"name": "detection_conv8_1_bn/moving_variance", "shape": [128], "dtype": "float32"}, {"name": "detection_conv8_2_conv_dw_3/depthwise_kernel", "shape": [3, 3, 128, 1], "dtype": "float32"}, {"name": "detection_conv8_2_conv_dw_3_bn/gamma", "shape": [128], "dtype": "float32"}, {"name": "detection_conv8_2_conv_dw_3_bn/beta", "shape": [128], "dtype": "float32"}, {"name": "detection_conv8_2_conv_dw_3_bn/moving_mean", "shape": [128], "dtype": "float32"}, {"name": "detection_conv8_2_conv_dw_3_bn/moving_variance", "shape": [128], "dtype": "float32"}, {"name": "detection_conv8_2_conv_pw_3/kernel", "shape": [1, 1, 128, 256], "dtype": "float32"}, {"name": "detection_conv8_2_conv_pw_3_bn/gamma", "shape": [256], "dtype": "float32"}, {"name": "detection_conv8_2_conv_pw_3_bn/beta", "shape": [256], "dtype": "float32"}, {"name": "detection_conv8_2_conv_pw_3_bn/moving_mean", "shape": [256], "dtype": "float32"}, {"name": "detection_conv8_2_conv_pw_3_bn/moving_variance", "shape": [256], "dtype": "float32"}, {"name": "detection_conv8_2_mbox_conf_conv_dw_5/depthwise_kernel", "shape": [3, 3, 256, 1], "dtype": "float32"}, {"name": "detection_conv8_2_mbox_conf_conv_dw_5_bn/gamma", "shape": [256], "dtype": "float32"}, {"name": "detection_conv8_2_mbox_conf_conv_dw_5_bn/beta", "shape": [256], "dtype": "float32"}, {"name": "detection_conv8_2_mbox_conf_conv_dw_5_bn/moving_mean", "shape": [256], "dtype": "float32"}, {"name": "detection_conv8_2_mbox_conf_conv_dw_5_bn/moving_variance", "shape": [256], "dtype": "float32"}, {"name": "detection_conv8_2_mbox_conf_conv_pw_5/kernel", "shape": [1, 1, 256, 8], "dtype": "float32"}, {"name": "detection_conv8_2_mbox_conf_conv_pw_5_bn/gamma", "shape": [8], "dtype": "float32"}, {"name": "detection_conv8_2_mbox_conf_conv_pw_5_bn/beta", "shape": [8], "dtype": "float32"}, {"name": "detection_conv8_2_mbox_conf_conv_pw_5_bn/moving_mean", "shape": [8], "dtype": "float32"}, {"name": "detection_conv8_2_mbox_conf_conv_pw_5_bn/moving_variance", "shape": [8], "dtype": "float32"}, {"name": "detection_conv8_2_mbox_loc_conv_dw_5/depthwise_kernel", "shape": [3, 3, 256, 1], "dtype": "float32"}, {"name": "detection_conv8_2_mbox_loc_conv_dw_5_bn/gamma", "shape": [256], "dtype": "float32"}, {"name": "detection_conv8_2_mbox_loc_conv_dw_5_bn/beta", "shape": [256], "dtype": "float32"}, {"name": "detection_conv8_2_mbox_loc_conv_dw_5_bn/moving_mean", "shape": [256], "dtype": "float32"}, {"name": "detection_conv8_2_mbox_loc_conv_dw_5_bn/moving_variance", "shape": [256], "dtype": "float32"}, {"name": "detection_conv8_2_mbox_loc_conv_pw_5/kernel", "shape": [1, 1, 256, 16], "dtype": "float32"}, {"name": "detection_conv8_2_mbox_loc_conv_pw_5_bn/gamma", "shape": [16], "dtype": "float32"}, {"name": "detection_conv8_2_mbox_loc_conv_pw_5_bn/beta", "shape": [16], "dtype": "float32"}, {"name": "detection_conv8_2_mbox_loc_conv_pw_5_bn/moving_mean", "shape": [16], "dtype": "float32"}, {"name": "detection_conv8_2_mbox_loc_conv_pw_5_bn/moving_variance", "shape": [16], "dtype": "float32"}, {"name": "detection_conv9_1/kernel", "shape": [1, 1, 256, 64], "dtype": "float32"}, {"name": "detection_conv9_1/bias", "shape": [64], "dtype": "float32"}, {"name": "detection_conv9_1_bn/gamma", "shape": [64], "dtype": "float32"}, {"name": "detection_conv9_1_bn/beta", "shape": [64], "dtype": "float32"}, {"name": "detection_conv9_1_bn/moving_mean", "shape": [64], "dtype": "float32"}, {"name": "detection_conv9_1_bn/moving_variance", "shape": [64], "dtype": "float32"}, {"name": "detection_conv9_2_conv_dw_4/depthwise_kernel", "shape": [3, 3, 64, 1], "dtype": "float32"}, {"name": "detection_conv9_2_conv_dw_4_bn/gamma", "shape": [64], "dtype": "float32"}, {"name": "detection_conv9_2_conv_dw_4_bn/beta", "shape": [64], "dtype": "float32"}, {"name": "detection_conv9_2_conv_dw_4_bn/moving_mean", "shape": [64], "dtype": "float32"}, {"name": "detection_conv9_2_conv_dw_4_bn/moving_variance", "shape": [64], "dtype": "float32"}, {"name": "detection_conv9_2_conv_pw_4/kernel", "shape": [1, 1, 64, 256], "dtype": "float32"}, {"name": "detection_conv9_2_conv_pw_4_bn/gamma", "shape": [256], "dtype": "float32"}, {"name": "detection_conv9_2_conv_pw_4_bn/beta", "shape": [256], "dtype": "float32"}, {"name": "detection_conv9_2_conv_pw_4_bn/moving_mean", "shape": [256], "dtype": "float32"}, {"name": "detection_conv9_2_conv_pw_4_bn/moving_variance", "shape": [256], "dtype": "float32"}, {"name": "detection_conv9_2_mbox_conf_conv_dw_6/depthwise_kernel", "shape": [3, 3, 256, 1], "dtype": "float32"}, {"name": "detection_conv9_2_mbox_conf_conv_dw_6_bn/gamma", "shape": [256], "dtype": "float32"}, {"name": "detection_conv9_2_mbox_conf_conv_dw_6_bn/beta", "shape": [256], "dtype": "float32"}, {"name": "detection_conv9_2_mbox_conf_conv_dw_6_bn/moving_mean", "shape": [256], "dtype": "float32"}, {"name": "detection_conv9_2_mbox_conf_conv_dw_6_bn/moving_variance", "shape": [256], "dtype": "float32"}, {"name": "detection_conv9_2_mbox_conf_conv_pw_6/kernel", "shape": [1, 1, 256, 8], "dtype": "float32"}, {"name": "detection_conv9_2_mbox_conf_conv_pw_6_bn/gamma", "shape": [8], "dtype": "float32"}, {"name": "detection_conv9_2_mbox_conf_conv_pw_6_bn/beta", "shape": [8], "dtype": "float32"}, {"name": "detection_conv9_2_mbox_conf_conv_pw_6_bn/moving_mean", "shape": [8], "dtype": "float32"}, {"name": "detection_conv9_2_mbox_conf_conv_pw_6_bn/moving_variance", "shape": [8], "dtype": "float32"}, {"name": "detection_conv9_2_mbox_loc_conv_dw_5/depthwise_kernel", "shape": [3, 3, 256, 1], "dtype": "float32"}, {"name": "detection_conv9_2_mbox_loc_conv_dw_5_bn/gamma", "shape": [256], "dtype": "float32"}, {"name": "detection_conv9_2_mbox_loc_conv_dw_5_bn/beta", "shape": [256], "dtype": "float32"}, {"name": "detection_conv9_2_mbox_loc_conv_dw_5_bn/moving_mean", "shape": [256], "dtype": "float32"}, {"name": "detection_conv9_2_mbox_loc_conv_dw_5_bn/moving_variance", "shape": [256], "dtype": "float32"}, {"name": "detection_conv9_2_mbox_loc_conv_pw_5/kernel", "shape": [1, 1, 256, 16], "dtype": "float32"}, {"name": "detection_conv9_2_mbox_loc_conv_pw_5_bn/gamma", "shape": [16], "dtype": "float32"}, {"name": "detection_conv9_2_mbox_loc_conv_pw_5_bn/beta", "shape": [16], "dtype": "float32"}, {"name": "detection_conv9_2_mbox_loc_conv_pw_5_bn/moving_mean", "shape": [16], "dtype": "float32"}, {"name": "detection_conv9_2_mbox_loc_conv_pw_5_bn/moving_variance", "shape": [16], "dtype": "float32"}, {"name": "detection_fc7_mbox_conf_conv_dw_2/depthwise_kernel", "shape": [3, 3, 1024, 1], "dtype": "float32"}, {"name": "detection_fc7_mbox_conf_conv_dw_2_bn/gamma", "shape": [1024], "dtype": "float32"}, {"name": "detection_fc7_mbox_conf_conv_dw_2_bn/beta", "shape": [1024], "dtype": "float32"}, {"name": "detection_fc7_mbox_conf_conv_dw_2_bn/moving_mean", "shape": [1024], "dtype": "float32"}, {"name": "detection_fc7_mbox_conf_conv_dw_2_bn/moving_variance", "shape": [1024], "dtype": "float32"}, {"name": "detection_fc7_mbox_conf_conv_pw_2/kernel", "shape": [1, 1, 1024, 12], "dtype": "float32"}, {"name": "detection_fc7_mbox_conf_conv_pw_2_bn/gamma", "shape": [12], "dtype": "float32"}, {"name": "detection_fc7_mbox_conf_conv_pw_2_bn/beta", "shape": [12], "dtype": "float32"}, {"name": "detection_fc7_mbox_conf_conv_pw_2_bn/moving_mean", "shape": [12], "dtype": "float32"}, {"name": "detection_fc7_mbox_conf_conv_pw_2_bn/moving_variance", "shape": [12], "dtype": "float32"}, {"name": "detection_fc7_mbox_loc_conv_dw_2/depthwise_kernel", "shape": [3, 3, 1024, 1], "dtype": "float32"}, {"name": "detection_fc7_mbox_loc_conv_dw_2_bn/gamma", "shape": [1024], "dtype": "float32"}, {"name": "detection_fc7_mbox_loc_conv_dw_2_bn/beta", "shape": [1024], "dtype": "float32"}, {"name": "detection_fc7_mbox_loc_conv_dw_2_bn/moving_mean", "shape": [1024], "dtype": "float32"}, {"name": "detection_fc7_mbox_loc_conv_dw_2_bn/moving_variance", "shape": [1024], "dtype": "float32"}, {"name": "detection_fc7_mbox_loc_conv_pw_2/kernel", "shape": [1, 1, 1024, 24], "dtype": "float32"}, {"name": "detection_fc7_mbox_loc_conv_pw_2_bn/gamma", "shape": [24], "dtype": "float32"}, {"name": "detection_fc7_mbox_loc_conv_pw_2_bn/beta", "shape": [24], "dtype": "float32"}, {"name": "detection_fc7_mbox_loc_conv_pw_2_bn/moving_mean", "shape": [24], "dtype": "float32"}, {"name": "detection_fc7_mbox_loc_conv_pw_2_bn/moving_variance", "shape": [24], "dtype": "float32"}]}]}